2020-12-17 21:40:45,245 args = Namespace(batch_size=256, data='/datasets/imagenet', epochs=256, label_smooth=0.1, learning_rate=0.0005, momentum=0.9, save='./models', teacher='resnet34', weight_decay=1e-05, workers=40)
2020-12-17 21:40:57,030 student:
2020-12-17 21:40:57,031 reactnet(
  (feature): ModuleList(
    (0): firstconv3x3(
      (conv1): Conv2d(3, 32, kernel_size=(3, 3), stride=(2, 2), padding=(1, 1), bias=False)
      (bn1): BatchNorm2d(32, eps=1e-05, momentum=0.1, affine=True, track_running_stats=True)
    )
    (1): BasicBlock(
      (move11): LearnableBias()
      (binary_3x3): Conv2d(32, 32, kernel_size=(3, 3), stride=(1, 1), padding=(1, 1), bias=False)
      (bn1): BatchNorm2d(32, eps=1e-05, momentum=0.1, affine=True, track_running_stats=True)
      (move12): LearnableBias()
      (prelu1): PReLU(num_parameters=32)
      (move13): LearnableBias()
      (move21): LearnableBias()
      (binary_pw_down1): Conv2d(32, 32, kernel_size=(1, 1), stride=(1, 1), bias=False)
      (binary_pw_down2): Conv2d(32, 32, kernel_size=(1, 1), stride=(1, 1), bias=False)
      (bn2_1): BatchNorm2d(32, eps=1e-05, momentum=0.1, affine=True, track_running_stats=True)
      (bn2_2): BatchNorm2d(32, eps=1e-05, momentum=0.1, affine=True, track_running_stats=True)
      (move22): LearnableBias()
      (prelu2): PReLU(num_parameters=64)
      (move23): LearnableBias()
      (binary_activation): BinaryActivation()
      (pooling): AvgPool2d(kernel_size=2, stride=2, padding=0)
    )
    (2): BasicBlock(
      (move11): LearnableBias()
      (binary_3x3): Conv2d(64, 64, kernel_size=(3, 3), stride=(2, 2), padding=(1, 1), bias=False)
      (bn1): BatchNorm2d(64, eps=1e-05, momentum=0.1, affine=True, track_running_stats=True)
      (move12): LearnableBias()
      (prelu1): PReLU(num_parameters=64)
      (move13): LearnableBias()
      (move21): LearnableBias()
      (binary_pw_down1): Conv2d(64, 64, kernel_size=(1, 1), stride=(1, 1), bias=False)
      (binary_pw_down2): Conv2d(64, 64, kernel_size=(1, 1), stride=(1, 1), bias=False)
      (bn2_1): BatchNorm2d(64, eps=1e-05, momentum=0.1, affine=True, track_running_stats=True)
      (bn2_2): BatchNorm2d(64, eps=1e-05, momentum=0.1, affine=True, track_running_stats=True)
      (move22): LearnableBias()
      (prelu2): PReLU(num_parameters=128)
      (move23): LearnableBias()
      (binary_activation): BinaryActivation()
      (pooling): AvgPool2d(kernel_size=2, stride=2, padding=0)
    )
    (3): BasicBlock(
      (move11): LearnableBias()
      (binary_3x3): Conv2d(128, 128, kernel_size=(3, 3), stride=(1, 1), padding=(1, 1), bias=False)
      (bn1): BatchNorm2d(128, eps=1e-05, momentum=0.1, affine=True, track_running_stats=True)
      (move12): LearnableBias()
      (prelu1): PReLU(num_parameters=128)
      (move13): LearnableBias()
      (move21): LearnableBias()
      (binary_pw): Conv2d(128, 128, kernel_size=(1, 1), stride=(1, 1), bias=False)
      (bn2): BatchNorm2d(128, eps=1e-05, momentum=0.1, affine=True, track_running_stats=True)
      (move22): LearnableBias()
      (prelu2): PReLU(num_parameters=128)
      (move23): LearnableBias()
      (binary_activation): BinaryActivation()
    )
    (4): BasicBlock(
      (move11): LearnableBias()
      (binary_3x3): Conv2d(128, 128, kernel_size=(3, 3), stride=(2, 2), padding=(1, 1), bias=False)
      (bn1): BatchNorm2d(128, eps=1e-05, momentum=0.1, affine=True, track_running_stats=True)
      (move12): LearnableBias()
      (prelu1): PReLU(num_parameters=128)
      (move13): LearnableBias()
      (move21): LearnableBias()
      (binary_pw_down1): Conv2d(128, 128, kernel_size=(1, 1), stride=(1, 1), bias=False)
      (binary_pw_down2): Conv2d(128, 128, kernel_size=(1, 1), stride=(1, 1), bias=False)
      (bn2_1): BatchNorm2d(128, eps=1e-05, momentum=0.1, affine=True, track_running_stats=True)
      (bn2_2): BatchNorm2d(128, eps=1e-05, momentum=0.1, affine=True, track_running_stats=True)
      (move22): LearnableBias()
      (prelu2): PReLU(num_parameters=256)
      (move23): LearnableBias()
      (binary_activation): BinaryActivation()
      (pooling): AvgPool2d(kernel_size=2, stride=2, padding=0)
    )
    (5): BasicBlock(
      (move11): LearnableBias()
      (binary_3x3): Conv2d(256, 256, kernel_size=(3, 3), stride=(1, 1), padding=(1, 1), bias=False)
      (bn1): BatchNorm2d(256, eps=1e-05, momentum=0.1, affine=True, track_running_stats=True)
      (move12): LearnableBias()
      (prelu1): PReLU(num_parameters=256)
      (move13): LearnableBias()
      (move21): LearnableBias()
      (binary_pw): Conv2d(256, 256, kernel_size=(1, 1), stride=(1, 1), bias=False)
      (bn2): BatchNorm2d(256, eps=1e-05, momentum=0.1, affine=True, track_running_stats=True)
      (move22): LearnableBias()
      (prelu2): PReLU(num_parameters=256)
      (move23): LearnableBias()
      (binary_activation): BinaryActivation()
    )
    (6): BasicBlock(
      (move11): LearnableBias()
      (binary_3x3): Conv2d(256, 256, kernel_size=(3, 3), stride=(2, 2), padding=(1, 1), bias=False)
      (bn1): BatchNorm2d(256, eps=1e-05, momentum=0.1, affine=True, track_running_stats=True)
      (move12): LearnableBias()
      (prelu1): PReLU(num_parameters=256)
      (move13): LearnableBias()
      (move21): LearnableBias()
      (binary_pw_down1): Conv2d(256, 256, kernel_size=(1, 1), stride=(1, 1), bias=False)
      (binary_pw_down2): Conv2d(256, 256, kernel_size=(1, 1), stride=(1, 1), bias=False)
      (bn2_1): BatchNorm2d(256, eps=1e-05, momentum=0.1, affine=True, track_running_stats=True)
      (bn2_2): BatchNorm2d(256, eps=1e-05, momentum=0.1, affine=True, track_running_stats=True)
      (move22): LearnableBias()
      (prelu2): PReLU(num_parameters=512)
      (move23): LearnableBias()
      (binary_activation): BinaryActivation()
      (pooling): AvgPool2d(kernel_size=2, stride=2, padding=0)
    )
    (7): BasicBlock(
      (move11): LearnableBias()
      (binary_3x3): Conv2d(512, 512, kernel_size=(3, 3), stride=(1, 1), padding=(1, 1), bias=False)
      (bn1): BatchNorm2d(512, eps=1e-05, momentum=0.1, affine=True, track_running_stats=True)
      (move12): LearnableBias()
      (prelu1): PReLU(num_parameters=512)
      (move13): LearnableBias()
      (move21): LearnableBias()
      (binary_pw): Conv2d(512, 512, kernel_size=(1, 1), stride=(1, 1), bias=False)
      (bn2): BatchNorm2d(512, eps=1e-05, momentum=0.1, affine=True, track_running_stats=True)
      (move22): LearnableBias()
      (prelu2): PReLU(num_parameters=512)
      (move23): LearnableBias()
      (binary_activation): BinaryActivation()
    )
    (8): BasicBlock(
      (move11): LearnableBias()
      (binary_3x3): Conv2d(512, 512, kernel_size=(3, 3), stride=(1, 1), padding=(1, 1), bias=False)
      (bn1): BatchNorm2d(512, eps=1e-05, momentum=0.1, affine=True, track_running_stats=True)
      (move12): LearnableBias()
      (prelu1): PReLU(num_parameters=512)
      (move13): LearnableBias()
      (move21): LearnableBias()
      (binary_pw): Conv2d(512, 512, kernel_size=(1, 1), stride=(1, 1), bias=False)
      (bn2): BatchNorm2d(512, eps=1e-05, momentum=0.1, affine=True, track_running_stats=True)
      (move22): LearnableBias()
      (prelu2): PReLU(num_parameters=512)
      (move23): LearnableBias()
      (binary_activation): BinaryActivation()
    )
    (9): BasicBlock(
      (move11): LearnableBias()
      (binary_3x3): Conv2d(512, 512, kernel_size=(3, 3), stride=(1, 1), padding=(1, 1), bias=False)
      (bn1): BatchNorm2d(512, eps=1e-05, momentum=0.1, affine=True, track_running_stats=True)
      (move12): LearnableBias()
      (prelu1): PReLU(num_parameters=512)
      (move13): LearnableBias()
      (move21): LearnableBias()
      (binary_pw): Conv2d(512, 512, kernel_size=(1, 1), stride=(1, 1), bias=False)
      (bn2): BatchNorm2d(512, eps=1e-05, momentum=0.1, affine=True, track_running_stats=True)
      (move22): LearnableBias()
      (prelu2): PReLU(num_parameters=512)
      (move23): LearnableBias()
      (binary_activation): BinaryActivation()
    )
    (10): BasicBlock(
      (move11): LearnableBias()
      (binary_3x3): Conv2d(512, 512, kernel_size=(3, 3), stride=(1, 1), padding=(1, 1), bias=False)
      (bn1): BatchNorm2d(512, eps=1e-05, momentum=0.1, affine=True, track_running_stats=True)
      (move12): LearnableBias()
      (prelu1): PReLU(num_parameters=512)
      (move13): LearnableBias()
      (move21): LearnableBias()
      (binary_pw): Conv2d(512, 512, kernel_size=(1, 1), stride=(1, 1), bias=False)
      (bn2): BatchNorm2d(512, eps=1e-05, momentum=0.1, affine=True, track_running_stats=True)
      (move22): LearnableBias()
      (prelu2): PReLU(num_parameters=512)
      (move23): LearnableBias()
      (binary_activation): BinaryActivation()
    )
    (11): BasicBlock(
      (move11): LearnableBias()
      (binary_3x3): Conv2d(512, 512, kernel_size=(3, 3), stride=(1, 1), padding=(1, 1), bias=False)
      (bn1): BatchNorm2d(512, eps=1e-05, momentum=0.1, affine=True, track_running_stats=True)
      (move12): LearnableBias()
      (prelu1): PReLU(num_parameters=512)
      (move13): LearnableBias()
      (move21): LearnableBias()
      (binary_pw): Conv2d(512, 512, kernel_size=(1, 1), stride=(1, 1), bias=False)
      (bn2): BatchNorm2d(512, eps=1e-05, momentum=0.1, affine=True, track_running_stats=True)
      (move22): LearnableBias()
      (prelu2): PReLU(num_parameters=512)
      (move23): LearnableBias()
      (binary_activation): BinaryActivation()
    )
    (12): BasicBlock(
      (move11): LearnableBias()
      (binary_3x3): Conv2d(512, 512, kernel_size=(3, 3), stride=(2, 2), padding=(1, 1), bias=False)
      (bn1): BatchNorm2d(512, eps=1e-05, momentum=0.1, affine=True, track_running_stats=True)
      (move12): LearnableBias()
      (prelu1): PReLU(num_parameters=512)
      (move13): LearnableBias()
      (move21): LearnableBias()
      (binary_pw_down1): Conv2d(512, 512, kernel_size=(1, 1), stride=(1, 1), bias=False)
      (binary_pw_down2): Conv2d(512, 512, kernel_size=(1, 1), stride=(1, 1), bias=False)
      (bn2_1): BatchNorm2d(512, eps=1e-05, momentum=0.1, affine=True, track_running_stats=True)
      (bn2_2): BatchNorm2d(512, eps=1e-05, momentum=0.1, affine=True, track_running_stats=True)
      (move22): LearnableBias()
      (prelu2): PReLU(num_parameters=1024)
      (move23): LearnableBias()
      (binary_activation): BinaryActivation()
      (pooling): AvgPool2d(kernel_size=2, stride=2, padding=0)
    )
    (13): BasicBlock(
      (move11): LearnableBias()
      (binary_3x3): Conv2d(1024, 1024, kernel_size=(3, 3), stride=(1, 1), padding=(1, 1), bias=False)
      (bn1): BatchNorm2d(1024, eps=1e-05, momentum=0.1, affine=True, track_running_stats=True)
      (move12): LearnableBias()
      (prelu1): PReLU(num_parameters=1024)
      (move13): LearnableBias()
      (move21): LearnableBias()
      (binary_pw): Conv2d(1024, 1024, kernel_size=(1, 1), stride=(1, 1), bias=False)
      (bn2): BatchNorm2d(1024, eps=1e-05, momentum=0.1, affine=True, track_running_stats=True)
      (move22): LearnableBias()
      (prelu2): PReLU(num_parameters=1024)
      (move23): LearnableBias()
      (binary_activation): BinaryActivation()
    )
  )
  (pool1): AdaptiveAvgPool2d(output_size=1)
  (fc): Linear(in_features=1024, out_features=1000, bias=True)
)
2020-12-18 00:18:33,301 args = Namespace(batch_size=256, data='/datasets/imagenet', epochs=256, label_smooth=0.1, learning_rate=0.0005, momentum=0.9, save='./models', teacher='resnet34', weight_decay=1e-05, workers=40)
2020-12-18 00:18:35,698 student:
2020-12-18 00:18:35,698 reactnet(
  (feature): ModuleList(
    (0): firstconv3x3(
      (conv1): Conv2d(3, 32, kernel_size=(3, 3), stride=(2, 2), padding=(1, 1), bias=False)
      (bn1): BatchNorm2d(32, eps=1e-05, momentum=0.1, affine=True, track_running_stats=True)
    )
    (1): BasicBlock(
      (move11): LearnableBias()
      (binary_3x3): Conv2d(32, 32, kernel_size=(3, 3), stride=(1, 1), padding=(1, 1), bias=False)
      (bn1): BatchNorm2d(32, eps=1e-05, momentum=0.1, affine=True, track_running_stats=True)
      (move12): LearnableBias()
      (prelu1): PReLU(num_parameters=32)
      (move13): LearnableBias()
      (move21): LearnableBias()
      (binary_pw_down1): Conv2d(32, 32, kernel_size=(1, 1), stride=(1, 1), bias=False)
      (binary_pw_down2): Conv2d(32, 32, kernel_size=(1, 1), stride=(1, 1), bias=False)
      (bn2_1): BatchNorm2d(32, eps=1e-05, momentum=0.1, affine=True, track_running_stats=True)
      (bn2_2): BatchNorm2d(32, eps=1e-05, momentum=0.1, affine=True, track_running_stats=True)
      (move22): LearnableBias()
      (prelu2): PReLU(num_parameters=64)
      (move23): LearnableBias()
      (binary_activation): BinaryActivation()
      (pooling): AvgPool2d(kernel_size=2, stride=2, padding=0)
    )
    (2): BasicBlock(
      (move11): LearnableBias()
      (binary_3x3): Conv2d(64, 64, kernel_size=(3, 3), stride=(2, 2), padding=(1, 1), bias=False)
      (bn1): BatchNorm2d(64, eps=1e-05, momentum=0.1, affine=True, track_running_stats=True)
      (move12): LearnableBias()
      (prelu1): PReLU(num_parameters=64)
      (move13): LearnableBias()
      (move21): LearnableBias()
      (binary_pw_down1): Conv2d(64, 64, kernel_size=(1, 1), stride=(1, 1), bias=False)
      (binary_pw_down2): Conv2d(64, 64, kernel_size=(1, 1), stride=(1, 1), bias=False)
      (bn2_1): BatchNorm2d(64, eps=1e-05, momentum=0.1, affine=True, track_running_stats=True)
      (bn2_2): BatchNorm2d(64, eps=1e-05, momentum=0.1, affine=True, track_running_stats=True)
      (move22): LearnableBias()
      (prelu2): PReLU(num_parameters=128)
      (move23): LearnableBias()
      (binary_activation): BinaryActivation()
      (pooling): AvgPool2d(kernel_size=2, stride=2, padding=0)
    )
    (3): BasicBlock(
      (move11): LearnableBias()
      (binary_3x3): Conv2d(128, 128, kernel_size=(3, 3), stride=(1, 1), padding=(1, 1), bias=False)
      (bn1): BatchNorm2d(128, eps=1e-05, momentum=0.1, affine=True, track_running_stats=True)
      (move12): LearnableBias()
      (prelu1): PReLU(num_parameters=128)
      (move13): LearnableBias()
      (move21): LearnableBias()
      (binary_pw): Conv2d(128, 128, kernel_size=(1, 1), stride=(1, 1), bias=False)
      (bn2): BatchNorm2d(128, eps=1e-05, momentum=0.1, affine=True, track_running_stats=True)
      (move22): LearnableBias()
      (prelu2): PReLU(num_parameters=128)
      (move23): LearnableBias()
      (binary_activation): BinaryActivation()
    )
    (4): BasicBlock(
      (move11): LearnableBias()
      (binary_3x3): Conv2d(128, 128, kernel_size=(3, 3), stride=(2, 2), padding=(1, 1), bias=False)
      (bn1): BatchNorm2d(128, eps=1e-05, momentum=0.1, affine=True, track_running_stats=True)
      (move12): LearnableBias()
      (prelu1): PReLU(num_parameters=128)
      (move13): LearnableBias()
      (move21): LearnableBias()
      (binary_pw_down1): Conv2d(128, 128, kernel_size=(1, 1), stride=(1, 1), bias=False)
      (binary_pw_down2): Conv2d(128, 128, kernel_size=(1, 1), stride=(1, 1), bias=False)
      (bn2_1): BatchNorm2d(128, eps=1e-05, momentum=0.1, affine=True, track_running_stats=True)
      (bn2_2): BatchNorm2d(128, eps=1e-05, momentum=0.1, affine=True, track_running_stats=True)
      (move22): LearnableBias()
      (prelu2): PReLU(num_parameters=256)
      (move23): LearnableBias()
      (binary_activation): BinaryActivation()
      (pooling): AvgPool2d(kernel_size=2, stride=2, padding=0)
    )
    (5): BasicBlock(
      (move11): LearnableBias()
      (binary_3x3): Conv2d(256, 256, kernel_size=(3, 3), stride=(1, 1), padding=(1, 1), bias=False)
      (bn1): BatchNorm2d(256, eps=1e-05, momentum=0.1, affine=True, track_running_stats=True)
      (move12): LearnableBias()
      (prelu1): PReLU(num_parameters=256)
      (move13): LearnableBias()
      (move21): LearnableBias()
      (binary_pw): Conv2d(256, 256, kernel_size=(1, 1), stride=(1, 1), bias=False)
      (bn2): BatchNorm2d(256, eps=1e-05, momentum=0.1, affine=True, track_running_stats=True)
      (move22): LearnableBias()
      (prelu2): PReLU(num_parameters=256)
      (move23): LearnableBias()
      (binary_activation): BinaryActivation()
    )
    (6): BasicBlock(
      (move11): LearnableBias()
      (binary_3x3): Conv2d(256, 256, kernel_size=(3, 3), stride=(2, 2), padding=(1, 1), bias=False)
      (bn1): BatchNorm2d(256, eps=1e-05, momentum=0.1, affine=True, track_running_stats=True)
      (move12): LearnableBias()
      (prelu1): PReLU(num_parameters=256)
      (move13): LearnableBias()
      (move21): LearnableBias()
      (binary_pw_down1): Conv2d(256, 256, kernel_size=(1, 1), stride=(1, 1), bias=False)
      (binary_pw_down2): Conv2d(256, 256, kernel_size=(1, 1), stride=(1, 1), bias=False)
      (bn2_1): BatchNorm2d(256, eps=1e-05, momentum=0.1, affine=True, track_running_stats=True)
      (bn2_2): BatchNorm2d(256, eps=1e-05, momentum=0.1, affine=True, track_running_stats=True)
      (move22): LearnableBias()
      (prelu2): PReLU(num_parameters=512)
      (move23): LearnableBias()
      (binary_activation): BinaryActivation()
      (pooling): AvgPool2d(kernel_size=2, stride=2, padding=0)
    )
    (7): BasicBlock(
      (move11): LearnableBias()
      (binary_3x3): Conv2d(512, 512, kernel_size=(3, 3), stride=(1, 1), padding=(1, 1), bias=False)
      (bn1): BatchNorm2d(512, eps=1e-05, momentum=0.1, affine=True, track_running_stats=True)
      (move12): LearnableBias()
      (prelu1): PReLU(num_parameters=512)
      (move13): LearnableBias()
      (move21): LearnableBias()
      (binary_pw): Conv2d(512, 512, kernel_size=(1, 1), stride=(1, 1), bias=False)
      (bn2): BatchNorm2d(512, eps=1e-05, momentum=0.1, affine=True, track_running_stats=True)
      (move22): LearnableBias()
      (prelu2): PReLU(num_parameters=512)
      (move23): LearnableBias()
      (binary_activation): BinaryActivation()
    )
    (8): BasicBlock(
      (move11): LearnableBias()
      (binary_3x3): Conv2d(512, 512, kernel_size=(3, 3), stride=(1, 1), padding=(1, 1), bias=False)
      (bn1): BatchNorm2d(512, eps=1e-05, momentum=0.1, affine=True, track_running_stats=True)
      (move12): LearnableBias()
      (prelu1): PReLU(num_parameters=512)
      (move13): LearnableBias()
      (move21): LearnableBias()
      (binary_pw): Conv2d(512, 512, kernel_size=(1, 1), stride=(1, 1), bias=False)
      (bn2): BatchNorm2d(512, eps=1e-05, momentum=0.1, affine=True, track_running_stats=True)
      (move22): LearnableBias()
      (prelu2): PReLU(num_parameters=512)
      (move23): LearnableBias()
      (binary_activation): BinaryActivation()
    )
    (9): BasicBlock(
      (move11): LearnableBias()
      (binary_3x3): Conv2d(512, 512, kernel_size=(3, 3), stride=(1, 1), padding=(1, 1), bias=False)
      (bn1): BatchNorm2d(512, eps=1e-05, momentum=0.1, affine=True, track_running_stats=True)
      (move12): LearnableBias()
      (prelu1): PReLU(num_parameters=512)
      (move13): LearnableBias()
      (move21): LearnableBias()
      (binary_pw): Conv2d(512, 512, kernel_size=(1, 1), stride=(1, 1), bias=False)
      (bn2): BatchNorm2d(512, eps=1e-05, momentum=0.1, affine=True, track_running_stats=True)
      (move22): LearnableBias()
      (prelu2): PReLU(num_parameters=512)
      (move23): LearnableBias()
      (binary_activation): BinaryActivation()
    )
    (10): BasicBlock(
      (move11): LearnableBias()
      (binary_3x3): Conv2d(512, 512, kernel_size=(3, 3), stride=(1, 1), padding=(1, 1), bias=False)
      (bn1): BatchNorm2d(512, eps=1e-05, momentum=0.1, affine=True, track_running_stats=True)
      (move12): LearnableBias()
      (prelu1): PReLU(num_parameters=512)
      (move13): LearnableBias()
      (move21): LearnableBias()
      (binary_pw): Conv2d(512, 512, kernel_size=(1, 1), stride=(1, 1), bias=False)
      (bn2): BatchNorm2d(512, eps=1e-05, momentum=0.1, affine=True, track_running_stats=True)
      (move22): LearnableBias()
      (prelu2): PReLU(num_parameters=512)
      (move23): LearnableBias()
      (binary_activation): BinaryActivation()
    )
    (11): BasicBlock(
      (move11): LearnableBias()
      (binary_3x3): Conv2d(512, 512, kernel_size=(3, 3), stride=(1, 1), padding=(1, 1), bias=False)
      (bn1): BatchNorm2d(512, eps=1e-05, momentum=0.1, affine=True, track_running_stats=True)
      (move12): LearnableBias()
      (prelu1): PReLU(num_parameters=512)
      (move13): LearnableBias()
      (move21): LearnableBias()
      (binary_pw): Conv2d(512, 512, kernel_size=(1, 1), stride=(1, 1), bias=False)
      (bn2): BatchNorm2d(512, eps=1e-05, momentum=0.1, affine=True, track_running_stats=True)
      (move22): LearnableBias()
      (prelu2): PReLU(num_parameters=512)
      (move23): LearnableBias()
      (binary_activation): BinaryActivation()
    )
    (12): BasicBlock(
      (move11): LearnableBias()
      (binary_3x3): Conv2d(512, 512, kernel_size=(3, 3), stride=(2, 2), padding=(1, 1), bias=False)
      (bn1): BatchNorm2d(512, eps=1e-05, momentum=0.1, affine=True, track_running_stats=True)
      (move12): LearnableBias()
      (prelu1): PReLU(num_parameters=512)
      (move13): LearnableBias()
      (move21): LearnableBias()
      (binary_pw_down1): Conv2d(512, 512, kernel_size=(1, 1), stride=(1, 1), bias=False)
      (binary_pw_down2): Conv2d(512, 512, kernel_size=(1, 1), stride=(1, 1), bias=False)
      (bn2_1): BatchNorm2d(512, eps=1e-05, momentum=0.1, affine=True, track_running_stats=True)
      (bn2_2): BatchNorm2d(512, eps=1e-05, momentum=0.1, affine=True, track_running_stats=True)
      (move22): LearnableBias()
      (prelu2): PReLU(num_parameters=1024)
      (move23): LearnableBias()
      (binary_activation): BinaryActivation()
      (pooling): AvgPool2d(kernel_size=2, stride=2, padding=0)
    )
    (13): BasicBlock(
      (move11): LearnableBias()
      (binary_3x3): Conv2d(1024, 1024, kernel_size=(3, 3), stride=(1, 1), padding=(1, 1), bias=False)
      (bn1): BatchNorm2d(1024, eps=1e-05, momentum=0.1, affine=True, track_running_stats=True)
      (move12): LearnableBias()
      (prelu1): PReLU(num_parameters=1024)
      (move13): LearnableBias()
      (move21): LearnableBias()
      (binary_pw): Conv2d(1024, 1024, kernel_size=(1, 1), stride=(1, 1), bias=False)
      (bn2): BatchNorm2d(1024, eps=1e-05, momentum=0.1, affine=True, track_running_stats=True)
      (move22): LearnableBias()
      (prelu2): PReLU(num_parameters=1024)
      (move23): LearnableBias()
      (binary_activation): BinaryActivation()
    )
  )
  (pool1): AdaptiveAvgPool2d(output_size=1)
  (fc): Linear(in_features=1024, out_features=1000, bias=True)
)
2020-12-20 19:09:51,248 args = Namespace(batch_size=256, data='/datasets/imagenet', epochs=256, label_smooth=0.1, learning_rate=0.0005, momentum=0.9, save='./models', teacher='resnet34', weight_decay=1e-05, workers=40)
2020-12-20 19:10:54,532 args = Namespace(batch_size=256, data='/datasets/imagenet', epochs=256, label_smooth=0.1, learning_rate=0.0005, momentum=0.9, save='./models', teacher='resnet34', weight_decay=1e-05, workers=40)
2020-12-20 19:14:32,894 args = Namespace(batch_size=256, data='/datasets/imagenet', epochs=256, label_smooth=0.1, learning_rate=0.0005, momentum=0.9, save='./models', teacher='resnet34', weight_decay=1e-05, workers=40)
2020-12-20 19:14:34,538 student:
2020-12-20 19:14:34,538 reactnet(
  (feature): ModuleList(
    (0): firstconv3x3(
      (conv1): Conv2d(3, 32, kernel_size=(3, 3), stride=(2, 2), padding=(1, 1), bias=False)
      (bn1): BatchNorm2d(32, eps=1e-05, momentum=0.1, affine=True, track_running_stats=True)
    )
    (1): BasicBlock(
      (move11): LearnableBias()
      (binary_3x3): Conv2d(32, 32, kernel_size=(3, 3), stride=(1, 1), padding=(1, 1), bias=False)
      (bn1): BatchNorm2d(32, eps=1e-05, momentum=0.1, affine=True, track_running_stats=True)
      (move12): LearnableBias()
      (prelu1): PReLU(num_parameters=32)
      (move13): LearnableBias()
      (move21): LearnableBias()
      (binary_pw_down1): Conv2d(32, 32, kernel_size=(1, 1), stride=(1, 1), bias=False)
      (binary_pw_down2): Conv2d(32, 32, kernel_size=(1, 1), stride=(1, 1), bias=False)
      (bn2_1): BatchNorm2d(32, eps=1e-05, momentum=0.1, affine=True, track_running_stats=True)
      (bn2_2): BatchNorm2d(32, eps=1e-05, momentum=0.1, affine=True, track_running_stats=True)
      (move22): LearnableBias()
      (prelu2): PReLU(num_parameters=64)
      (move23): LearnableBias()
      (binary_activation): BinaryActivation()
      (pooling): AvgPool2d(kernel_size=2, stride=2, padding=0)
    )
    (2): BasicBlock(
      (move11): LearnableBias()
      (binary_3x3): Conv2d(64, 64, kernel_size=(3, 3), stride=(2, 2), padding=(1, 1), bias=False)
      (bn1): BatchNorm2d(64, eps=1e-05, momentum=0.1, affine=True, track_running_stats=True)
      (move12): LearnableBias()
      (prelu1): PReLU(num_parameters=64)
      (move13): LearnableBias()
      (move21): LearnableBias()
      (binary_pw_down1): Conv2d(64, 64, kernel_size=(1, 1), stride=(1, 1), bias=False)
      (binary_pw_down2): Conv2d(64, 64, kernel_size=(1, 1), stride=(1, 1), bias=False)
      (bn2_1): BatchNorm2d(64, eps=1e-05, momentum=0.1, affine=True, track_running_stats=True)
      (bn2_2): BatchNorm2d(64, eps=1e-05, momentum=0.1, affine=True, track_running_stats=True)
      (move22): LearnableBias()
      (prelu2): PReLU(num_parameters=128)
      (move23): LearnableBias()
      (binary_activation): BinaryActivation()
      (pooling): AvgPool2d(kernel_size=2, stride=2, padding=0)
    )
    (3): BasicBlock(
      (move11): LearnableBias()
      (binary_3x3): Conv2d(128, 128, kernel_size=(3, 3), stride=(1, 1), padding=(1, 1), bias=False)
      (bn1): BatchNorm2d(128, eps=1e-05, momentum=0.1, affine=True, track_running_stats=True)
      (move12): LearnableBias()
      (prelu1): PReLU(num_parameters=128)
      (move13): LearnableBias()
      (move21): LearnableBias()
      (binary_pw): Conv2d(128, 128, kernel_size=(1, 1), stride=(1, 1), bias=False)
      (bn2): BatchNorm2d(128, eps=1e-05, momentum=0.1, affine=True, track_running_stats=True)
      (move22): LearnableBias()
      (prelu2): PReLU(num_parameters=128)
      (move23): LearnableBias()
      (binary_activation): BinaryActivation()
    )
    (4): BasicBlock(
      (move11): LearnableBias()
      (binary_3x3): Conv2d(128, 128, kernel_size=(3, 3), stride=(2, 2), padding=(1, 1), bias=False)
      (bn1): BatchNorm2d(128, eps=1e-05, momentum=0.1, affine=True, track_running_stats=True)
      (move12): LearnableBias()
      (prelu1): PReLU(num_parameters=128)
      (move13): LearnableBias()
      (move21): LearnableBias()
      (binary_pw_down1): Conv2d(128, 128, kernel_size=(1, 1), stride=(1, 1), bias=False)
      (binary_pw_down2): Conv2d(128, 128, kernel_size=(1, 1), stride=(1, 1), bias=False)
      (bn2_1): BatchNorm2d(128, eps=1e-05, momentum=0.1, affine=True, track_running_stats=True)
      (bn2_2): BatchNorm2d(128, eps=1e-05, momentum=0.1, affine=True, track_running_stats=True)
      (move22): LearnableBias()
      (prelu2): PReLU(num_parameters=256)
      (move23): LearnableBias()
      (binary_activation): BinaryActivation()
      (pooling): AvgPool2d(kernel_size=2, stride=2, padding=0)
    )
    (5): BasicBlock(
      (move11): LearnableBias()
      (binary_3x3): Conv2d(256, 256, kernel_size=(3, 3), stride=(1, 1), padding=(1, 1), bias=False)
      (bn1): BatchNorm2d(256, eps=1e-05, momentum=0.1, affine=True, track_running_stats=True)
      (move12): LearnableBias()
      (prelu1): PReLU(num_parameters=256)
      (move13): LearnableBias()
      (move21): LearnableBias()
      (binary_pw): Conv2d(256, 256, kernel_size=(1, 1), stride=(1, 1), bias=False)
      (bn2): BatchNorm2d(256, eps=1e-05, momentum=0.1, affine=True, track_running_stats=True)
      (move22): LearnableBias()
      (prelu2): PReLU(num_parameters=256)
      (move23): LearnableBias()
      (binary_activation): BinaryActivation()
    )
    (6): BasicBlock(
      (move11): LearnableBias()
      (binary_3x3): Conv2d(256, 256, kernel_size=(3, 3), stride=(2, 2), padding=(1, 1), bias=False)
      (bn1): BatchNorm2d(256, eps=1e-05, momentum=0.1, affine=True, track_running_stats=True)
      (move12): LearnableBias()
      (prelu1): PReLU(num_parameters=256)
      (move13): LearnableBias()
      (move21): LearnableBias()
      (binary_pw_down1): Conv2d(256, 256, kernel_size=(1, 1), stride=(1, 1), bias=False)
      (binary_pw_down2): Conv2d(256, 256, kernel_size=(1, 1), stride=(1, 1), bias=False)
      (bn2_1): BatchNorm2d(256, eps=1e-05, momentum=0.1, affine=True, track_running_stats=True)
      (bn2_2): BatchNorm2d(256, eps=1e-05, momentum=0.1, affine=True, track_running_stats=True)
      (move22): LearnableBias()
      (prelu2): PReLU(num_parameters=512)
      (move23): LearnableBias()
      (binary_activation): BinaryActivation()
      (pooling): AvgPool2d(kernel_size=2, stride=2, padding=0)
    )
    (7): BasicBlock(
      (move11): LearnableBias()
      (binary_3x3): Conv2d(512, 512, kernel_size=(3, 3), stride=(1, 1), padding=(1, 1), bias=False)
      (bn1): BatchNorm2d(512, eps=1e-05, momentum=0.1, affine=True, track_running_stats=True)
      (move12): LearnableBias()
      (prelu1): PReLU(num_parameters=512)
      (move13): LearnableBias()
      (move21): LearnableBias()
      (binary_pw): Conv2d(512, 512, kernel_size=(1, 1), stride=(1, 1), bias=False)
      (bn2): BatchNorm2d(512, eps=1e-05, momentum=0.1, affine=True, track_running_stats=True)
      (move22): LearnableBias()
      (prelu2): PReLU(num_parameters=512)
      (move23): LearnableBias()
      (binary_activation): BinaryActivation()
    )
    (8): BasicBlock(
      (move11): LearnableBias()
      (binary_3x3): Conv2d(512, 512, kernel_size=(3, 3), stride=(1, 1), padding=(1, 1), bias=False)
      (bn1): BatchNorm2d(512, eps=1e-05, momentum=0.1, affine=True, track_running_stats=True)
      (move12): LearnableBias()
      (prelu1): PReLU(num_parameters=512)
      (move13): LearnableBias()
      (move21): LearnableBias()
      (binary_pw): Conv2d(512, 512, kernel_size=(1, 1), stride=(1, 1), bias=False)
      (bn2): BatchNorm2d(512, eps=1e-05, momentum=0.1, affine=True, track_running_stats=True)
      (move22): LearnableBias()
      (prelu2): PReLU(num_parameters=512)
      (move23): LearnableBias()
      (binary_activation): BinaryActivation()
    )
    (9): BasicBlock(
      (move11): LearnableBias()
      (binary_3x3): Conv2d(512, 512, kernel_size=(3, 3), stride=(1, 1), padding=(1, 1), bias=False)
      (bn1): BatchNorm2d(512, eps=1e-05, momentum=0.1, affine=True, track_running_stats=True)
      (move12): LearnableBias()
      (prelu1): PReLU(num_parameters=512)
      (move13): LearnableBias()
      (move21): LearnableBias()
      (binary_pw): Conv2d(512, 512, kernel_size=(1, 1), stride=(1, 1), bias=False)
      (bn2): BatchNorm2d(512, eps=1e-05, momentum=0.1, affine=True, track_running_stats=True)
      (move22): LearnableBias()
      (prelu2): PReLU(num_parameters=512)
      (move23): LearnableBias()
      (binary_activation): BinaryActivation()
    )
    (10): BasicBlock(
      (move11): LearnableBias()
      (binary_3x3): Conv2d(512, 512, kernel_size=(3, 3), stride=(1, 1), padding=(1, 1), bias=False)
      (bn1): BatchNorm2d(512, eps=1e-05, momentum=0.1, affine=True, track_running_stats=True)
      (move12): LearnableBias()
      (prelu1): PReLU(num_parameters=512)
      (move13): LearnableBias()
      (move21): LearnableBias()
      (binary_pw): Conv2d(512, 512, kernel_size=(1, 1), stride=(1, 1), bias=False)
      (bn2): BatchNorm2d(512, eps=1e-05, momentum=0.1, affine=True, track_running_stats=True)
      (move22): LearnableBias()
      (prelu2): PReLU(num_parameters=512)
      (move23): LearnableBias()
      (binary_activation): BinaryActivation()
    )
    (11): BasicBlock(
      (move11): LearnableBias()
      (binary_3x3): Conv2d(512, 512, kernel_size=(3, 3), stride=(1, 1), padding=(1, 1), bias=False)
      (bn1): BatchNorm2d(512, eps=1e-05, momentum=0.1, affine=True, track_running_stats=True)
      (move12): LearnableBias()
      (prelu1): PReLU(num_parameters=512)
      (move13): LearnableBias()
      (move21): LearnableBias()
      (binary_pw): Conv2d(512, 512, kernel_size=(1, 1), stride=(1, 1), bias=False)
      (bn2): BatchNorm2d(512, eps=1e-05, momentum=0.1, affine=True, track_running_stats=True)
      (move22): LearnableBias()
      (prelu2): PReLU(num_parameters=512)
      (move23): LearnableBias()
      (binary_activation): BinaryActivation()
    )
    (12): BasicBlock(
      (move11): LearnableBias()
      (binary_3x3): Conv2d(512, 512, kernel_size=(3, 3), stride=(2, 2), padding=(1, 1), bias=False)
      (bn1): BatchNorm2d(512, eps=1e-05, momentum=0.1, affine=True, track_running_stats=True)
      (move12): LearnableBias()
      (prelu1): PReLU(num_parameters=512)
      (move13): LearnableBias()
      (move21): LearnableBias()
      (binary_pw_down1): Conv2d(512, 512, kernel_size=(1, 1), stride=(1, 1), bias=False)
      (binary_pw_down2): Conv2d(512, 512, kernel_size=(1, 1), stride=(1, 1), bias=False)
      (bn2_1): BatchNorm2d(512, eps=1e-05, momentum=0.1, affine=True, track_running_stats=True)
      (bn2_2): BatchNorm2d(512, eps=1e-05, momentum=0.1, affine=True, track_running_stats=True)
      (move22): LearnableBias()
      (prelu2): PReLU(num_parameters=1024)
      (move23): LearnableBias()
      (binary_activation): BinaryActivation()
      (pooling): AvgPool2d(kernel_size=2, stride=2, padding=0)
    )
    (13): BasicBlock(
      (move11): LearnableBias()
      (binary_3x3): Conv2d(1024, 1024, kernel_size=(3, 3), stride=(1, 1), padding=(1, 1), bias=False)
      (bn1): BatchNorm2d(1024, eps=1e-05, momentum=0.1, affine=True, track_running_stats=True)
      (move12): LearnableBias()
      (prelu1): PReLU(num_parameters=1024)
      (move13): LearnableBias()
      (move21): LearnableBias()
      (binary_pw): Conv2d(1024, 1024, kernel_size=(1, 1), stride=(1, 1), bias=False)
      (bn2): BatchNorm2d(1024, eps=1e-05, momentum=0.1, affine=True, track_running_stats=True)
      (move22): LearnableBias()
      (prelu2): PReLU(num_parameters=1024)
      (move23): LearnableBias()
      (binary_activation): BinaryActivation()
    )
  )
  (pool1): AdaptiveAvgPool2d(output_size=1)
  (fc): Linear(in_features=1024, out_features=1000, bias=True)
)
2020-12-20 19:17:44,880 args = Namespace(batch_size=256, data='/datasets/imagenet', epochs=256, label_smooth=0.1, learning_rate=0.0005, momentum=0.9, save='./models', teacher='resnet34', weight_decay=1e-05, workers=40)
2020-12-20 19:17:46,423 student:
2020-12-20 19:17:46,423 reactnet(
  (feature): ModuleList(
    (0): firstconv3x3(
      (conv1): Conv2d(3, 32, kernel_size=(3, 3), stride=(2, 2), padding=(1, 1), bias=False)
      (bn1): BatchNorm2d(32, eps=1e-05, momentum=0.1, affine=True, track_running_stats=True)
    )
    (1): BasicBlock(
      (move11): LearnableBias()
      (binary_3x3): Conv2d(32, 32, kernel_size=(3, 3), stride=(1, 1), padding=(1, 1), bias=False)
      (bn1): BatchNorm2d(32, eps=1e-05, momentum=0.1, affine=True, track_running_stats=True)
      (move12): LearnableBias()
      (prelu1): PReLU(num_parameters=32)
      (move13): LearnableBias()
      (move21): LearnableBias()
      (binary_pw_down1): Conv2d(32, 32, kernel_size=(1, 1), stride=(1, 1), bias=False)
      (binary_pw_down2): Conv2d(32, 32, kernel_size=(1, 1), stride=(1, 1), bias=False)
      (bn2_1): BatchNorm2d(32, eps=1e-05, momentum=0.1, affine=True, track_running_stats=True)
      (bn2_2): BatchNorm2d(32, eps=1e-05, momentum=0.1, affine=True, track_running_stats=True)
      (move22): LearnableBias()
      (prelu2): PReLU(num_parameters=64)
      (move23): LearnableBias()
      (binary_activation): BinaryActivation()
      (pooling): AvgPool2d(kernel_size=2, stride=2, padding=0)
    )
    (2): BasicBlock(
      (move11): LearnableBias()
      (binary_3x3): Conv2d(64, 64, kernel_size=(3, 3), stride=(2, 2), padding=(1, 1), bias=False)
      (bn1): BatchNorm2d(64, eps=1e-05, momentum=0.1, affine=True, track_running_stats=True)
      (move12): LearnableBias()
      (prelu1): PReLU(num_parameters=64)
      (move13): LearnableBias()
      (move21): LearnableBias()
      (binary_pw_down1): Conv2d(64, 64, kernel_size=(1, 1), stride=(1, 1), bias=False)
      (binary_pw_down2): Conv2d(64, 64, kernel_size=(1, 1), stride=(1, 1), bias=False)
      (bn2_1): BatchNorm2d(64, eps=1e-05, momentum=0.1, affine=True, track_running_stats=True)
      (bn2_2): BatchNorm2d(64, eps=1e-05, momentum=0.1, affine=True, track_running_stats=True)
      (move22): LearnableBias()
      (prelu2): PReLU(num_parameters=128)
      (move23): LearnableBias()
      (binary_activation): BinaryActivation()
      (pooling): AvgPool2d(kernel_size=2, stride=2, padding=0)
    )
    (3): BasicBlock(
      (move11): LearnableBias()
      (binary_3x3): Conv2d(128, 128, kernel_size=(3, 3), stride=(1, 1), padding=(1, 1), bias=False)
      (bn1): BatchNorm2d(128, eps=1e-05, momentum=0.1, affine=True, track_running_stats=True)
      (move12): LearnableBias()
      (prelu1): PReLU(num_parameters=128)
      (move13): LearnableBias()
      (move21): LearnableBias()
      (binary_pw): Conv2d(128, 128, kernel_size=(1, 1), stride=(1, 1), bias=False)
      (bn2): BatchNorm2d(128, eps=1e-05, momentum=0.1, affine=True, track_running_stats=True)
      (move22): LearnableBias()
      (prelu2): PReLU(num_parameters=128)
      (move23): LearnableBias()
      (binary_activation): BinaryActivation()
    )
    (4): BasicBlock(
      (move11): LearnableBias()
      (binary_3x3): Conv2d(128, 128, kernel_size=(3, 3), stride=(2, 2), padding=(1, 1), bias=False)
      (bn1): BatchNorm2d(128, eps=1e-05, momentum=0.1, affine=True, track_running_stats=True)
      (move12): LearnableBias()
      (prelu1): PReLU(num_parameters=128)
      (move13): LearnableBias()
      (move21): LearnableBias()
      (binary_pw_down1): Conv2d(128, 128, kernel_size=(1, 1), stride=(1, 1), bias=False)
      (binary_pw_down2): Conv2d(128, 128, kernel_size=(1, 1), stride=(1, 1), bias=False)
      (bn2_1): BatchNorm2d(128, eps=1e-05, momentum=0.1, affine=True, track_running_stats=True)
      (bn2_2): BatchNorm2d(128, eps=1e-05, momentum=0.1, affine=True, track_running_stats=True)
      (move22): LearnableBias()
      (prelu2): PReLU(num_parameters=256)
      (move23): LearnableBias()
      (binary_activation): BinaryActivation()
      (pooling): AvgPool2d(kernel_size=2, stride=2, padding=0)
    )
    (5): BasicBlock(
      (move11): LearnableBias()
      (binary_3x3): Conv2d(256, 256, kernel_size=(3, 3), stride=(1, 1), padding=(1, 1), bias=False)
      (bn1): BatchNorm2d(256, eps=1e-05, momentum=0.1, affine=True, track_running_stats=True)
      (move12): LearnableBias()
      (prelu1): PReLU(num_parameters=256)
      (move13): LearnableBias()
      (move21): LearnableBias()
      (binary_pw): Conv2d(256, 256, kernel_size=(1, 1), stride=(1, 1), bias=False)
      (bn2): BatchNorm2d(256, eps=1e-05, momentum=0.1, affine=True, track_running_stats=True)
      (move22): LearnableBias()
      (prelu2): PReLU(num_parameters=256)
      (move23): LearnableBias()
      (binary_activation): BinaryActivation()
    )
    (6): BasicBlock(
      (move11): LearnableBias()
      (binary_3x3): Conv2d(256, 256, kernel_size=(3, 3), stride=(2, 2), padding=(1, 1), bias=False)
      (bn1): BatchNorm2d(256, eps=1e-05, momentum=0.1, affine=True, track_running_stats=True)
      (move12): LearnableBias()
      (prelu1): PReLU(num_parameters=256)
      (move13): LearnableBias()
      (move21): LearnableBias()
      (binary_pw_down1): Conv2d(256, 256, kernel_size=(1, 1), stride=(1, 1), bias=False)
      (binary_pw_down2): Conv2d(256, 256, kernel_size=(1, 1), stride=(1, 1), bias=False)
      (bn2_1): BatchNorm2d(256, eps=1e-05, momentum=0.1, affine=True, track_running_stats=True)
      (bn2_2): BatchNorm2d(256, eps=1e-05, momentum=0.1, affine=True, track_running_stats=True)
      (move22): LearnableBias()
      (prelu2): PReLU(num_parameters=512)
      (move23): LearnableBias()
      (binary_activation): BinaryActivation()
      (pooling): AvgPool2d(kernel_size=2, stride=2, padding=0)
    )
    (7): BasicBlock(
      (move11): LearnableBias()
      (binary_3x3): Conv2d(512, 512, kernel_size=(3, 3), stride=(1, 1), padding=(1, 1), bias=False)
      (bn1): BatchNorm2d(512, eps=1e-05, momentum=0.1, affine=True, track_running_stats=True)
      (move12): LearnableBias()
      (prelu1): PReLU(num_parameters=512)
      (move13): LearnableBias()
      (move21): LearnableBias()
      (binary_pw): Conv2d(512, 512, kernel_size=(1, 1), stride=(1, 1), bias=False)
      (bn2): BatchNorm2d(512, eps=1e-05, momentum=0.1, affine=True, track_running_stats=True)
      (move22): LearnableBias()
      (prelu2): PReLU(num_parameters=512)
      (move23): LearnableBias()
      (binary_activation): BinaryActivation()
    )
    (8): BasicBlock(
      (move11): LearnableBias()
      (binary_3x3): Conv2d(512, 512, kernel_size=(3, 3), stride=(1, 1), padding=(1, 1), bias=False)
      (bn1): BatchNorm2d(512, eps=1e-05, momentum=0.1, affine=True, track_running_stats=True)
      (move12): LearnableBias()
      (prelu1): PReLU(num_parameters=512)
      (move13): LearnableBias()
      (move21): LearnableBias()
      (binary_pw): Conv2d(512, 512, kernel_size=(1, 1), stride=(1, 1), bias=False)
      (bn2): BatchNorm2d(512, eps=1e-05, momentum=0.1, affine=True, track_running_stats=True)
      (move22): LearnableBias()
      (prelu2): PReLU(num_parameters=512)
      (move23): LearnableBias()
      (binary_activation): BinaryActivation()
    )
    (9): BasicBlock(
      (move11): LearnableBias()
      (binary_3x3): Conv2d(512, 512, kernel_size=(3, 3), stride=(1, 1), padding=(1, 1), bias=False)
      (bn1): BatchNorm2d(512, eps=1e-05, momentum=0.1, affine=True, track_running_stats=True)
      (move12): LearnableBias()
      (prelu1): PReLU(num_parameters=512)
      (move13): LearnableBias()
      (move21): LearnableBias()
      (binary_pw): Conv2d(512, 512, kernel_size=(1, 1), stride=(1, 1), bias=False)
      (bn2): BatchNorm2d(512, eps=1e-05, momentum=0.1, affine=True, track_running_stats=True)
      (move22): LearnableBias()
      (prelu2): PReLU(num_parameters=512)
      (move23): LearnableBias()
      (binary_activation): BinaryActivation()
    )
    (10): BasicBlock(
      (move11): LearnableBias()
      (binary_3x3): Conv2d(512, 512, kernel_size=(3, 3), stride=(1, 1), padding=(1, 1), bias=False)
      (bn1): BatchNorm2d(512, eps=1e-05, momentum=0.1, affine=True, track_running_stats=True)
      (move12): LearnableBias()
      (prelu1): PReLU(num_parameters=512)
      (move13): LearnableBias()
      (move21): LearnableBias()
      (binary_pw): Conv2d(512, 512, kernel_size=(1, 1), stride=(1, 1), bias=False)
      (bn2): BatchNorm2d(512, eps=1e-05, momentum=0.1, affine=True, track_running_stats=True)
      (move22): LearnableBias()
      (prelu2): PReLU(num_parameters=512)
      (move23): LearnableBias()
      (binary_activation): BinaryActivation()
    )
    (11): BasicBlock(
      (move11): LearnableBias()
      (binary_3x3): Conv2d(512, 512, kernel_size=(3, 3), stride=(1, 1), padding=(1, 1), bias=False)
      (bn1): BatchNorm2d(512, eps=1e-05, momentum=0.1, affine=True, track_running_stats=True)
      (move12): LearnableBias()
      (prelu1): PReLU(num_parameters=512)
      (move13): LearnableBias()
      (move21): LearnableBias()
      (binary_pw): Conv2d(512, 512, kernel_size=(1, 1), stride=(1, 1), bias=False)
      (bn2): BatchNorm2d(512, eps=1e-05, momentum=0.1, affine=True, track_running_stats=True)
      (move22): LearnableBias()
      (prelu2): PReLU(num_parameters=512)
      (move23): LearnableBias()
      (binary_activation): BinaryActivation()
    )
    (12): BasicBlock(
      (move11): LearnableBias()
      (binary_3x3): Conv2d(512, 512, kernel_size=(3, 3), stride=(2, 2), padding=(1, 1), bias=False)
      (bn1): BatchNorm2d(512, eps=1e-05, momentum=0.1, affine=True, track_running_stats=True)
      (move12): LearnableBias()
      (prelu1): PReLU(num_parameters=512)
      (move13): LearnableBias()
      (move21): LearnableBias()
      (binary_pw_down1): Conv2d(512, 512, kernel_size=(1, 1), stride=(1, 1), bias=False)
      (binary_pw_down2): Conv2d(512, 512, kernel_size=(1, 1), stride=(1, 1), bias=False)
      (bn2_1): BatchNorm2d(512, eps=1e-05, momentum=0.1, affine=True, track_running_stats=True)
      (bn2_2): BatchNorm2d(512, eps=1e-05, momentum=0.1, affine=True, track_running_stats=True)
      (move22): LearnableBias()
      (prelu2): PReLU(num_parameters=1024)
      (move23): LearnableBias()
      (binary_activation): BinaryActivation()
      (pooling): AvgPool2d(kernel_size=2, stride=2, padding=0)
    )
    (13): BasicBlock(
      (move11): LearnableBias()
      (binary_3x3): Conv2d(1024, 1024, kernel_size=(3, 3), stride=(1, 1), padding=(1, 1), bias=False)
      (bn1): BatchNorm2d(1024, eps=1e-05, momentum=0.1, affine=True, track_running_stats=True)
      (move12): LearnableBias()
      (prelu1): PReLU(num_parameters=1024)
      (move13): LearnableBias()
      (move21): LearnableBias()
      (binary_pw): Conv2d(1024, 1024, kernel_size=(1, 1), stride=(1, 1), bias=False)
      (bn2): BatchNorm2d(1024, eps=1e-05, momentum=0.1, affine=True, track_running_stats=True)
      (move22): LearnableBias()
      (prelu2): PReLU(num_parameters=1024)
      (move23): LearnableBias()
      (binary_activation): BinaryActivation()
    )
  )
  (pool1): AdaptiveAvgPool2d(output_size=1)
  (fc): Linear(in_features=1024, out_features=1000, bias=True)
)
2020-12-20 19:28:49,214 args = Namespace(batch_size=256, data='/datasets/imagenet', epochs=256, label_smooth=0.1, learning_rate=0.0005, momentum=0.9, save='./models', teacher='resnet34', weight_decay=1e-05, workers=40)
2020-12-20 19:28:50,801 student:
2020-12-20 19:28:50,801 reactnet(
  (feature): ModuleList(
    (0): firstconv3x3(
      (conv1): Conv2d(3, 32, kernel_size=(3, 3), stride=(2, 2), padding=(1, 1), bias=False)
      (bn1): BatchNorm2d(32, eps=1e-05, momentum=0.1, affine=True, track_running_stats=True)
    )
    (1): BasicBlock(
      (move11): LearnableBias()
      (binary_3x3): Conv2d(32, 32, kernel_size=(3, 3), stride=(1, 1), padding=(1, 1), bias=False)
      (bn1): BatchNorm2d(32, eps=1e-05, momentum=0.1, affine=True, track_running_stats=True)
      (move12): LearnableBias()
      (prelu1): PReLU(num_parameters=32)
      (move13): LearnableBias()
      (move21): LearnableBias()
      (binary_pw_down1): Conv2d(32, 32, kernel_size=(1, 1), stride=(1, 1), bias=False)
      (binary_pw_down2): Conv2d(32, 32, kernel_size=(1, 1), stride=(1, 1), bias=False)
      (bn2_1): BatchNorm2d(32, eps=1e-05, momentum=0.1, affine=True, track_running_stats=True)
      (bn2_2): BatchNorm2d(32, eps=1e-05, momentum=0.1, affine=True, track_running_stats=True)
      (move22): LearnableBias()
      (prelu2): PReLU(num_parameters=64)
      (move23): LearnableBias()
      (binary_activation): BinaryActivation()
      (pooling): AvgPool2d(kernel_size=2, stride=2, padding=0)
    )
    (2): BasicBlock(
      (move11): LearnableBias()
      (binary_3x3): Conv2d(64, 64, kernel_size=(3, 3), stride=(2, 2), padding=(1, 1), bias=False)
      (bn1): BatchNorm2d(64, eps=1e-05, momentum=0.1, affine=True, track_running_stats=True)
      (move12): LearnableBias()
      (prelu1): PReLU(num_parameters=64)
      (move13): LearnableBias()
      (move21): LearnableBias()
      (binary_pw_down1): Conv2d(64, 64, kernel_size=(1, 1), stride=(1, 1), bias=False)
      (binary_pw_down2): Conv2d(64, 64, kernel_size=(1, 1), stride=(1, 1), bias=False)
      (bn2_1): BatchNorm2d(64, eps=1e-05, momentum=0.1, affine=True, track_running_stats=True)
      (bn2_2): BatchNorm2d(64, eps=1e-05, momentum=0.1, affine=True, track_running_stats=True)
      (move22): LearnableBias()
      (prelu2): PReLU(num_parameters=128)
      (move23): LearnableBias()
      (binary_activation): BinaryActivation()
      (pooling): AvgPool2d(kernel_size=2, stride=2, padding=0)
    )
    (3): BasicBlock(
      (move11): LearnableBias()
      (binary_3x3): Conv2d(128, 128, kernel_size=(3, 3), stride=(1, 1), padding=(1, 1), bias=False)
      (bn1): BatchNorm2d(128, eps=1e-05, momentum=0.1, affine=True, track_running_stats=True)
      (move12): LearnableBias()
      (prelu1): PReLU(num_parameters=128)
      (move13): LearnableBias()
      (move21): LearnableBias()
      (binary_pw): Conv2d(128, 128, kernel_size=(1, 1), stride=(1, 1), bias=False)
      (bn2): BatchNorm2d(128, eps=1e-05, momentum=0.1, affine=True, track_running_stats=True)
      (move22): LearnableBias()
      (prelu2): PReLU(num_parameters=128)
      (move23): LearnableBias()
      (binary_activation): BinaryActivation()
    )
    (4): BasicBlock(
      (move11): LearnableBias()
      (binary_3x3): Conv2d(128, 128, kernel_size=(3, 3), stride=(2, 2), padding=(1, 1), bias=False)
      (bn1): BatchNorm2d(128, eps=1e-05, momentum=0.1, affine=True, track_running_stats=True)
      (move12): LearnableBias()
      (prelu1): PReLU(num_parameters=128)
      (move13): LearnableBias()
      (move21): LearnableBias()
      (binary_pw_down1): Conv2d(128, 128, kernel_size=(1, 1), stride=(1, 1), bias=False)
      (binary_pw_down2): Conv2d(128, 128, kernel_size=(1, 1), stride=(1, 1), bias=False)
      (bn2_1): BatchNorm2d(128, eps=1e-05, momentum=0.1, affine=True, track_running_stats=True)
      (bn2_2): BatchNorm2d(128, eps=1e-05, momentum=0.1, affine=True, track_running_stats=True)
      (move22): LearnableBias()
      (prelu2): PReLU(num_parameters=256)
      (move23): LearnableBias()
      (binary_activation): BinaryActivation()
      (pooling): AvgPool2d(kernel_size=2, stride=2, padding=0)
    )
    (5): BasicBlock(
      (move11): LearnableBias()
      (binary_3x3): Conv2d(256, 256, kernel_size=(3, 3), stride=(1, 1), padding=(1, 1), bias=False)
      (bn1): BatchNorm2d(256, eps=1e-05, momentum=0.1, affine=True, track_running_stats=True)
      (move12): LearnableBias()
      (prelu1): PReLU(num_parameters=256)
      (move13): LearnableBias()
      (move21): LearnableBias()
      (binary_pw): Conv2d(256, 256, kernel_size=(1, 1), stride=(1, 1), bias=False)
      (bn2): BatchNorm2d(256, eps=1e-05, momentum=0.1, affine=True, track_running_stats=True)
      (move22): LearnableBias()
      (prelu2): PReLU(num_parameters=256)
      (move23): LearnableBias()
      (binary_activation): BinaryActivation()
    )
    (6): BasicBlock(
      (move11): LearnableBias()
      (binary_3x3): Conv2d(256, 256, kernel_size=(3, 3), stride=(2, 2), padding=(1, 1), bias=False)
      (bn1): BatchNorm2d(256, eps=1e-05, momentum=0.1, affine=True, track_running_stats=True)
      (move12): LearnableBias()
      (prelu1): PReLU(num_parameters=256)
      (move13): LearnableBias()
      (move21): LearnableBias()
      (binary_pw_down1): Conv2d(256, 256, kernel_size=(1, 1), stride=(1, 1), bias=False)
      (binary_pw_down2): Conv2d(256, 256, kernel_size=(1, 1), stride=(1, 1), bias=False)
      (bn2_1): BatchNorm2d(256, eps=1e-05, momentum=0.1, affine=True, track_running_stats=True)
      (bn2_2): BatchNorm2d(256, eps=1e-05, momentum=0.1, affine=True, track_running_stats=True)
      (move22): LearnableBias()
      (prelu2): PReLU(num_parameters=512)
      (move23): LearnableBias()
      (binary_activation): BinaryActivation()
      (pooling): AvgPool2d(kernel_size=2, stride=2, padding=0)
    )
    (7): BasicBlock(
      (move11): LearnableBias()
      (binary_3x3): Conv2d(512, 512, kernel_size=(3, 3), stride=(1, 1), padding=(1, 1), bias=False)
      (bn1): BatchNorm2d(512, eps=1e-05, momentum=0.1, affine=True, track_running_stats=True)
      (move12): LearnableBias()
      (prelu1): PReLU(num_parameters=512)
      (move13): LearnableBias()
      (move21): LearnableBias()
      (binary_pw): Conv2d(512, 512, kernel_size=(1, 1), stride=(1, 1), bias=False)
      (bn2): BatchNorm2d(512, eps=1e-05, momentum=0.1, affine=True, track_running_stats=True)
      (move22): LearnableBias()
      (prelu2): PReLU(num_parameters=512)
      (move23): LearnableBias()
      (binary_activation): BinaryActivation()
    )
    (8): BasicBlock(
      (move11): LearnableBias()
      (binary_3x3): Conv2d(512, 512, kernel_size=(3, 3), stride=(1, 1), padding=(1, 1), bias=False)
      (bn1): BatchNorm2d(512, eps=1e-05, momentum=0.1, affine=True, track_running_stats=True)
      (move12): LearnableBias()
      (prelu1): PReLU(num_parameters=512)
      (move13): LearnableBias()
      (move21): LearnableBias()
      (binary_pw): Conv2d(512, 512, kernel_size=(1, 1), stride=(1, 1), bias=False)
      (bn2): BatchNorm2d(512, eps=1e-05, momentum=0.1, affine=True, track_running_stats=True)
      (move22): LearnableBias()
      (prelu2): PReLU(num_parameters=512)
      (move23): LearnableBias()
      (binary_activation): BinaryActivation()
    )
    (9): BasicBlock(
      (move11): LearnableBias()
      (binary_3x3): Conv2d(512, 512, kernel_size=(3, 3), stride=(1, 1), padding=(1, 1), bias=False)
      (bn1): BatchNorm2d(512, eps=1e-05, momentum=0.1, affine=True, track_running_stats=True)
      (move12): LearnableBias()
      (prelu1): PReLU(num_parameters=512)
      (move13): LearnableBias()
      (move21): LearnableBias()
      (binary_pw): Conv2d(512, 512, kernel_size=(1, 1), stride=(1, 1), bias=False)
      (bn2): BatchNorm2d(512, eps=1e-05, momentum=0.1, affine=True, track_running_stats=True)
      (move22): LearnableBias()
      (prelu2): PReLU(num_parameters=512)
      (move23): LearnableBias()
      (binary_activation): BinaryActivation()
    )
    (10): BasicBlock(
      (move11): LearnableBias()
      (binary_3x3): Conv2d(512, 512, kernel_size=(3, 3), stride=(1, 1), padding=(1, 1), bias=False)
      (bn1): BatchNorm2d(512, eps=1e-05, momentum=0.1, affine=True, track_running_stats=True)
      (move12): LearnableBias()
      (prelu1): PReLU(num_parameters=512)
      (move13): LearnableBias()
      (move21): LearnableBias()
      (binary_pw): Conv2d(512, 512, kernel_size=(1, 1), stride=(1, 1), bias=False)
      (bn2): BatchNorm2d(512, eps=1e-05, momentum=0.1, affine=True, track_running_stats=True)
      (move22): LearnableBias()
      (prelu2): PReLU(num_parameters=512)
      (move23): LearnableBias()
      (binary_activation): BinaryActivation()
    )
    (11): BasicBlock(
      (move11): LearnableBias()
      (binary_3x3): Conv2d(512, 512, kernel_size=(3, 3), stride=(1, 1), padding=(1, 1), bias=False)
      (bn1): BatchNorm2d(512, eps=1e-05, momentum=0.1, affine=True, track_running_stats=True)
      (move12): LearnableBias()
      (prelu1): PReLU(num_parameters=512)
      (move13): LearnableBias()
      (move21): LearnableBias()
      (binary_pw): Conv2d(512, 512, kernel_size=(1, 1), stride=(1, 1), bias=False)
      (bn2): BatchNorm2d(512, eps=1e-05, momentum=0.1, affine=True, track_running_stats=True)
      (move22): LearnableBias()
      (prelu2): PReLU(num_parameters=512)
      (move23): LearnableBias()
      (binary_activation): BinaryActivation()
    )
    (12): BasicBlock(
      (move11): LearnableBias()
      (binary_3x3): Conv2d(512, 512, kernel_size=(3, 3), stride=(2, 2), padding=(1, 1), bias=False)
      (bn1): BatchNorm2d(512, eps=1e-05, momentum=0.1, affine=True, track_running_stats=True)
      (move12): LearnableBias()
      (prelu1): PReLU(num_parameters=512)
      (move13): LearnableBias()
      (move21): LearnableBias()
      (binary_pw_down1): Conv2d(512, 512, kernel_size=(1, 1), stride=(1, 1), bias=False)
      (binary_pw_down2): Conv2d(512, 512, kernel_size=(1, 1), stride=(1, 1), bias=False)
      (bn2_1): BatchNorm2d(512, eps=1e-05, momentum=0.1, affine=True, track_running_stats=True)
      (bn2_2): BatchNorm2d(512, eps=1e-05, momentum=0.1, affine=True, track_running_stats=True)
      (move22): LearnableBias()
      (prelu2): PReLU(num_parameters=1024)
      (move23): LearnableBias()
      (binary_activation): BinaryActivation()
      (pooling): AvgPool2d(kernel_size=2, stride=2, padding=0)
    )
    (13): BasicBlock(
      (move11): LearnableBias()
      (binary_3x3): Conv2d(1024, 1024, kernel_size=(3, 3), stride=(1, 1), padding=(1, 1), bias=False)
      (bn1): BatchNorm2d(1024, eps=1e-05, momentum=0.1, affine=True, track_running_stats=True)
      (move12): LearnableBias()
      (prelu1): PReLU(num_parameters=1024)
      (move13): LearnableBias()
      (move21): LearnableBias()
      (binary_pw): Conv2d(1024, 1024, kernel_size=(1, 1), stride=(1, 1), bias=False)
      (bn2): BatchNorm2d(1024, eps=1e-05, momentum=0.1, affine=True, track_running_stats=True)
      (move22): LearnableBias()
      (prelu2): PReLU(num_parameters=1024)
      (move23): LearnableBias()
      (binary_activation): BinaryActivation()
    )
  )
  (pool1): AdaptiveAvgPool2d(output_size=1)
  (fc): Linear(in_features=1024, out_features=10, bias=True)
)
2020-12-20 19:32:44,434 args = Namespace(batch_size=256, data='/datasets/imagenet', epochs=256, label_smooth=0.1, learning_rate=0.0005, momentum=0.9, save='./models', teacher='resnet34', weight_decay=1e-05, workers=40)
2020-12-20 19:32:46,007 student:
2020-12-20 19:32:46,007 reactnet(
  (feature): ModuleList(
    (0): firstconv3x3(
      (conv1): Conv2d(3, 32, kernel_size=(3, 3), stride=(2, 2), padding=(1, 1), bias=False)
      (bn1): BatchNorm2d(32, eps=1e-05, momentum=0.1, affine=True, track_running_stats=True)
    )
    (1): BasicBlock(
      (move11): LearnableBias()
      (binary_3x3): Conv2d(32, 32, kernel_size=(3, 3), stride=(1, 1), padding=(1, 1), bias=False)
      (bn1): BatchNorm2d(32, eps=1e-05, momentum=0.1, affine=True, track_running_stats=True)
      (move12): LearnableBias()
      (prelu1): PReLU(num_parameters=32)
      (move13): LearnableBias()
      (move21): LearnableBias()
      (binary_pw_down1): Conv2d(32, 32, kernel_size=(1, 1), stride=(1, 1), bias=False)
      (binary_pw_down2): Conv2d(32, 32, kernel_size=(1, 1), stride=(1, 1), bias=False)
      (bn2_1): BatchNorm2d(32, eps=1e-05, momentum=0.1, affine=True, track_running_stats=True)
      (bn2_2): BatchNorm2d(32, eps=1e-05, momentum=0.1, affine=True, track_running_stats=True)
      (move22): LearnableBias()
      (prelu2): PReLU(num_parameters=64)
      (move23): LearnableBias()
      (binary_activation): BinaryActivation()
      (pooling): AvgPool2d(kernel_size=2, stride=2, padding=0)
    )
    (2): BasicBlock(
      (move11): LearnableBias()
      (binary_3x3): Conv2d(64, 64, kernel_size=(3, 3), stride=(2, 2), padding=(1, 1), bias=False)
      (bn1): BatchNorm2d(64, eps=1e-05, momentum=0.1, affine=True, track_running_stats=True)
      (move12): LearnableBias()
      (prelu1): PReLU(num_parameters=64)
      (move13): LearnableBias()
      (move21): LearnableBias()
      (binary_pw_down1): Conv2d(64, 64, kernel_size=(1, 1), stride=(1, 1), bias=False)
      (binary_pw_down2): Conv2d(64, 64, kernel_size=(1, 1), stride=(1, 1), bias=False)
      (bn2_1): BatchNorm2d(64, eps=1e-05, momentum=0.1, affine=True, track_running_stats=True)
      (bn2_2): BatchNorm2d(64, eps=1e-05, momentum=0.1, affine=True, track_running_stats=True)
      (move22): LearnableBias()
      (prelu2): PReLU(num_parameters=128)
      (move23): LearnableBias()
      (binary_activation): BinaryActivation()
      (pooling): AvgPool2d(kernel_size=2, stride=2, padding=0)
    )
    (3): BasicBlock(
      (move11): LearnableBias()
      (binary_3x3): Conv2d(128, 128, kernel_size=(3, 3), stride=(1, 1), padding=(1, 1), bias=False)
      (bn1): BatchNorm2d(128, eps=1e-05, momentum=0.1, affine=True, track_running_stats=True)
      (move12): LearnableBias()
      (prelu1): PReLU(num_parameters=128)
      (move13): LearnableBias()
      (move21): LearnableBias()
      (binary_pw): Conv2d(128, 128, kernel_size=(1, 1), stride=(1, 1), bias=False)
      (bn2): BatchNorm2d(128, eps=1e-05, momentum=0.1, affine=True, track_running_stats=True)
      (move22): LearnableBias()
      (prelu2): PReLU(num_parameters=128)
      (move23): LearnableBias()
      (binary_activation): BinaryActivation()
    )
    (4): BasicBlock(
      (move11): LearnableBias()
      (binary_3x3): Conv2d(128, 128, kernel_size=(3, 3), stride=(2, 2), padding=(1, 1), bias=False)
      (bn1): BatchNorm2d(128, eps=1e-05, momentum=0.1, affine=True, track_running_stats=True)
      (move12): LearnableBias()
      (prelu1): PReLU(num_parameters=128)
      (move13): LearnableBias()
      (move21): LearnableBias()
      (binary_pw_down1): Conv2d(128, 128, kernel_size=(1, 1), stride=(1, 1), bias=False)
      (binary_pw_down2): Conv2d(128, 128, kernel_size=(1, 1), stride=(1, 1), bias=False)
      (bn2_1): BatchNorm2d(128, eps=1e-05, momentum=0.1, affine=True, track_running_stats=True)
      (bn2_2): BatchNorm2d(128, eps=1e-05, momentum=0.1, affine=True, track_running_stats=True)
      (move22): LearnableBias()
      (prelu2): PReLU(num_parameters=256)
      (move23): LearnableBias()
      (binary_activation): BinaryActivation()
      (pooling): AvgPool2d(kernel_size=2, stride=2, padding=0)
    )
    (5): BasicBlock(
      (move11): LearnableBias()
      (binary_3x3): Conv2d(256, 256, kernel_size=(3, 3), stride=(1, 1), padding=(1, 1), bias=False)
      (bn1): BatchNorm2d(256, eps=1e-05, momentum=0.1, affine=True, track_running_stats=True)
      (move12): LearnableBias()
      (prelu1): PReLU(num_parameters=256)
      (move13): LearnableBias()
      (move21): LearnableBias()
      (binary_pw): Conv2d(256, 256, kernel_size=(1, 1), stride=(1, 1), bias=False)
      (bn2): BatchNorm2d(256, eps=1e-05, momentum=0.1, affine=True, track_running_stats=True)
      (move22): LearnableBias()
      (prelu2): PReLU(num_parameters=256)
      (move23): LearnableBias()
      (binary_activation): BinaryActivation()
    )
    (6): BasicBlock(
      (move11): LearnableBias()
      (binary_3x3): Conv2d(256, 256, kernel_size=(3, 3), stride=(2, 2), padding=(1, 1), bias=False)
      (bn1): BatchNorm2d(256, eps=1e-05, momentum=0.1, affine=True, track_running_stats=True)
      (move12): LearnableBias()
      (prelu1): PReLU(num_parameters=256)
      (move13): LearnableBias()
      (move21): LearnableBias()
      (binary_pw_down1): Conv2d(256, 256, kernel_size=(1, 1), stride=(1, 1), bias=False)
      (binary_pw_down2): Conv2d(256, 256, kernel_size=(1, 1), stride=(1, 1), bias=False)
      (bn2_1): BatchNorm2d(256, eps=1e-05, momentum=0.1, affine=True, track_running_stats=True)
      (bn2_2): BatchNorm2d(256, eps=1e-05, momentum=0.1, affine=True, track_running_stats=True)
      (move22): LearnableBias()
      (prelu2): PReLU(num_parameters=512)
      (move23): LearnableBias()
      (binary_activation): BinaryActivation()
      (pooling): AvgPool2d(kernel_size=2, stride=2, padding=0)
    )
    (7): BasicBlock(
      (move11): LearnableBias()
      (binary_3x3): Conv2d(512, 512, kernel_size=(3, 3), stride=(1, 1), padding=(1, 1), bias=False)
      (bn1): BatchNorm2d(512, eps=1e-05, momentum=0.1, affine=True, track_running_stats=True)
      (move12): LearnableBias()
      (prelu1): PReLU(num_parameters=512)
      (move13): LearnableBias()
      (move21): LearnableBias()
      (binary_pw): Conv2d(512, 512, kernel_size=(1, 1), stride=(1, 1), bias=False)
      (bn2): BatchNorm2d(512, eps=1e-05, momentum=0.1, affine=True, track_running_stats=True)
      (move22): LearnableBias()
      (prelu2): PReLU(num_parameters=512)
      (move23): LearnableBias()
      (binary_activation): BinaryActivation()
    )
    (8): BasicBlock(
      (move11): LearnableBias()
      (binary_3x3): Conv2d(512, 512, kernel_size=(3, 3), stride=(1, 1), padding=(1, 1), bias=False)
      (bn1): BatchNorm2d(512, eps=1e-05, momentum=0.1, affine=True, track_running_stats=True)
      (move12): LearnableBias()
      (prelu1): PReLU(num_parameters=512)
      (move13): LearnableBias()
      (move21): LearnableBias()
      (binary_pw): Conv2d(512, 512, kernel_size=(1, 1), stride=(1, 1), bias=False)
      (bn2): BatchNorm2d(512, eps=1e-05, momentum=0.1, affine=True, track_running_stats=True)
      (move22): LearnableBias()
      (prelu2): PReLU(num_parameters=512)
      (move23): LearnableBias()
      (binary_activation): BinaryActivation()
    )
    (9): BasicBlock(
      (move11): LearnableBias()
      (binary_3x3): Conv2d(512, 512, kernel_size=(3, 3), stride=(1, 1), padding=(1, 1), bias=False)
      (bn1): BatchNorm2d(512, eps=1e-05, momentum=0.1, affine=True, track_running_stats=True)
      (move12): LearnableBias()
      (prelu1): PReLU(num_parameters=512)
      (move13): LearnableBias()
      (move21): LearnableBias()
      (binary_pw): Conv2d(512, 512, kernel_size=(1, 1), stride=(1, 1), bias=False)
      (bn2): BatchNorm2d(512, eps=1e-05, momentum=0.1, affine=True, track_running_stats=True)
      (move22): LearnableBias()
      (prelu2): PReLU(num_parameters=512)
      (move23): LearnableBias()
      (binary_activation): BinaryActivation()
    )
    (10): BasicBlock(
      (move11): LearnableBias()
      (binary_3x3): Conv2d(512, 512, kernel_size=(3, 3), stride=(1, 1), padding=(1, 1), bias=False)
      (bn1): BatchNorm2d(512, eps=1e-05, momentum=0.1, affine=True, track_running_stats=True)
      (move12): LearnableBias()
      (prelu1): PReLU(num_parameters=512)
      (move13): LearnableBias()
      (move21): LearnableBias()
      (binary_pw): Conv2d(512, 512, kernel_size=(1, 1), stride=(1, 1), bias=False)
      (bn2): BatchNorm2d(512, eps=1e-05, momentum=0.1, affine=True, track_running_stats=True)
      (move22): LearnableBias()
      (prelu2): PReLU(num_parameters=512)
      (move23): LearnableBias()
      (binary_activation): BinaryActivation()
    )
    (11): BasicBlock(
      (move11): LearnableBias()
      (binary_3x3): Conv2d(512, 512, kernel_size=(3, 3), stride=(1, 1), padding=(1, 1), bias=False)
      (bn1): BatchNorm2d(512, eps=1e-05, momentum=0.1, affine=True, track_running_stats=True)
      (move12): LearnableBias()
      (prelu1): PReLU(num_parameters=512)
      (move13): LearnableBias()
      (move21): LearnableBias()
      (binary_pw): Conv2d(512, 512, kernel_size=(1, 1), stride=(1, 1), bias=False)
      (bn2): BatchNorm2d(512, eps=1e-05, momentum=0.1, affine=True, track_running_stats=True)
      (move22): LearnableBias()
      (prelu2): PReLU(num_parameters=512)
      (move23): LearnableBias()
      (binary_activation): BinaryActivation()
    )
    (12): BasicBlock(
      (move11): LearnableBias()
      (binary_3x3): Conv2d(512, 512, kernel_size=(3, 3), stride=(2, 2), padding=(1, 1), bias=False)
      (bn1): BatchNorm2d(512, eps=1e-05, momentum=0.1, affine=True, track_running_stats=True)
      (move12): LearnableBias()
      (prelu1): PReLU(num_parameters=512)
      (move13): LearnableBias()
      (move21): LearnableBias()
      (binary_pw_down1): Conv2d(512, 512, kernel_size=(1, 1), stride=(1, 1), bias=False)
      (binary_pw_down2): Conv2d(512, 512, kernel_size=(1, 1), stride=(1, 1), bias=False)
      (bn2_1): BatchNorm2d(512, eps=1e-05, momentum=0.1, affine=True, track_running_stats=True)
      (bn2_2): BatchNorm2d(512, eps=1e-05, momentum=0.1, affine=True, track_running_stats=True)
      (move22): LearnableBias()
      (prelu2): PReLU(num_parameters=1024)
      (move23): LearnableBias()
      (binary_activation): BinaryActivation()
      (pooling): AvgPool2d(kernel_size=2, stride=2, padding=0)
    )
    (13): BasicBlock(
      (move11): LearnableBias()
      (binary_3x3): Conv2d(1024, 1024, kernel_size=(3, 3), stride=(1, 1), padding=(1, 1), bias=False)
      (bn1): BatchNorm2d(1024, eps=1e-05, momentum=0.1, affine=True, track_running_stats=True)
      (move12): LearnableBias()
      (prelu1): PReLU(num_parameters=1024)
      (move13): LearnableBias()
      (move21): LearnableBias()
      (binary_pw): Conv2d(1024, 1024, kernel_size=(1, 1), stride=(1, 1), bias=False)
      (bn2): BatchNorm2d(1024, eps=1e-05, momentum=0.1, affine=True, track_running_stats=True)
      (move22): LearnableBias()
      (prelu2): PReLU(num_parameters=1024)
      (move23): LearnableBias()
      (binary_activation): BinaryActivation()
    )
  )
  (pool1): AdaptiveAvgPool2d(output_size=1)
  (fc): Linear(in_features=1024, out_features=10, bias=True)
)
2020-12-20 19:35:35,565 args = Namespace(batch_size=256, data='/datasets/imagenet', epochs=256, label_smooth=0.1, learning_rate=0.0005, momentum=0.9, save='./models', teacher='resnet34', weight_decay=1e-05, workers=40)
2020-12-20 19:35:37,095 student:
2020-12-20 19:35:37,095 reactnet(
  (feature): ModuleList(
    (0): firstconv3x3(
      (conv1): Conv2d(3, 32, kernel_size=(3, 3), stride=(2, 2), padding=(1, 1), bias=False)
      (bn1): BatchNorm2d(32, eps=1e-05, momentum=0.1, affine=True, track_running_stats=True)
    )
    (1): BasicBlock(
      (move11): LearnableBias()
      (binary_3x3): Conv2d(32, 32, kernel_size=(3, 3), stride=(1, 1), padding=(1, 1), bias=False)
      (bn1): BatchNorm2d(32, eps=1e-05, momentum=0.1, affine=True, track_running_stats=True)
      (move12): LearnableBias()
      (prelu1): PReLU(num_parameters=32)
      (move13): LearnableBias()
      (move21): LearnableBias()
      (binary_pw_down1): Conv2d(32, 32, kernel_size=(1, 1), stride=(1, 1), bias=False)
      (binary_pw_down2): Conv2d(32, 32, kernel_size=(1, 1), stride=(1, 1), bias=False)
      (bn2_1): BatchNorm2d(32, eps=1e-05, momentum=0.1, affine=True, track_running_stats=True)
      (bn2_2): BatchNorm2d(32, eps=1e-05, momentum=0.1, affine=True, track_running_stats=True)
      (move22): LearnableBias()
      (prelu2): PReLU(num_parameters=64)
      (move23): LearnableBias()
      (binary_activation): BinaryActivation()
      (pooling): AvgPool2d(kernel_size=2, stride=2, padding=0)
    )
    (2): BasicBlock(
      (move11): LearnableBias()
      (binary_3x3): Conv2d(64, 64, kernel_size=(3, 3), stride=(2, 2), padding=(1, 1), bias=False)
      (bn1): BatchNorm2d(64, eps=1e-05, momentum=0.1, affine=True, track_running_stats=True)
      (move12): LearnableBias()
      (prelu1): PReLU(num_parameters=64)
      (move13): LearnableBias()
      (move21): LearnableBias()
      (binary_pw_down1): Conv2d(64, 64, kernel_size=(1, 1), stride=(1, 1), bias=False)
      (binary_pw_down2): Conv2d(64, 64, kernel_size=(1, 1), stride=(1, 1), bias=False)
      (bn2_1): BatchNorm2d(64, eps=1e-05, momentum=0.1, affine=True, track_running_stats=True)
      (bn2_2): BatchNorm2d(64, eps=1e-05, momentum=0.1, affine=True, track_running_stats=True)
      (move22): LearnableBias()
      (prelu2): PReLU(num_parameters=128)
      (move23): LearnableBias()
      (binary_activation): BinaryActivation()
      (pooling): AvgPool2d(kernel_size=2, stride=2, padding=0)
    )
    (3): BasicBlock(
      (move11): LearnableBias()
      (binary_3x3): Conv2d(128, 128, kernel_size=(3, 3), stride=(1, 1), padding=(1, 1), bias=False)
      (bn1): BatchNorm2d(128, eps=1e-05, momentum=0.1, affine=True, track_running_stats=True)
      (move12): LearnableBias()
      (prelu1): PReLU(num_parameters=128)
      (move13): LearnableBias()
      (move21): LearnableBias()
      (binary_pw): Conv2d(128, 128, kernel_size=(1, 1), stride=(1, 1), bias=False)
      (bn2): BatchNorm2d(128, eps=1e-05, momentum=0.1, affine=True, track_running_stats=True)
      (move22): LearnableBias()
      (prelu2): PReLU(num_parameters=128)
      (move23): LearnableBias()
      (binary_activation): BinaryActivation()
    )
    (4): BasicBlock(
      (move11): LearnableBias()
      (binary_3x3): Conv2d(128, 128, kernel_size=(3, 3), stride=(2, 2), padding=(1, 1), bias=False)
      (bn1): BatchNorm2d(128, eps=1e-05, momentum=0.1, affine=True, track_running_stats=True)
      (move12): LearnableBias()
      (prelu1): PReLU(num_parameters=128)
      (move13): LearnableBias()
      (move21): LearnableBias()
      (binary_pw_down1): Conv2d(128, 128, kernel_size=(1, 1), stride=(1, 1), bias=False)
      (binary_pw_down2): Conv2d(128, 128, kernel_size=(1, 1), stride=(1, 1), bias=False)
      (bn2_1): BatchNorm2d(128, eps=1e-05, momentum=0.1, affine=True, track_running_stats=True)
      (bn2_2): BatchNorm2d(128, eps=1e-05, momentum=0.1, affine=True, track_running_stats=True)
      (move22): LearnableBias()
      (prelu2): PReLU(num_parameters=256)
      (move23): LearnableBias()
      (binary_activation): BinaryActivation()
      (pooling): AvgPool2d(kernel_size=2, stride=2, padding=0)
    )
    (5): BasicBlock(
      (move11): LearnableBias()
      (binary_3x3): Conv2d(256, 256, kernel_size=(3, 3), stride=(1, 1), padding=(1, 1), bias=False)
      (bn1): BatchNorm2d(256, eps=1e-05, momentum=0.1, affine=True, track_running_stats=True)
      (move12): LearnableBias()
      (prelu1): PReLU(num_parameters=256)
      (move13): LearnableBias()
      (move21): LearnableBias()
      (binary_pw): Conv2d(256, 256, kernel_size=(1, 1), stride=(1, 1), bias=False)
      (bn2): BatchNorm2d(256, eps=1e-05, momentum=0.1, affine=True, track_running_stats=True)
      (move22): LearnableBias()
      (prelu2): PReLU(num_parameters=256)
      (move23): LearnableBias()
      (binary_activation): BinaryActivation()
    )
    (6): BasicBlock(
      (move11): LearnableBias()
      (binary_3x3): Conv2d(256, 256, kernel_size=(3, 3), stride=(2, 2), padding=(1, 1), bias=False)
      (bn1): BatchNorm2d(256, eps=1e-05, momentum=0.1, affine=True, track_running_stats=True)
      (move12): LearnableBias()
      (prelu1): PReLU(num_parameters=256)
      (move13): LearnableBias()
      (move21): LearnableBias()
      (binary_pw_down1): Conv2d(256, 256, kernel_size=(1, 1), stride=(1, 1), bias=False)
      (binary_pw_down2): Conv2d(256, 256, kernel_size=(1, 1), stride=(1, 1), bias=False)
      (bn2_1): BatchNorm2d(256, eps=1e-05, momentum=0.1, affine=True, track_running_stats=True)
      (bn2_2): BatchNorm2d(256, eps=1e-05, momentum=0.1, affine=True, track_running_stats=True)
      (move22): LearnableBias()
      (prelu2): PReLU(num_parameters=512)
      (move23): LearnableBias()
      (binary_activation): BinaryActivation()
      (pooling): AvgPool2d(kernel_size=2, stride=2, padding=0)
    )
    (7): BasicBlock(
      (move11): LearnableBias()
      (binary_3x3): Conv2d(512, 512, kernel_size=(3, 3), stride=(1, 1), padding=(1, 1), bias=False)
      (bn1): BatchNorm2d(512, eps=1e-05, momentum=0.1, affine=True, track_running_stats=True)
      (move12): LearnableBias()
      (prelu1): PReLU(num_parameters=512)
      (move13): LearnableBias()
      (move21): LearnableBias()
      (binary_pw): Conv2d(512, 512, kernel_size=(1, 1), stride=(1, 1), bias=False)
      (bn2): BatchNorm2d(512, eps=1e-05, momentum=0.1, affine=True, track_running_stats=True)
      (move22): LearnableBias()
      (prelu2): PReLU(num_parameters=512)
      (move23): LearnableBias()
      (binary_activation): BinaryActivation()
    )
    (8): BasicBlock(
      (move11): LearnableBias()
      (binary_3x3): Conv2d(512, 512, kernel_size=(3, 3), stride=(1, 1), padding=(1, 1), bias=False)
      (bn1): BatchNorm2d(512, eps=1e-05, momentum=0.1, affine=True, track_running_stats=True)
      (move12): LearnableBias()
      (prelu1): PReLU(num_parameters=512)
      (move13): LearnableBias()
      (move21): LearnableBias()
      (binary_pw): Conv2d(512, 512, kernel_size=(1, 1), stride=(1, 1), bias=False)
      (bn2): BatchNorm2d(512, eps=1e-05, momentum=0.1, affine=True, track_running_stats=True)
      (move22): LearnableBias()
      (prelu2): PReLU(num_parameters=512)
      (move23): LearnableBias()
      (binary_activation): BinaryActivation()
    )
    (9): BasicBlock(
      (move11): LearnableBias()
      (binary_3x3): Conv2d(512, 512, kernel_size=(3, 3), stride=(1, 1), padding=(1, 1), bias=False)
      (bn1): BatchNorm2d(512, eps=1e-05, momentum=0.1, affine=True, track_running_stats=True)
      (move12): LearnableBias()
      (prelu1): PReLU(num_parameters=512)
      (move13): LearnableBias()
      (move21): LearnableBias()
      (binary_pw): Conv2d(512, 512, kernel_size=(1, 1), stride=(1, 1), bias=False)
      (bn2): BatchNorm2d(512, eps=1e-05, momentum=0.1, affine=True, track_running_stats=True)
      (move22): LearnableBias()
      (prelu2): PReLU(num_parameters=512)
      (move23): LearnableBias()
      (binary_activation): BinaryActivation()
    )
    (10): BasicBlock(
      (move11): LearnableBias()
      (binary_3x3): Conv2d(512, 512, kernel_size=(3, 3), stride=(1, 1), padding=(1, 1), bias=False)
      (bn1): BatchNorm2d(512, eps=1e-05, momentum=0.1, affine=True, track_running_stats=True)
      (move12): LearnableBias()
      (prelu1): PReLU(num_parameters=512)
      (move13): LearnableBias()
      (move21): LearnableBias()
      (binary_pw): Conv2d(512, 512, kernel_size=(1, 1), stride=(1, 1), bias=False)
      (bn2): BatchNorm2d(512, eps=1e-05, momentum=0.1, affine=True, track_running_stats=True)
      (move22): LearnableBias()
      (prelu2): PReLU(num_parameters=512)
      (move23): LearnableBias()
      (binary_activation): BinaryActivation()
    )
    (11): BasicBlock(
      (move11): LearnableBias()
      (binary_3x3): Conv2d(512, 512, kernel_size=(3, 3), stride=(1, 1), padding=(1, 1), bias=False)
      (bn1): BatchNorm2d(512, eps=1e-05, momentum=0.1, affine=True, track_running_stats=True)
      (move12): LearnableBias()
      (prelu1): PReLU(num_parameters=512)
      (move13): LearnableBias()
      (move21): LearnableBias()
      (binary_pw): Conv2d(512, 512, kernel_size=(1, 1), stride=(1, 1), bias=False)
      (bn2): BatchNorm2d(512, eps=1e-05, momentum=0.1, affine=True, track_running_stats=True)
      (move22): LearnableBias()
      (prelu2): PReLU(num_parameters=512)
      (move23): LearnableBias()
      (binary_activation): BinaryActivation()
    )
    (12): BasicBlock(
      (move11): LearnableBias()
      (binary_3x3): Conv2d(512, 512, kernel_size=(3, 3), stride=(2, 2), padding=(1, 1), bias=False)
      (bn1): BatchNorm2d(512, eps=1e-05, momentum=0.1, affine=True, track_running_stats=True)
      (move12): LearnableBias()
      (prelu1): PReLU(num_parameters=512)
      (move13): LearnableBias()
      (move21): LearnableBias()
      (binary_pw_down1): Conv2d(512, 512, kernel_size=(1, 1), stride=(1, 1), bias=False)
      (binary_pw_down2): Conv2d(512, 512, kernel_size=(1, 1), stride=(1, 1), bias=False)
      (bn2_1): BatchNorm2d(512, eps=1e-05, momentum=0.1, affine=True, track_running_stats=True)
      (bn2_2): BatchNorm2d(512, eps=1e-05, momentum=0.1, affine=True, track_running_stats=True)
      (move22): LearnableBias()
      (prelu2): PReLU(num_parameters=1024)
      (move23): LearnableBias()
      (binary_activation): BinaryActivation()
      (pooling): AvgPool2d(kernel_size=2, stride=2, padding=0)
    )
    (13): BasicBlock(
      (move11): LearnableBias()
      (binary_3x3): Conv2d(1024, 1024, kernel_size=(3, 3), stride=(1, 1), padding=(1, 1), bias=False)
      (bn1): BatchNorm2d(1024, eps=1e-05, momentum=0.1, affine=True, track_running_stats=True)
      (move12): LearnableBias()
      (prelu1): PReLU(num_parameters=1024)
      (move13): LearnableBias()
      (move21): LearnableBias()
      (binary_pw): Conv2d(1024, 1024, kernel_size=(1, 1), stride=(1, 1), bias=False)
      (bn2): BatchNorm2d(1024, eps=1e-05, momentum=0.1, affine=True, track_running_stats=True)
      (move22): LearnableBias()
      (prelu2): PReLU(num_parameters=1024)
      (move23): LearnableBias()
      (binary_activation): BinaryActivation()
    )
  )
  (pool1): AdaptiveAvgPool2d(output_size=1)
  (fc): Linear(in_features=1024, out_features=10, bias=True)
)
2020-12-20 19:38:35,296 args = Namespace(batch_size=256, data='/datasets/imagenet', epochs=256, label_smooth=0.1, learning_rate=0.0005, momentum=0.9, save='./models', teacher='resnet34', weight_decay=1e-05, workers=40)
2020-12-20 19:38:36,821 student:
2020-12-20 19:38:36,822 reactnet(
  (feature): ModuleList(
    (0): firstconv3x3(
      (conv1): Conv2d(3, 32, kernel_size=(3, 3), stride=(2, 2), padding=(1, 1), bias=False)
      (bn1): BatchNorm2d(32, eps=1e-05, momentum=0.1, affine=True, track_running_stats=True)
    )
    (1): BasicBlock(
      (move11): LearnableBias()
      (binary_3x3): Conv2d(32, 32, kernel_size=(3, 3), stride=(1, 1), padding=(1, 1), bias=False)
      (bn1): BatchNorm2d(32, eps=1e-05, momentum=0.1, affine=True, track_running_stats=True)
      (move12): LearnableBias()
      (prelu1): PReLU(num_parameters=32)
      (move13): LearnableBias()
      (move21): LearnableBias()
      (binary_pw_down1): Conv2d(32, 32, kernel_size=(1, 1), stride=(1, 1), bias=False)
      (binary_pw_down2): Conv2d(32, 32, kernel_size=(1, 1), stride=(1, 1), bias=False)
      (bn2_1): BatchNorm2d(32, eps=1e-05, momentum=0.1, affine=True, track_running_stats=True)
      (bn2_2): BatchNorm2d(32, eps=1e-05, momentum=0.1, affine=True, track_running_stats=True)
      (move22): LearnableBias()
      (prelu2): PReLU(num_parameters=64)
      (move23): LearnableBias()
      (binary_activation): BinaryActivation()
      (pooling): AvgPool2d(kernel_size=2, stride=2, padding=0)
    )
    (2): BasicBlock(
      (move11): LearnableBias()
      (binary_3x3): Conv2d(64, 64, kernel_size=(3, 3), stride=(2, 2), padding=(1, 1), bias=False)
      (bn1): BatchNorm2d(64, eps=1e-05, momentum=0.1, affine=True, track_running_stats=True)
      (move12): LearnableBias()
      (prelu1): PReLU(num_parameters=64)
      (move13): LearnableBias()
      (move21): LearnableBias()
      (binary_pw_down1): Conv2d(64, 64, kernel_size=(1, 1), stride=(1, 1), bias=False)
      (binary_pw_down2): Conv2d(64, 64, kernel_size=(1, 1), stride=(1, 1), bias=False)
      (bn2_1): BatchNorm2d(64, eps=1e-05, momentum=0.1, affine=True, track_running_stats=True)
      (bn2_2): BatchNorm2d(64, eps=1e-05, momentum=0.1, affine=True, track_running_stats=True)
      (move22): LearnableBias()
      (prelu2): PReLU(num_parameters=128)
      (move23): LearnableBias()
      (binary_activation): BinaryActivation()
      (pooling): AvgPool2d(kernel_size=2, stride=2, padding=0)
    )
    (3): BasicBlock(
      (move11): LearnableBias()
      (binary_3x3): Conv2d(128, 128, kernel_size=(3, 3), stride=(1, 1), padding=(1, 1), bias=False)
      (bn1): BatchNorm2d(128, eps=1e-05, momentum=0.1, affine=True, track_running_stats=True)
      (move12): LearnableBias()
      (prelu1): PReLU(num_parameters=128)
      (move13): LearnableBias()
      (move21): LearnableBias()
      (binary_pw): Conv2d(128, 128, kernel_size=(1, 1), stride=(1, 1), bias=False)
      (bn2): BatchNorm2d(128, eps=1e-05, momentum=0.1, affine=True, track_running_stats=True)
      (move22): LearnableBias()
      (prelu2): PReLU(num_parameters=128)
      (move23): LearnableBias()
      (binary_activation): BinaryActivation()
    )
    (4): BasicBlock(
      (move11): LearnableBias()
      (binary_3x3): Conv2d(128, 128, kernel_size=(3, 3), stride=(2, 2), padding=(1, 1), bias=False)
      (bn1): BatchNorm2d(128, eps=1e-05, momentum=0.1, affine=True, track_running_stats=True)
      (move12): LearnableBias()
      (prelu1): PReLU(num_parameters=128)
      (move13): LearnableBias()
      (move21): LearnableBias()
      (binary_pw_down1): Conv2d(128, 128, kernel_size=(1, 1), stride=(1, 1), bias=False)
      (binary_pw_down2): Conv2d(128, 128, kernel_size=(1, 1), stride=(1, 1), bias=False)
      (bn2_1): BatchNorm2d(128, eps=1e-05, momentum=0.1, affine=True, track_running_stats=True)
      (bn2_2): BatchNorm2d(128, eps=1e-05, momentum=0.1, affine=True, track_running_stats=True)
      (move22): LearnableBias()
      (prelu2): PReLU(num_parameters=256)
      (move23): LearnableBias()
      (binary_activation): BinaryActivation()
      (pooling): AvgPool2d(kernel_size=2, stride=2, padding=0)
    )
    (5): BasicBlock(
      (move11): LearnableBias()
      (binary_3x3): Conv2d(256, 256, kernel_size=(3, 3), stride=(1, 1), padding=(1, 1), bias=False)
      (bn1): BatchNorm2d(256, eps=1e-05, momentum=0.1, affine=True, track_running_stats=True)
      (move12): LearnableBias()
      (prelu1): PReLU(num_parameters=256)
      (move13): LearnableBias()
      (move21): LearnableBias()
      (binary_pw): Conv2d(256, 256, kernel_size=(1, 1), stride=(1, 1), bias=False)
      (bn2): BatchNorm2d(256, eps=1e-05, momentum=0.1, affine=True, track_running_stats=True)
      (move22): LearnableBias()
      (prelu2): PReLU(num_parameters=256)
      (move23): LearnableBias()
      (binary_activation): BinaryActivation()
    )
    (6): BasicBlock(
      (move11): LearnableBias()
      (binary_3x3): Conv2d(256, 256, kernel_size=(3, 3), stride=(2, 2), padding=(1, 1), bias=False)
      (bn1): BatchNorm2d(256, eps=1e-05, momentum=0.1, affine=True, track_running_stats=True)
      (move12): LearnableBias()
      (prelu1): PReLU(num_parameters=256)
      (move13): LearnableBias()
      (move21): LearnableBias()
      (binary_pw_down1): Conv2d(256, 256, kernel_size=(1, 1), stride=(1, 1), bias=False)
      (binary_pw_down2): Conv2d(256, 256, kernel_size=(1, 1), stride=(1, 1), bias=False)
      (bn2_1): BatchNorm2d(256, eps=1e-05, momentum=0.1, affine=True, track_running_stats=True)
      (bn2_2): BatchNorm2d(256, eps=1e-05, momentum=0.1, affine=True, track_running_stats=True)
      (move22): LearnableBias()
      (prelu2): PReLU(num_parameters=512)
      (move23): LearnableBias()
      (binary_activation): BinaryActivation()
      (pooling): AvgPool2d(kernel_size=2, stride=2, padding=0)
    )
    (7): BasicBlock(
      (move11): LearnableBias()
      (binary_3x3): Conv2d(512, 512, kernel_size=(3, 3), stride=(1, 1), padding=(1, 1), bias=False)
      (bn1): BatchNorm2d(512, eps=1e-05, momentum=0.1, affine=True, track_running_stats=True)
      (move12): LearnableBias()
      (prelu1): PReLU(num_parameters=512)
      (move13): LearnableBias()
      (move21): LearnableBias()
      (binary_pw): Conv2d(512, 512, kernel_size=(1, 1), stride=(1, 1), bias=False)
      (bn2): BatchNorm2d(512, eps=1e-05, momentum=0.1, affine=True, track_running_stats=True)
      (move22): LearnableBias()
      (prelu2): PReLU(num_parameters=512)
      (move23): LearnableBias()
      (binary_activation): BinaryActivation()
    )
    (8): BasicBlock(
      (move11): LearnableBias()
      (binary_3x3): Conv2d(512, 512, kernel_size=(3, 3), stride=(1, 1), padding=(1, 1), bias=False)
      (bn1): BatchNorm2d(512, eps=1e-05, momentum=0.1, affine=True, track_running_stats=True)
      (move12): LearnableBias()
      (prelu1): PReLU(num_parameters=512)
      (move13): LearnableBias()
      (move21): LearnableBias()
      (binary_pw): Conv2d(512, 512, kernel_size=(1, 1), stride=(1, 1), bias=False)
      (bn2): BatchNorm2d(512, eps=1e-05, momentum=0.1, affine=True, track_running_stats=True)
      (move22): LearnableBias()
      (prelu2): PReLU(num_parameters=512)
      (move23): LearnableBias()
      (binary_activation): BinaryActivation()
    )
    (9): BasicBlock(
      (move11): LearnableBias()
      (binary_3x3): Conv2d(512, 512, kernel_size=(3, 3), stride=(1, 1), padding=(1, 1), bias=False)
      (bn1): BatchNorm2d(512, eps=1e-05, momentum=0.1, affine=True, track_running_stats=True)
      (move12): LearnableBias()
      (prelu1): PReLU(num_parameters=512)
      (move13): LearnableBias()
      (move21): LearnableBias()
      (binary_pw): Conv2d(512, 512, kernel_size=(1, 1), stride=(1, 1), bias=False)
      (bn2): BatchNorm2d(512, eps=1e-05, momentum=0.1, affine=True, track_running_stats=True)
      (move22): LearnableBias()
      (prelu2): PReLU(num_parameters=512)
      (move23): LearnableBias()
      (binary_activation): BinaryActivation()
    )
    (10): BasicBlock(
      (move11): LearnableBias()
      (binary_3x3): Conv2d(512, 512, kernel_size=(3, 3), stride=(1, 1), padding=(1, 1), bias=False)
      (bn1): BatchNorm2d(512, eps=1e-05, momentum=0.1, affine=True, track_running_stats=True)
      (move12): LearnableBias()
      (prelu1): PReLU(num_parameters=512)
      (move13): LearnableBias()
      (move21): LearnableBias()
      (binary_pw): Conv2d(512, 512, kernel_size=(1, 1), stride=(1, 1), bias=False)
      (bn2): BatchNorm2d(512, eps=1e-05, momentum=0.1, affine=True, track_running_stats=True)
      (move22): LearnableBias()
      (prelu2): PReLU(num_parameters=512)
      (move23): LearnableBias()
      (binary_activation): BinaryActivation()
    )
    (11): BasicBlock(
      (move11): LearnableBias()
      (binary_3x3): Conv2d(512, 512, kernel_size=(3, 3), stride=(1, 1), padding=(1, 1), bias=False)
      (bn1): BatchNorm2d(512, eps=1e-05, momentum=0.1, affine=True, track_running_stats=True)
      (move12): LearnableBias()
      (prelu1): PReLU(num_parameters=512)
      (move13): LearnableBias()
      (move21): LearnableBias()
      (binary_pw): Conv2d(512, 512, kernel_size=(1, 1), stride=(1, 1), bias=False)
      (bn2): BatchNorm2d(512, eps=1e-05, momentum=0.1, affine=True, track_running_stats=True)
      (move22): LearnableBias()
      (prelu2): PReLU(num_parameters=512)
      (move23): LearnableBias()
      (binary_activation): BinaryActivation()
    )
    (12): BasicBlock(
      (move11): LearnableBias()
      (binary_3x3): Conv2d(512, 512, kernel_size=(3, 3), stride=(2, 2), padding=(1, 1), bias=False)
      (bn1): BatchNorm2d(512, eps=1e-05, momentum=0.1, affine=True, track_running_stats=True)
      (move12): LearnableBias()
      (prelu1): PReLU(num_parameters=512)
      (move13): LearnableBias()
      (move21): LearnableBias()
      (binary_pw_down1): Conv2d(512, 512, kernel_size=(1, 1), stride=(1, 1), bias=False)
      (binary_pw_down2): Conv2d(512, 512, kernel_size=(1, 1), stride=(1, 1), bias=False)
      (bn2_1): BatchNorm2d(512, eps=1e-05, momentum=0.1, affine=True, track_running_stats=True)
      (bn2_2): BatchNorm2d(512, eps=1e-05, momentum=0.1, affine=True, track_running_stats=True)
      (move22): LearnableBias()
      (prelu2): PReLU(num_parameters=1024)
      (move23): LearnableBias()
      (binary_activation): BinaryActivation()
      (pooling): AvgPool2d(kernel_size=2, stride=2, padding=0)
    )
    (13): BasicBlock(
      (move11): LearnableBias()
      (binary_3x3): Conv2d(1024, 1024, kernel_size=(3, 3), stride=(1, 1), padding=(1, 1), bias=False)
      (bn1): BatchNorm2d(1024, eps=1e-05, momentum=0.1, affine=True, track_running_stats=True)
      (move12): LearnableBias()
      (prelu1): PReLU(num_parameters=1024)
      (move13): LearnableBias()
      (move21): LearnableBias()
      (binary_pw): Conv2d(1024, 1024, kernel_size=(1, 1), stride=(1, 1), bias=False)
      (bn2): BatchNorm2d(1024, eps=1e-05, momentum=0.1, affine=True, track_running_stats=True)
      (move22): LearnableBias()
      (prelu2): PReLU(num_parameters=1024)
      (move23): LearnableBias()
      (binary_activation): BinaryActivation()
    )
  )
  (pool1): AdaptiveAvgPool2d(output_size=1)
  (fc): Linear(in_features=1024, out_features=10, bias=True)
)
2020-12-20 20:57:12,881 args = Namespace(batch_size=256, data='/datasets/imagenet', epochs=256, label_smooth=0.1, learning_rate=0.0005, momentum=0.9, save='./models', teacher='resnet34', weight_decay=1e-05, workers=4)
2020-12-20 20:57:14,412 student:
2020-12-20 20:57:14,412 reactnet(
  (feature): ModuleList(
    (0): firstconv3x3(
      (conv1): Conv2d(3, 32, kernel_size=(3, 3), stride=(2, 2), padding=(1, 1), bias=False)
      (bn1): BatchNorm2d(32, eps=1e-05, momentum=0.1, affine=True, track_running_stats=True)
    )
    (1): BasicBlock(
      (move11): LearnableBias()
      (binary_3x3): Conv2d(32, 32, kernel_size=(3, 3), stride=(1, 1), padding=(1, 1), bias=False)
      (bn1): BatchNorm2d(32, eps=1e-05, momentum=0.1, affine=True, track_running_stats=True)
      (move12): LearnableBias()
      (prelu1): PReLU(num_parameters=32)
      (move13): LearnableBias()
      (move21): LearnableBias()
      (binary_pw_down1): Conv2d(32, 32, kernel_size=(1, 1), stride=(1, 1), bias=False)
      (binary_pw_down2): Conv2d(32, 32, kernel_size=(1, 1), stride=(1, 1), bias=False)
      (bn2_1): BatchNorm2d(32, eps=1e-05, momentum=0.1, affine=True, track_running_stats=True)
      (bn2_2): BatchNorm2d(32, eps=1e-05, momentum=0.1, affine=True, track_running_stats=True)
      (move22): LearnableBias()
      (prelu2): PReLU(num_parameters=64)
      (move23): LearnableBias()
      (binary_activation): BinaryActivation()
      (pooling): AvgPool2d(kernel_size=2, stride=2, padding=0)
    )
    (2): BasicBlock(
      (move11): LearnableBias()
      (binary_3x3): Conv2d(64, 64, kernel_size=(3, 3), stride=(2, 2), padding=(1, 1), bias=False)
      (bn1): BatchNorm2d(64, eps=1e-05, momentum=0.1, affine=True, track_running_stats=True)
      (move12): LearnableBias()
      (prelu1): PReLU(num_parameters=64)
      (move13): LearnableBias()
      (move21): LearnableBias()
      (binary_pw_down1): Conv2d(64, 64, kernel_size=(1, 1), stride=(1, 1), bias=False)
      (binary_pw_down2): Conv2d(64, 64, kernel_size=(1, 1), stride=(1, 1), bias=False)
      (bn2_1): BatchNorm2d(64, eps=1e-05, momentum=0.1, affine=True, track_running_stats=True)
      (bn2_2): BatchNorm2d(64, eps=1e-05, momentum=0.1, affine=True, track_running_stats=True)
      (move22): LearnableBias()
      (prelu2): PReLU(num_parameters=128)
      (move23): LearnableBias()
      (binary_activation): BinaryActivation()
      (pooling): AvgPool2d(kernel_size=2, stride=2, padding=0)
    )
    (3): BasicBlock(
      (move11): LearnableBias()
      (binary_3x3): Conv2d(128, 128, kernel_size=(3, 3), stride=(1, 1), padding=(1, 1), bias=False)
      (bn1): BatchNorm2d(128, eps=1e-05, momentum=0.1, affine=True, track_running_stats=True)
      (move12): LearnableBias()
      (prelu1): PReLU(num_parameters=128)
      (move13): LearnableBias()
      (move21): LearnableBias()
      (binary_pw): Conv2d(128, 128, kernel_size=(1, 1), stride=(1, 1), bias=False)
      (bn2): BatchNorm2d(128, eps=1e-05, momentum=0.1, affine=True, track_running_stats=True)
      (move22): LearnableBias()
      (prelu2): PReLU(num_parameters=128)
      (move23): LearnableBias()
      (binary_activation): BinaryActivation()
    )
    (4): BasicBlock(
      (move11): LearnableBias()
      (binary_3x3): Conv2d(128, 128, kernel_size=(3, 3), stride=(2, 2), padding=(1, 1), bias=False)
      (bn1): BatchNorm2d(128, eps=1e-05, momentum=0.1, affine=True, track_running_stats=True)
      (move12): LearnableBias()
      (prelu1): PReLU(num_parameters=128)
      (move13): LearnableBias()
      (move21): LearnableBias()
      (binary_pw_down1): Conv2d(128, 128, kernel_size=(1, 1), stride=(1, 1), bias=False)
      (binary_pw_down2): Conv2d(128, 128, kernel_size=(1, 1), stride=(1, 1), bias=False)
      (bn2_1): BatchNorm2d(128, eps=1e-05, momentum=0.1, affine=True, track_running_stats=True)
      (bn2_2): BatchNorm2d(128, eps=1e-05, momentum=0.1, affine=True, track_running_stats=True)
      (move22): LearnableBias()
      (prelu2): PReLU(num_parameters=256)
      (move23): LearnableBias()
      (binary_activation): BinaryActivation()
      (pooling): AvgPool2d(kernel_size=2, stride=2, padding=0)
    )
    (5): BasicBlock(
      (move11): LearnableBias()
      (binary_3x3): Conv2d(256, 256, kernel_size=(3, 3), stride=(1, 1), padding=(1, 1), bias=False)
      (bn1): BatchNorm2d(256, eps=1e-05, momentum=0.1, affine=True, track_running_stats=True)
      (move12): LearnableBias()
      (prelu1): PReLU(num_parameters=256)
      (move13): LearnableBias()
      (move21): LearnableBias()
      (binary_pw): Conv2d(256, 256, kernel_size=(1, 1), stride=(1, 1), bias=False)
      (bn2): BatchNorm2d(256, eps=1e-05, momentum=0.1, affine=True, track_running_stats=True)
      (move22): LearnableBias()
      (prelu2): PReLU(num_parameters=256)
      (move23): LearnableBias()
      (binary_activation): BinaryActivation()
    )
    (6): BasicBlock(
      (move11): LearnableBias()
      (binary_3x3): Conv2d(256, 256, kernel_size=(3, 3), stride=(2, 2), padding=(1, 1), bias=False)
      (bn1): BatchNorm2d(256, eps=1e-05, momentum=0.1, affine=True, track_running_stats=True)
      (move12): LearnableBias()
      (prelu1): PReLU(num_parameters=256)
      (move13): LearnableBias()
      (move21): LearnableBias()
      (binary_pw_down1): Conv2d(256, 256, kernel_size=(1, 1), stride=(1, 1), bias=False)
      (binary_pw_down2): Conv2d(256, 256, kernel_size=(1, 1), stride=(1, 1), bias=False)
      (bn2_1): BatchNorm2d(256, eps=1e-05, momentum=0.1, affine=True, track_running_stats=True)
      (bn2_2): BatchNorm2d(256, eps=1e-05, momentum=0.1, affine=True, track_running_stats=True)
      (move22): LearnableBias()
      (prelu2): PReLU(num_parameters=512)
      (move23): LearnableBias()
      (binary_activation): BinaryActivation()
      (pooling): AvgPool2d(kernel_size=2, stride=2, padding=0)
    )
    (7): BasicBlock(
      (move11): LearnableBias()
      (binary_3x3): Conv2d(512, 512, kernel_size=(3, 3), stride=(1, 1), padding=(1, 1), bias=False)
      (bn1): BatchNorm2d(512, eps=1e-05, momentum=0.1, affine=True, track_running_stats=True)
      (move12): LearnableBias()
      (prelu1): PReLU(num_parameters=512)
      (move13): LearnableBias()
      (move21): LearnableBias()
      (binary_pw): Conv2d(512, 512, kernel_size=(1, 1), stride=(1, 1), bias=False)
      (bn2): BatchNorm2d(512, eps=1e-05, momentum=0.1, affine=True, track_running_stats=True)
      (move22): LearnableBias()
      (prelu2): PReLU(num_parameters=512)
      (move23): LearnableBias()
      (binary_activation): BinaryActivation()
    )
    (8): BasicBlock(
      (move11): LearnableBias()
      (binary_3x3): Conv2d(512, 512, kernel_size=(3, 3), stride=(1, 1), padding=(1, 1), bias=False)
      (bn1): BatchNorm2d(512, eps=1e-05, momentum=0.1, affine=True, track_running_stats=True)
      (move12): LearnableBias()
      (prelu1): PReLU(num_parameters=512)
      (move13): LearnableBias()
      (move21): LearnableBias()
      (binary_pw): Conv2d(512, 512, kernel_size=(1, 1), stride=(1, 1), bias=False)
      (bn2): BatchNorm2d(512, eps=1e-05, momentum=0.1, affine=True, track_running_stats=True)
      (move22): LearnableBias()
      (prelu2): PReLU(num_parameters=512)
      (move23): LearnableBias()
      (binary_activation): BinaryActivation()
    )
    (9): BasicBlock(
      (move11): LearnableBias()
      (binary_3x3): Conv2d(512, 512, kernel_size=(3, 3), stride=(1, 1), padding=(1, 1), bias=False)
      (bn1): BatchNorm2d(512, eps=1e-05, momentum=0.1, affine=True, track_running_stats=True)
      (move12): LearnableBias()
      (prelu1): PReLU(num_parameters=512)
      (move13): LearnableBias()
      (move21): LearnableBias()
      (binary_pw): Conv2d(512, 512, kernel_size=(1, 1), stride=(1, 1), bias=False)
      (bn2): BatchNorm2d(512, eps=1e-05, momentum=0.1, affine=True, track_running_stats=True)
      (move22): LearnableBias()
      (prelu2): PReLU(num_parameters=512)
      (move23): LearnableBias()
      (binary_activation): BinaryActivation()
    )
    (10): BasicBlock(
      (move11): LearnableBias()
      (binary_3x3): Conv2d(512, 512, kernel_size=(3, 3), stride=(1, 1), padding=(1, 1), bias=False)
      (bn1): BatchNorm2d(512, eps=1e-05, momentum=0.1, affine=True, track_running_stats=True)
      (move12): LearnableBias()
      (prelu1): PReLU(num_parameters=512)
      (move13): LearnableBias()
      (move21): LearnableBias()
      (binary_pw): Conv2d(512, 512, kernel_size=(1, 1), stride=(1, 1), bias=False)
      (bn2): BatchNorm2d(512, eps=1e-05, momentum=0.1, affine=True, track_running_stats=True)
      (move22): LearnableBias()
      (prelu2): PReLU(num_parameters=512)
      (move23): LearnableBias()
      (binary_activation): BinaryActivation()
    )
    (11): BasicBlock(
      (move11): LearnableBias()
      (binary_3x3): Conv2d(512, 512, kernel_size=(3, 3), stride=(1, 1), padding=(1, 1), bias=False)
      (bn1): BatchNorm2d(512, eps=1e-05, momentum=0.1, affine=True, track_running_stats=True)
      (move12): LearnableBias()
      (prelu1): PReLU(num_parameters=512)
      (move13): LearnableBias()
      (move21): LearnableBias()
      (binary_pw): Conv2d(512, 512, kernel_size=(1, 1), stride=(1, 1), bias=False)
      (bn2): BatchNorm2d(512, eps=1e-05, momentum=0.1, affine=True, track_running_stats=True)
      (move22): LearnableBias()
      (prelu2): PReLU(num_parameters=512)
      (move23): LearnableBias()
      (binary_activation): BinaryActivation()
    )
    (12): BasicBlock(
      (move11): LearnableBias()
      (binary_3x3): Conv2d(512, 512, kernel_size=(3, 3), stride=(2, 2), padding=(1, 1), bias=False)
      (bn1): BatchNorm2d(512, eps=1e-05, momentum=0.1, affine=True, track_running_stats=True)
      (move12): LearnableBias()
      (prelu1): PReLU(num_parameters=512)
      (move13): LearnableBias()
      (move21): LearnableBias()
      (binary_pw_down1): Conv2d(512, 512, kernel_size=(1, 1), stride=(1, 1), bias=False)
      (binary_pw_down2): Conv2d(512, 512, kernel_size=(1, 1), stride=(1, 1), bias=False)
      (bn2_1): BatchNorm2d(512, eps=1e-05, momentum=0.1, affine=True, track_running_stats=True)
      (bn2_2): BatchNorm2d(512, eps=1e-05, momentum=0.1, affine=True, track_running_stats=True)
      (move22): LearnableBias()
      (prelu2): PReLU(num_parameters=1024)
      (move23): LearnableBias()
      (binary_activation): BinaryActivation()
      (pooling): AvgPool2d(kernel_size=2, stride=2, padding=0)
    )
    (13): BasicBlock(
      (move11): LearnableBias()
      (binary_3x3): Conv2d(1024, 1024, kernel_size=(3, 3), stride=(1, 1), padding=(1, 1), bias=False)
      (bn1): BatchNorm2d(1024, eps=1e-05, momentum=0.1, affine=True, track_running_stats=True)
      (move12): LearnableBias()
      (prelu1): PReLU(num_parameters=1024)
      (move13): LearnableBias()
      (move21): LearnableBias()
      (binary_pw): Conv2d(1024, 1024, kernel_size=(1, 1), stride=(1, 1), bias=False)
      (bn2): BatchNorm2d(1024, eps=1e-05, momentum=0.1, affine=True, track_running_stats=True)
      (move22): LearnableBias()
      (prelu2): PReLU(num_parameters=1024)
      (move23): LearnableBias()
      (binary_activation): BinaryActivation()
    )
  )
  (pool1): AdaptiveAvgPool2d(output_size=1)
  (fc): Linear(in_features=1024, out_features=10, bias=True)
)
2020-12-20 20:57:14,490 loading checkpoint ./models\checkpoint.pth.tar ..........
2020-12-20 20:57:14,781 loaded checkpoint ./models\checkpoint.pth.tar epoch = 43
2020-12-20 21:04:36,096 args = Namespace(batch_size=256, data='/datasets/imagenet', epochs=256, label_smooth=0.1, learning_rate=0.0005, momentum=0.9, save='./models', teacher='resnet34', weight_decay=1e-05, workers=4)
2020-12-20 21:04:37,666 student:
2020-12-20 21:04:37,666 reactnet(
  (feature): ModuleList(
    (0): firstconv3x3(
      (conv1): Conv2d(3, 32, kernel_size=(3, 3), stride=(2, 2), padding=(1, 1), bias=False)
      (bn1): BatchNorm2d(32, eps=1e-05, momentum=0.1, affine=True, track_running_stats=True)
    )
    (1): BasicBlock(
      (move11): LearnableBias()
      (binary_3x3): Conv2d(32, 32, kernel_size=(3, 3), stride=(1, 1), padding=(1, 1), bias=False)
      (bn1): BatchNorm2d(32, eps=1e-05, momentum=0.1, affine=True, track_running_stats=True)
      (move12): LearnableBias()
      (prelu1): PReLU(num_parameters=32)
      (move13): LearnableBias()
      (move21): LearnableBias()
      (binary_pw_down1): Conv2d(32, 32, kernel_size=(1, 1), stride=(1, 1), bias=False)
      (binary_pw_down2): Conv2d(32, 32, kernel_size=(1, 1), stride=(1, 1), bias=False)
      (bn2_1): BatchNorm2d(32, eps=1e-05, momentum=0.1, affine=True, track_running_stats=True)
      (bn2_2): BatchNorm2d(32, eps=1e-05, momentum=0.1, affine=True, track_running_stats=True)
      (move22): LearnableBias()
      (prelu2): PReLU(num_parameters=64)
      (move23): LearnableBias()
      (binary_activation): BinaryActivation()
      (pooling): AvgPool2d(kernel_size=2, stride=2, padding=0)
    )
    (2): BasicBlock(
      (move11): LearnableBias()
      (binary_3x3): Conv2d(64, 64, kernel_size=(3, 3), stride=(2, 2), padding=(1, 1), bias=False)
      (bn1): BatchNorm2d(64, eps=1e-05, momentum=0.1, affine=True, track_running_stats=True)
      (move12): LearnableBias()
      (prelu1): PReLU(num_parameters=64)
      (move13): LearnableBias()
      (move21): LearnableBias()
      (binary_pw_down1): Conv2d(64, 64, kernel_size=(1, 1), stride=(1, 1), bias=False)
      (binary_pw_down2): Conv2d(64, 64, kernel_size=(1, 1), stride=(1, 1), bias=False)
      (bn2_1): BatchNorm2d(64, eps=1e-05, momentum=0.1, affine=True, track_running_stats=True)
      (bn2_2): BatchNorm2d(64, eps=1e-05, momentum=0.1, affine=True, track_running_stats=True)
      (move22): LearnableBias()
      (prelu2): PReLU(num_parameters=128)
      (move23): LearnableBias()
      (binary_activation): BinaryActivation()
      (pooling): AvgPool2d(kernel_size=2, stride=2, padding=0)
    )
    (3): BasicBlock(
      (move11): LearnableBias()
      (binary_3x3): Conv2d(128, 128, kernel_size=(3, 3), stride=(1, 1), padding=(1, 1), bias=False)
      (bn1): BatchNorm2d(128, eps=1e-05, momentum=0.1, affine=True, track_running_stats=True)
      (move12): LearnableBias()
      (prelu1): PReLU(num_parameters=128)
      (move13): LearnableBias()
      (move21): LearnableBias()
      (binary_pw): Conv2d(128, 128, kernel_size=(1, 1), stride=(1, 1), bias=False)
      (bn2): BatchNorm2d(128, eps=1e-05, momentum=0.1, affine=True, track_running_stats=True)
      (move22): LearnableBias()
      (prelu2): PReLU(num_parameters=128)
      (move23): LearnableBias()
      (binary_activation): BinaryActivation()
    )
    (4): BasicBlock(
      (move11): LearnableBias()
      (binary_3x3): Conv2d(128, 128, kernel_size=(3, 3), stride=(2, 2), padding=(1, 1), bias=False)
      (bn1): BatchNorm2d(128, eps=1e-05, momentum=0.1, affine=True, track_running_stats=True)
      (move12): LearnableBias()
      (prelu1): PReLU(num_parameters=128)
      (move13): LearnableBias()
      (move21): LearnableBias()
      (binary_pw_down1): Conv2d(128, 128, kernel_size=(1, 1), stride=(1, 1), bias=False)
      (binary_pw_down2): Conv2d(128, 128, kernel_size=(1, 1), stride=(1, 1), bias=False)
      (bn2_1): BatchNorm2d(128, eps=1e-05, momentum=0.1, affine=True, track_running_stats=True)
      (bn2_2): BatchNorm2d(128, eps=1e-05, momentum=0.1, affine=True, track_running_stats=True)
      (move22): LearnableBias()
      (prelu2): PReLU(num_parameters=256)
      (move23): LearnableBias()
      (binary_activation): BinaryActivation()
      (pooling): AvgPool2d(kernel_size=2, stride=2, padding=0)
    )
    (5): BasicBlock(
      (move11): LearnableBias()
      (binary_3x3): Conv2d(256, 256, kernel_size=(3, 3), stride=(1, 1), padding=(1, 1), bias=False)
      (bn1): BatchNorm2d(256, eps=1e-05, momentum=0.1, affine=True, track_running_stats=True)
      (move12): LearnableBias()
      (prelu1): PReLU(num_parameters=256)
      (move13): LearnableBias()
      (move21): LearnableBias()
      (binary_pw): Conv2d(256, 256, kernel_size=(1, 1), stride=(1, 1), bias=False)
      (bn2): BatchNorm2d(256, eps=1e-05, momentum=0.1, affine=True, track_running_stats=True)
      (move22): LearnableBias()
      (prelu2): PReLU(num_parameters=256)
      (move23): LearnableBias()
      (binary_activation): BinaryActivation()
    )
    (6): BasicBlock(
      (move11): LearnableBias()
      (binary_3x3): Conv2d(256, 256, kernel_size=(3, 3), stride=(2, 2), padding=(1, 1), bias=False)
      (bn1): BatchNorm2d(256, eps=1e-05, momentum=0.1, affine=True, track_running_stats=True)
      (move12): LearnableBias()
      (prelu1): PReLU(num_parameters=256)
      (move13): LearnableBias()
      (move21): LearnableBias()
      (binary_pw_down1): Conv2d(256, 256, kernel_size=(1, 1), stride=(1, 1), bias=False)
      (binary_pw_down2): Conv2d(256, 256, kernel_size=(1, 1), stride=(1, 1), bias=False)
      (bn2_1): BatchNorm2d(256, eps=1e-05, momentum=0.1, affine=True, track_running_stats=True)
      (bn2_2): BatchNorm2d(256, eps=1e-05, momentum=0.1, affine=True, track_running_stats=True)
      (move22): LearnableBias()
      (prelu2): PReLU(num_parameters=512)
      (move23): LearnableBias()
      (binary_activation): BinaryActivation()
      (pooling): AvgPool2d(kernel_size=2, stride=2, padding=0)
    )
    (7): BasicBlock(
      (move11): LearnableBias()
      (binary_3x3): Conv2d(512, 512, kernel_size=(3, 3), stride=(1, 1), padding=(1, 1), bias=False)
      (bn1): BatchNorm2d(512, eps=1e-05, momentum=0.1, affine=True, track_running_stats=True)
      (move12): LearnableBias()
      (prelu1): PReLU(num_parameters=512)
      (move13): LearnableBias()
      (move21): LearnableBias()
      (binary_pw): Conv2d(512, 512, kernel_size=(1, 1), stride=(1, 1), bias=False)
      (bn2): BatchNorm2d(512, eps=1e-05, momentum=0.1, affine=True, track_running_stats=True)
      (move22): LearnableBias()
      (prelu2): PReLU(num_parameters=512)
      (move23): LearnableBias()
      (binary_activation): BinaryActivation()
    )
    (8): BasicBlock(
      (move11): LearnableBias()
      (binary_3x3): Conv2d(512, 512, kernel_size=(3, 3), stride=(1, 1), padding=(1, 1), bias=False)
      (bn1): BatchNorm2d(512, eps=1e-05, momentum=0.1, affine=True, track_running_stats=True)
      (move12): LearnableBias()
      (prelu1): PReLU(num_parameters=512)
      (move13): LearnableBias()
      (move21): LearnableBias()
      (binary_pw): Conv2d(512, 512, kernel_size=(1, 1), stride=(1, 1), bias=False)
      (bn2): BatchNorm2d(512, eps=1e-05, momentum=0.1, affine=True, track_running_stats=True)
      (move22): LearnableBias()
      (prelu2): PReLU(num_parameters=512)
      (move23): LearnableBias()
      (binary_activation): BinaryActivation()
    )
    (9): BasicBlock(
      (move11): LearnableBias()
      (binary_3x3): Conv2d(512, 512, kernel_size=(3, 3), stride=(1, 1), padding=(1, 1), bias=False)
      (bn1): BatchNorm2d(512, eps=1e-05, momentum=0.1, affine=True, track_running_stats=True)
      (move12): LearnableBias()
      (prelu1): PReLU(num_parameters=512)
      (move13): LearnableBias()
      (move21): LearnableBias()
      (binary_pw): Conv2d(512, 512, kernel_size=(1, 1), stride=(1, 1), bias=False)
      (bn2): BatchNorm2d(512, eps=1e-05, momentum=0.1, affine=True, track_running_stats=True)
      (move22): LearnableBias()
      (prelu2): PReLU(num_parameters=512)
      (move23): LearnableBias()
      (binary_activation): BinaryActivation()
    )
    (10): BasicBlock(
      (move11): LearnableBias()
      (binary_3x3): Conv2d(512, 512, kernel_size=(3, 3), stride=(1, 1), padding=(1, 1), bias=False)
      (bn1): BatchNorm2d(512, eps=1e-05, momentum=0.1, affine=True, track_running_stats=True)
      (move12): LearnableBias()
      (prelu1): PReLU(num_parameters=512)
      (move13): LearnableBias()
      (move21): LearnableBias()
      (binary_pw): Conv2d(512, 512, kernel_size=(1, 1), stride=(1, 1), bias=False)
      (bn2): BatchNorm2d(512, eps=1e-05, momentum=0.1, affine=True, track_running_stats=True)
      (move22): LearnableBias()
      (prelu2): PReLU(num_parameters=512)
      (move23): LearnableBias()
      (binary_activation): BinaryActivation()
    )
    (11): BasicBlock(
      (move11): LearnableBias()
      (binary_3x3): Conv2d(512, 512, kernel_size=(3, 3), stride=(1, 1), padding=(1, 1), bias=False)
      (bn1): BatchNorm2d(512, eps=1e-05, momentum=0.1, affine=True, track_running_stats=True)
      (move12): LearnableBias()
      (prelu1): PReLU(num_parameters=512)
      (move13): LearnableBias()
      (move21): LearnableBias()
      (binary_pw): Conv2d(512, 512, kernel_size=(1, 1), stride=(1, 1), bias=False)
      (bn2): BatchNorm2d(512, eps=1e-05, momentum=0.1, affine=True, track_running_stats=True)
      (move22): LearnableBias()
      (prelu2): PReLU(num_parameters=512)
      (move23): LearnableBias()
      (binary_activation): BinaryActivation()
    )
    (12): BasicBlock(
      (move11): LearnableBias()
      (binary_3x3): Conv2d(512, 512, kernel_size=(3, 3), stride=(2, 2), padding=(1, 1), bias=False)
      (bn1): BatchNorm2d(512, eps=1e-05, momentum=0.1, affine=True, track_running_stats=True)
      (move12): LearnableBias()
      (prelu1): PReLU(num_parameters=512)
      (move13): LearnableBias()
      (move21): LearnableBias()
      (binary_pw_down1): Conv2d(512, 512, kernel_size=(1, 1), stride=(1, 1), bias=False)
      (binary_pw_down2): Conv2d(512, 512, kernel_size=(1, 1), stride=(1, 1), bias=False)
      (bn2_1): BatchNorm2d(512, eps=1e-05, momentum=0.1, affine=True, track_running_stats=True)
      (bn2_2): BatchNorm2d(512, eps=1e-05, momentum=0.1, affine=True, track_running_stats=True)
      (move22): LearnableBias()
      (prelu2): PReLU(num_parameters=1024)
      (move23): LearnableBias()
      (binary_activation): BinaryActivation()
      (pooling): AvgPool2d(kernel_size=2, stride=2, padding=0)
    )
    (13): BasicBlock(
      (move11): LearnableBias()
      (binary_3x3): Conv2d(1024, 1024, kernel_size=(3, 3), stride=(1, 1), padding=(1, 1), bias=False)
      (bn1): BatchNorm2d(1024, eps=1e-05, momentum=0.1, affine=True, track_running_stats=True)
      (move12): LearnableBias()
      (prelu1): PReLU(num_parameters=1024)
      (move13): LearnableBias()
      (move21): LearnableBias()
      (binary_pw): Conv2d(1024, 1024, kernel_size=(1, 1), stride=(1, 1), bias=False)
      (bn2): BatchNorm2d(1024, eps=1e-05, momentum=0.1, affine=True, track_running_stats=True)
      (move22): LearnableBias()
      (prelu2): PReLU(num_parameters=1024)
      (move23): LearnableBias()
      (binary_activation): BinaryActivation()
    )
  )
  (pool1): AdaptiveAvgPool2d(output_size=1)
  (fc): Linear(in_features=1024, out_features=10, bias=True)
)
2020-12-20 21:04:37,749 loading checkpoint ./models\checkpoint.pth.tar ..........
2020-12-20 21:04:37,871 loaded checkpoint ./models\checkpoint.pth.tar epoch = 44
2020-12-20 21:07:46,674 args = Namespace(batch_size=256, data='/datasets/imagenet', epochs=256, label_smooth=0.1, learning_rate=0.0005, momentum=0.9, save='./models', teacher='resnet34', weight_decay=1e-05, workers=4)
2020-12-20 21:07:48,302 student:
2020-12-20 21:07:48,303 reactnet(
  (feature): ModuleList(
    (0): firstconv3x3(
      (conv1): Conv2d(3, 32, kernel_size=(3, 3), stride=(2, 2), padding=(1, 1), bias=False)
      (bn1): BatchNorm2d(32, eps=1e-05, momentum=0.1, affine=True, track_running_stats=True)
    )
    (1): BasicBlock(
      (move11): LearnableBias()
      (binary_3x3): Conv2d(32, 32, kernel_size=(3, 3), stride=(1, 1), padding=(1, 1), bias=False)
      (bn1): BatchNorm2d(32, eps=1e-05, momentum=0.1, affine=True, track_running_stats=True)
      (move12): LearnableBias()
      (prelu1): PReLU(num_parameters=32)
      (move13): LearnableBias()
      (move21): LearnableBias()
      (binary_pw_down1): Conv2d(32, 32, kernel_size=(1, 1), stride=(1, 1), bias=False)
      (binary_pw_down2): Conv2d(32, 32, kernel_size=(1, 1), stride=(1, 1), bias=False)
      (bn2_1): BatchNorm2d(32, eps=1e-05, momentum=0.1, affine=True, track_running_stats=True)
      (bn2_2): BatchNorm2d(32, eps=1e-05, momentum=0.1, affine=True, track_running_stats=True)
      (move22): LearnableBias()
      (prelu2): PReLU(num_parameters=64)
      (move23): LearnableBias()
      (binary_activation): BinaryActivation()
      (pooling): AvgPool2d(kernel_size=2, stride=2, padding=0)
    )
    (2): BasicBlock(
      (move11): LearnableBias()
      (binary_3x3): Conv2d(64, 64, kernel_size=(3, 3), stride=(2, 2), padding=(1, 1), bias=False)
      (bn1): BatchNorm2d(64, eps=1e-05, momentum=0.1, affine=True, track_running_stats=True)
      (move12): LearnableBias()
      (prelu1): PReLU(num_parameters=64)
      (move13): LearnableBias()
      (move21): LearnableBias()
      (binary_pw_down1): Conv2d(64, 64, kernel_size=(1, 1), stride=(1, 1), bias=False)
      (binary_pw_down2): Conv2d(64, 64, kernel_size=(1, 1), stride=(1, 1), bias=False)
      (bn2_1): BatchNorm2d(64, eps=1e-05, momentum=0.1, affine=True, track_running_stats=True)
      (bn2_2): BatchNorm2d(64, eps=1e-05, momentum=0.1, affine=True, track_running_stats=True)
      (move22): LearnableBias()
      (prelu2): PReLU(num_parameters=128)
      (move23): LearnableBias()
      (binary_activation): BinaryActivation()
      (pooling): AvgPool2d(kernel_size=2, stride=2, padding=0)
    )
    (3): BasicBlock(
      (move11): LearnableBias()
      (binary_3x3): Conv2d(128, 128, kernel_size=(3, 3), stride=(1, 1), padding=(1, 1), bias=False)
      (bn1): BatchNorm2d(128, eps=1e-05, momentum=0.1, affine=True, track_running_stats=True)
      (move12): LearnableBias()
      (prelu1): PReLU(num_parameters=128)
      (move13): LearnableBias()
      (move21): LearnableBias()
      (binary_pw): Conv2d(128, 128, kernel_size=(1, 1), stride=(1, 1), bias=False)
      (bn2): BatchNorm2d(128, eps=1e-05, momentum=0.1, affine=True, track_running_stats=True)
      (move22): LearnableBias()
      (prelu2): PReLU(num_parameters=128)
      (move23): LearnableBias()
      (binary_activation): BinaryActivation()
    )
    (4): BasicBlock(
      (move11): LearnableBias()
      (binary_3x3): Conv2d(128, 128, kernel_size=(3, 3), stride=(2, 2), padding=(1, 1), bias=False)
      (bn1): BatchNorm2d(128, eps=1e-05, momentum=0.1, affine=True, track_running_stats=True)
      (move12): LearnableBias()
      (prelu1): PReLU(num_parameters=128)
      (move13): LearnableBias()
      (move21): LearnableBias()
      (binary_pw_down1): Conv2d(128, 128, kernel_size=(1, 1), stride=(1, 1), bias=False)
      (binary_pw_down2): Conv2d(128, 128, kernel_size=(1, 1), stride=(1, 1), bias=False)
      (bn2_1): BatchNorm2d(128, eps=1e-05, momentum=0.1, affine=True, track_running_stats=True)
      (bn2_2): BatchNorm2d(128, eps=1e-05, momentum=0.1, affine=True, track_running_stats=True)
      (move22): LearnableBias()
      (prelu2): PReLU(num_parameters=256)
      (move23): LearnableBias()
      (binary_activation): BinaryActivation()
      (pooling): AvgPool2d(kernel_size=2, stride=2, padding=0)
    )
    (5): BasicBlock(
      (move11): LearnableBias()
      (binary_3x3): Conv2d(256, 256, kernel_size=(3, 3), stride=(1, 1), padding=(1, 1), bias=False)
      (bn1): BatchNorm2d(256, eps=1e-05, momentum=0.1, affine=True, track_running_stats=True)
      (move12): LearnableBias()
      (prelu1): PReLU(num_parameters=256)
      (move13): LearnableBias()
      (move21): LearnableBias()
      (binary_pw): Conv2d(256, 256, kernel_size=(1, 1), stride=(1, 1), bias=False)
      (bn2): BatchNorm2d(256, eps=1e-05, momentum=0.1, affine=True, track_running_stats=True)
      (move22): LearnableBias()
      (prelu2): PReLU(num_parameters=256)
      (move23): LearnableBias()
      (binary_activation): BinaryActivation()
    )
    (6): BasicBlock(
      (move11): LearnableBias()
      (binary_3x3): Conv2d(256, 256, kernel_size=(3, 3), stride=(2, 2), padding=(1, 1), bias=False)
      (bn1): BatchNorm2d(256, eps=1e-05, momentum=0.1, affine=True, track_running_stats=True)
      (move12): LearnableBias()
      (prelu1): PReLU(num_parameters=256)
      (move13): LearnableBias()
      (move21): LearnableBias()
      (binary_pw_down1): Conv2d(256, 256, kernel_size=(1, 1), stride=(1, 1), bias=False)
      (binary_pw_down2): Conv2d(256, 256, kernel_size=(1, 1), stride=(1, 1), bias=False)
      (bn2_1): BatchNorm2d(256, eps=1e-05, momentum=0.1, affine=True, track_running_stats=True)
      (bn2_2): BatchNorm2d(256, eps=1e-05, momentum=0.1, affine=True, track_running_stats=True)
      (move22): LearnableBias()
      (prelu2): PReLU(num_parameters=512)
      (move23): LearnableBias()
      (binary_activation): BinaryActivation()
      (pooling): AvgPool2d(kernel_size=2, stride=2, padding=0)
    )
    (7): BasicBlock(
      (move11): LearnableBias()
      (binary_3x3): Conv2d(512, 512, kernel_size=(3, 3), stride=(1, 1), padding=(1, 1), bias=False)
      (bn1): BatchNorm2d(512, eps=1e-05, momentum=0.1, affine=True, track_running_stats=True)
      (move12): LearnableBias()
      (prelu1): PReLU(num_parameters=512)
      (move13): LearnableBias()
      (move21): LearnableBias()
      (binary_pw): Conv2d(512, 512, kernel_size=(1, 1), stride=(1, 1), bias=False)
      (bn2): BatchNorm2d(512, eps=1e-05, momentum=0.1, affine=True, track_running_stats=True)
      (move22): LearnableBias()
      (prelu2): PReLU(num_parameters=512)
      (move23): LearnableBias()
      (binary_activation): BinaryActivation()
    )
    (8): BasicBlock(
      (move11): LearnableBias()
      (binary_3x3): Conv2d(512, 512, kernel_size=(3, 3), stride=(1, 1), padding=(1, 1), bias=False)
      (bn1): BatchNorm2d(512, eps=1e-05, momentum=0.1, affine=True, track_running_stats=True)
      (move12): LearnableBias()
      (prelu1): PReLU(num_parameters=512)
      (move13): LearnableBias()
      (move21): LearnableBias()
      (binary_pw): Conv2d(512, 512, kernel_size=(1, 1), stride=(1, 1), bias=False)
      (bn2): BatchNorm2d(512, eps=1e-05, momentum=0.1, affine=True, track_running_stats=True)
      (move22): LearnableBias()
      (prelu2): PReLU(num_parameters=512)
      (move23): LearnableBias()
      (binary_activation): BinaryActivation()
    )
    (9): BasicBlock(
      (move11): LearnableBias()
      (binary_3x3): Conv2d(512, 512, kernel_size=(3, 3), stride=(1, 1), padding=(1, 1), bias=False)
      (bn1): BatchNorm2d(512, eps=1e-05, momentum=0.1, affine=True, track_running_stats=True)
      (move12): LearnableBias()
      (prelu1): PReLU(num_parameters=512)
      (move13): LearnableBias()
      (move21): LearnableBias()
      (binary_pw): Conv2d(512, 512, kernel_size=(1, 1), stride=(1, 1), bias=False)
      (bn2): BatchNorm2d(512, eps=1e-05, momentum=0.1, affine=True, track_running_stats=True)
      (move22): LearnableBias()
      (prelu2): PReLU(num_parameters=512)
      (move23): LearnableBias()
      (binary_activation): BinaryActivation()
    )
    (10): BasicBlock(
      (move11): LearnableBias()
      (binary_3x3): Conv2d(512, 512, kernel_size=(3, 3), stride=(1, 1), padding=(1, 1), bias=False)
      (bn1): BatchNorm2d(512, eps=1e-05, momentum=0.1, affine=True, track_running_stats=True)
      (move12): LearnableBias()
      (prelu1): PReLU(num_parameters=512)
      (move13): LearnableBias()
      (move21): LearnableBias()
      (binary_pw): Conv2d(512, 512, kernel_size=(1, 1), stride=(1, 1), bias=False)
      (bn2): BatchNorm2d(512, eps=1e-05, momentum=0.1, affine=True, track_running_stats=True)
      (move22): LearnableBias()
      (prelu2): PReLU(num_parameters=512)
      (move23): LearnableBias()
      (binary_activation): BinaryActivation()
    )
    (11): BasicBlock(
      (move11): LearnableBias()
      (binary_3x3): Conv2d(512, 512, kernel_size=(3, 3), stride=(1, 1), padding=(1, 1), bias=False)
      (bn1): BatchNorm2d(512, eps=1e-05, momentum=0.1, affine=True, track_running_stats=True)
      (move12): LearnableBias()
      (prelu1): PReLU(num_parameters=512)
      (move13): LearnableBias()
      (move21): LearnableBias()
      (binary_pw): Conv2d(512, 512, kernel_size=(1, 1), stride=(1, 1), bias=False)
      (bn2): BatchNorm2d(512, eps=1e-05, momentum=0.1, affine=True, track_running_stats=True)
      (move22): LearnableBias()
      (prelu2): PReLU(num_parameters=512)
      (move23): LearnableBias()
      (binary_activation): BinaryActivation()
    )
    (12): BasicBlock(
      (move11): LearnableBias()
      (binary_3x3): Conv2d(512, 512, kernel_size=(3, 3), stride=(2, 2), padding=(1, 1), bias=False)
      (bn1): BatchNorm2d(512, eps=1e-05, momentum=0.1, affine=True, track_running_stats=True)
      (move12): LearnableBias()
      (prelu1): PReLU(num_parameters=512)
      (move13): LearnableBias()
      (move21): LearnableBias()
      (binary_pw_down1): Conv2d(512, 512, kernel_size=(1, 1), stride=(1, 1), bias=False)
      (binary_pw_down2): Conv2d(512, 512, kernel_size=(1, 1), stride=(1, 1), bias=False)
      (bn2_1): BatchNorm2d(512, eps=1e-05, momentum=0.1, affine=True, track_running_stats=True)
      (bn2_2): BatchNorm2d(512, eps=1e-05, momentum=0.1, affine=True, track_running_stats=True)
      (move22): LearnableBias()
      (prelu2): PReLU(num_parameters=1024)
      (move23): LearnableBias()
      (binary_activation): BinaryActivation()
      (pooling): AvgPool2d(kernel_size=2, stride=2, padding=0)
    )
    (13): BasicBlock(
      (move11): LearnableBias()
      (binary_3x3): Conv2d(1024, 1024, kernel_size=(3, 3), stride=(1, 1), padding=(1, 1), bias=False)
      (bn1): BatchNorm2d(1024, eps=1e-05, momentum=0.1, affine=True, track_running_stats=True)
      (move12): LearnableBias()
      (prelu1): PReLU(num_parameters=1024)
      (move13): LearnableBias()
      (move21): LearnableBias()
      (binary_pw): Conv2d(1024, 1024, kernel_size=(1, 1), stride=(1, 1), bias=False)
      (bn2): BatchNorm2d(1024, eps=1e-05, momentum=0.1, affine=True, track_running_stats=True)
      (move22): LearnableBias()
      (prelu2): PReLU(num_parameters=1024)
      (move23): LearnableBias()
      (binary_activation): BinaryActivation()
    )
  )
  (pool1): AdaptiveAvgPool2d(output_size=1)
  (fc): Linear(in_features=1024, out_features=10, bias=True)
)
2020-12-20 21:07:48,380 loading checkpoint ./models\checkpoint.pth.tar ..........
2020-12-20 21:07:48,697 loaded checkpoint ./models\checkpoint.pth.tar epoch = 45
2020-12-20 21:09:58,587 args = Namespace(batch_size=256, data='/datasets/imagenet', epochs=256, label_smooth=0.1, learning_rate=0.0005, momentum=0.9, save='./models', teacher='resnet34', weight_decay=1e-05, workers=4)
2020-12-20 21:10:00,489 student:
2020-12-20 21:10:00,489 reactnet(
  (feature): ModuleList(
    (0): firstconv3x3(
      (conv1): Conv2d(3, 32, kernel_size=(3, 3), stride=(2, 2), padding=(1, 1), bias=False)
      (bn1): BatchNorm2d(32, eps=1e-05, momentum=0.1, affine=True, track_running_stats=True)
    )
    (1): BasicBlock(
      (move11): LearnableBias()
      (binary_3x3): Conv2d(32, 32, kernel_size=(3, 3), stride=(1, 1), padding=(1, 1), bias=False)
      (bn1): BatchNorm2d(32, eps=1e-05, momentum=0.1, affine=True, track_running_stats=True)
      (move12): LearnableBias()
      (prelu1): PReLU(num_parameters=32)
      (move13): LearnableBias()
      (move21): LearnableBias()
      (binary_pw_down1): Conv2d(32, 32, kernel_size=(1, 1), stride=(1, 1), bias=False)
      (binary_pw_down2): Conv2d(32, 32, kernel_size=(1, 1), stride=(1, 1), bias=False)
      (bn2_1): BatchNorm2d(32, eps=1e-05, momentum=0.1, affine=True, track_running_stats=True)
      (bn2_2): BatchNorm2d(32, eps=1e-05, momentum=0.1, affine=True, track_running_stats=True)
      (move22): LearnableBias()
      (prelu2): PReLU(num_parameters=64)
      (move23): LearnableBias()
      (binary_activation): BinaryActivation()
      (pooling): AvgPool2d(kernel_size=2, stride=2, padding=0)
    )
    (2): BasicBlock(
      (move11): LearnableBias()
      (binary_3x3): Conv2d(64, 64, kernel_size=(3, 3), stride=(2, 2), padding=(1, 1), bias=False)
      (bn1): BatchNorm2d(64, eps=1e-05, momentum=0.1, affine=True, track_running_stats=True)
      (move12): LearnableBias()
      (prelu1): PReLU(num_parameters=64)
      (move13): LearnableBias()
      (move21): LearnableBias()
      (binary_pw_down1): Conv2d(64, 64, kernel_size=(1, 1), stride=(1, 1), bias=False)
      (binary_pw_down2): Conv2d(64, 64, kernel_size=(1, 1), stride=(1, 1), bias=False)
      (bn2_1): BatchNorm2d(64, eps=1e-05, momentum=0.1, affine=True, track_running_stats=True)
      (bn2_2): BatchNorm2d(64, eps=1e-05, momentum=0.1, affine=True, track_running_stats=True)
      (move22): LearnableBias()
      (prelu2): PReLU(num_parameters=128)
      (move23): LearnableBias()
      (binary_activation): BinaryActivation()
      (pooling): AvgPool2d(kernel_size=2, stride=2, padding=0)
    )
    (3): BasicBlock(
      (move11): LearnableBias()
      (binary_3x3): Conv2d(128, 128, kernel_size=(3, 3), stride=(1, 1), padding=(1, 1), bias=False)
      (bn1): BatchNorm2d(128, eps=1e-05, momentum=0.1, affine=True, track_running_stats=True)
      (move12): LearnableBias()
      (prelu1): PReLU(num_parameters=128)
      (move13): LearnableBias()
      (move21): LearnableBias()
      (binary_pw): Conv2d(128, 128, kernel_size=(1, 1), stride=(1, 1), bias=False)
      (bn2): BatchNorm2d(128, eps=1e-05, momentum=0.1, affine=True, track_running_stats=True)
      (move22): LearnableBias()
      (prelu2): PReLU(num_parameters=128)
      (move23): LearnableBias()
      (binary_activation): BinaryActivation()
    )
    (4): BasicBlock(
      (move11): LearnableBias()
      (binary_3x3): Conv2d(128, 128, kernel_size=(3, 3), stride=(2, 2), padding=(1, 1), bias=False)
      (bn1): BatchNorm2d(128, eps=1e-05, momentum=0.1, affine=True, track_running_stats=True)
      (move12): LearnableBias()
      (prelu1): PReLU(num_parameters=128)
      (move13): LearnableBias()
      (move21): LearnableBias()
      (binary_pw_down1): Conv2d(128, 128, kernel_size=(1, 1), stride=(1, 1), bias=False)
      (binary_pw_down2): Conv2d(128, 128, kernel_size=(1, 1), stride=(1, 1), bias=False)
      (bn2_1): BatchNorm2d(128, eps=1e-05, momentum=0.1, affine=True, track_running_stats=True)
      (bn2_2): BatchNorm2d(128, eps=1e-05, momentum=0.1, affine=True, track_running_stats=True)
      (move22): LearnableBias()
      (prelu2): PReLU(num_parameters=256)
      (move23): LearnableBias()
      (binary_activation): BinaryActivation()
      (pooling): AvgPool2d(kernel_size=2, stride=2, padding=0)
    )
    (5): BasicBlock(
      (move11): LearnableBias()
      (binary_3x3): Conv2d(256, 256, kernel_size=(3, 3), stride=(1, 1), padding=(1, 1), bias=False)
      (bn1): BatchNorm2d(256, eps=1e-05, momentum=0.1, affine=True, track_running_stats=True)
      (move12): LearnableBias()
      (prelu1): PReLU(num_parameters=256)
      (move13): LearnableBias()
      (move21): LearnableBias()
      (binary_pw): Conv2d(256, 256, kernel_size=(1, 1), stride=(1, 1), bias=False)
      (bn2): BatchNorm2d(256, eps=1e-05, momentum=0.1, affine=True, track_running_stats=True)
      (move22): LearnableBias()
      (prelu2): PReLU(num_parameters=256)
      (move23): LearnableBias()
      (binary_activation): BinaryActivation()
    )
    (6): BasicBlock(
      (move11): LearnableBias()
      (binary_3x3): Conv2d(256, 256, kernel_size=(3, 3), stride=(2, 2), padding=(1, 1), bias=False)
      (bn1): BatchNorm2d(256, eps=1e-05, momentum=0.1, affine=True, track_running_stats=True)
      (move12): LearnableBias()
      (prelu1): PReLU(num_parameters=256)
      (move13): LearnableBias()
      (move21): LearnableBias()
      (binary_pw_down1): Conv2d(256, 256, kernel_size=(1, 1), stride=(1, 1), bias=False)
      (binary_pw_down2): Conv2d(256, 256, kernel_size=(1, 1), stride=(1, 1), bias=False)
      (bn2_1): BatchNorm2d(256, eps=1e-05, momentum=0.1, affine=True, track_running_stats=True)
      (bn2_2): BatchNorm2d(256, eps=1e-05, momentum=0.1, affine=True, track_running_stats=True)
      (move22): LearnableBias()
      (prelu2): PReLU(num_parameters=512)
      (move23): LearnableBias()
      (binary_activation): BinaryActivation()
      (pooling): AvgPool2d(kernel_size=2, stride=2, padding=0)
    )
    (7): BasicBlock(
      (move11): LearnableBias()
      (binary_3x3): Conv2d(512, 512, kernel_size=(3, 3), stride=(1, 1), padding=(1, 1), bias=False)
      (bn1): BatchNorm2d(512, eps=1e-05, momentum=0.1, affine=True, track_running_stats=True)
      (move12): LearnableBias()
      (prelu1): PReLU(num_parameters=512)
      (move13): LearnableBias()
      (move21): LearnableBias()
      (binary_pw): Conv2d(512, 512, kernel_size=(1, 1), stride=(1, 1), bias=False)
      (bn2): BatchNorm2d(512, eps=1e-05, momentum=0.1, affine=True, track_running_stats=True)
      (move22): LearnableBias()
      (prelu2): PReLU(num_parameters=512)
      (move23): LearnableBias()
      (binary_activation): BinaryActivation()
    )
    (8): BasicBlock(
      (move11): LearnableBias()
      (binary_3x3): Conv2d(512, 512, kernel_size=(3, 3), stride=(1, 1), padding=(1, 1), bias=False)
      (bn1): BatchNorm2d(512, eps=1e-05, momentum=0.1, affine=True, track_running_stats=True)
      (move12): LearnableBias()
      (prelu1): PReLU(num_parameters=512)
      (move13): LearnableBias()
      (move21): LearnableBias()
      (binary_pw): Conv2d(512, 512, kernel_size=(1, 1), stride=(1, 1), bias=False)
      (bn2): BatchNorm2d(512, eps=1e-05, momentum=0.1, affine=True, track_running_stats=True)
      (move22): LearnableBias()
      (prelu2): PReLU(num_parameters=512)
      (move23): LearnableBias()
      (binary_activation): BinaryActivation()
    )
    (9): BasicBlock(
      (move11): LearnableBias()
      (binary_3x3): Conv2d(512, 512, kernel_size=(3, 3), stride=(1, 1), padding=(1, 1), bias=False)
      (bn1): BatchNorm2d(512, eps=1e-05, momentum=0.1, affine=True, track_running_stats=True)
      (move12): LearnableBias()
      (prelu1): PReLU(num_parameters=512)
      (move13): LearnableBias()
      (move21): LearnableBias()
      (binary_pw): Conv2d(512, 512, kernel_size=(1, 1), stride=(1, 1), bias=False)
      (bn2): BatchNorm2d(512, eps=1e-05, momentum=0.1, affine=True, track_running_stats=True)
      (move22): LearnableBias()
      (prelu2): PReLU(num_parameters=512)
      (move23): LearnableBias()
      (binary_activation): BinaryActivation()
    )
    (10): BasicBlock(
      (move11): LearnableBias()
      (binary_3x3): Conv2d(512, 512, kernel_size=(3, 3), stride=(1, 1), padding=(1, 1), bias=False)
      (bn1): BatchNorm2d(512, eps=1e-05, momentum=0.1, affine=True, track_running_stats=True)
      (move12): LearnableBias()
      (prelu1): PReLU(num_parameters=512)
      (move13): LearnableBias()
      (move21): LearnableBias()
      (binary_pw): Conv2d(512, 512, kernel_size=(1, 1), stride=(1, 1), bias=False)
      (bn2): BatchNorm2d(512, eps=1e-05, momentum=0.1, affine=True, track_running_stats=True)
      (move22): LearnableBias()
      (prelu2): PReLU(num_parameters=512)
      (move23): LearnableBias()
      (binary_activation): BinaryActivation()
    )
    (11): BasicBlock(
      (move11): LearnableBias()
      (binary_3x3): Conv2d(512, 512, kernel_size=(3, 3), stride=(1, 1), padding=(1, 1), bias=False)
      (bn1): BatchNorm2d(512, eps=1e-05, momentum=0.1, affine=True, track_running_stats=True)
      (move12): LearnableBias()
      (prelu1): PReLU(num_parameters=512)
      (move13): LearnableBias()
      (move21): LearnableBias()
      (binary_pw): Conv2d(512, 512, kernel_size=(1, 1), stride=(1, 1), bias=False)
      (bn2): BatchNorm2d(512, eps=1e-05, momentum=0.1, affine=True, track_running_stats=True)
      (move22): LearnableBias()
      (prelu2): PReLU(num_parameters=512)
      (move23): LearnableBias()
      (binary_activation): BinaryActivation()
    )
    (12): BasicBlock(
      (move11): LearnableBias()
      (binary_3x3): Conv2d(512, 512, kernel_size=(3, 3), stride=(2, 2), padding=(1, 1), bias=False)
      (bn1): BatchNorm2d(512, eps=1e-05, momentum=0.1, affine=True, track_running_stats=True)
      (move12): LearnableBias()
      (prelu1): PReLU(num_parameters=512)
      (move13): LearnableBias()
      (move21): LearnableBias()
      (binary_pw_down1): Conv2d(512, 512, kernel_size=(1, 1), stride=(1, 1), bias=False)
      (binary_pw_down2): Conv2d(512, 512, kernel_size=(1, 1), stride=(1, 1), bias=False)
      (bn2_1): BatchNorm2d(512, eps=1e-05, momentum=0.1, affine=True, track_running_stats=True)
      (bn2_2): BatchNorm2d(512, eps=1e-05, momentum=0.1, affine=True, track_running_stats=True)
      (move22): LearnableBias()
      (prelu2): PReLU(num_parameters=1024)
      (move23): LearnableBias()
      (binary_activation): BinaryActivation()
      (pooling): AvgPool2d(kernel_size=2, stride=2, padding=0)
    )
    (13): BasicBlock(
      (move11): LearnableBias()
      (binary_3x3): Conv2d(1024, 1024, kernel_size=(3, 3), stride=(1, 1), padding=(1, 1), bias=False)
      (bn1): BatchNorm2d(1024, eps=1e-05, momentum=0.1, affine=True, track_running_stats=True)
      (move12): LearnableBias()
      (prelu1): PReLU(num_parameters=1024)
      (move13): LearnableBias()
      (move21): LearnableBias()
      (binary_pw): Conv2d(1024, 1024, kernel_size=(1, 1), stride=(1, 1), bias=False)
      (bn2): BatchNorm2d(1024, eps=1e-05, momentum=0.1, affine=True, track_running_stats=True)
      (move22): LearnableBias()
      (prelu2): PReLU(num_parameters=1024)
      (move23): LearnableBias()
      (binary_activation): BinaryActivation()
    )
  )
  (pool1): AdaptiveAvgPool2d(output_size=1)
  (fc): Linear(in_features=1024, out_features=10, bias=True)
)
2020-12-20 21:10:00,569 loading checkpoint ./models\checkpoint.pth.tar ..........
2020-12-20 21:10:00,869 loaded checkpoint ./models\checkpoint.pth.tar epoch = 46
2020-12-20 21:21:48,744 args = Namespace(batch_size=256, data='/datasets/imagenet', epochs=256, label_smooth=0.1, learning_rate=0.0005, momentum=0.9, save='./models', teacher='resnet34', weight_decay=1e-05, workers=4)
2020-12-20 21:21:50,342 student:
2020-12-20 21:21:50,343 reactnet(
  (feature): ModuleList(
    (0): firstconv3x3(
      (conv1): Conv2d(3, 32, kernel_size=(3, 3), stride=(2, 2), padding=(1, 1), bias=False)
      (bn1): BatchNorm2d(32, eps=1e-05, momentum=0.1, affine=True, track_running_stats=True)
    )
    (1): BasicBlock(
      (move11): LearnableBias()
      (binary_3x3): Conv2d(32, 32, kernel_size=(3, 3), stride=(1, 1), padding=(1, 1), bias=False)
      (bn1): BatchNorm2d(32, eps=1e-05, momentum=0.1, affine=True, track_running_stats=True)
      (move12): LearnableBias()
      (prelu1): PReLU(num_parameters=32)
      (move13): LearnableBias()
      (move21): LearnableBias()
      (binary_pw_down1): Conv2d(32, 32, kernel_size=(1, 1), stride=(1, 1), bias=False)
      (binary_pw_down2): Conv2d(32, 32, kernel_size=(1, 1), stride=(1, 1), bias=False)
      (bn2_1): BatchNorm2d(32, eps=1e-05, momentum=0.1, affine=True, track_running_stats=True)
      (bn2_2): BatchNorm2d(32, eps=1e-05, momentum=0.1, affine=True, track_running_stats=True)
      (move22): LearnableBias()
      (prelu2): PReLU(num_parameters=64)
      (move23): LearnableBias()
      (binary_activation): BinaryActivation()
      (pooling): AvgPool2d(kernel_size=2, stride=2, padding=0)
    )
    (2): BasicBlock(
      (move11): LearnableBias()
      (binary_3x3): Conv2d(64, 64, kernel_size=(3, 3), stride=(2, 2), padding=(1, 1), bias=False)
      (bn1): BatchNorm2d(64, eps=1e-05, momentum=0.1, affine=True, track_running_stats=True)
      (move12): LearnableBias()
      (prelu1): PReLU(num_parameters=64)
      (move13): LearnableBias()
      (move21): LearnableBias()
      (binary_pw_down1): Conv2d(64, 64, kernel_size=(1, 1), stride=(1, 1), bias=False)
      (binary_pw_down2): Conv2d(64, 64, kernel_size=(1, 1), stride=(1, 1), bias=False)
      (bn2_1): BatchNorm2d(64, eps=1e-05, momentum=0.1, affine=True, track_running_stats=True)
      (bn2_2): BatchNorm2d(64, eps=1e-05, momentum=0.1, affine=True, track_running_stats=True)
      (move22): LearnableBias()
      (prelu2): PReLU(num_parameters=128)
      (move23): LearnableBias()
      (binary_activation): BinaryActivation()
      (pooling): AvgPool2d(kernel_size=2, stride=2, padding=0)
    )
    (3): BasicBlock(
      (move11): LearnableBias()
      (binary_3x3): Conv2d(128, 128, kernel_size=(3, 3), stride=(1, 1), padding=(1, 1), bias=False)
      (bn1): BatchNorm2d(128, eps=1e-05, momentum=0.1, affine=True, track_running_stats=True)
      (move12): LearnableBias()
      (prelu1): PReLU(num_parameters=128)
      (move13): LearnableBias()
      (move21): LearnableBias()
      (binary_pw): Conv2d(128, 128, kernel_size=(1, 1), stride=(1, 1), bias=False)
      (bn2): BatchNorm2d(128, eps=1e-05, momentum=0.1, affine=True, track_running_stats=True)
      (move22): LearnableBias()
      (prelu2): PReLU(num_parameters=128)
      (move23): LearnableBias()
      (binary_activation): BinaryActivation()
    )
    (4): BasicBlock(
      (move11): LearnableBias()
      (binary_3x3): Conv2d(128, 128, kernel_size=(3, 3), stride=(2, 2), padding=(1, 1), bias=False)
      (bn1): BatchNorm2d(128, eps=1e-05, momentum=0.1, affine=True, track_running_stats=True)
      (move12): LearnableBias()
      (prelu1): PReLU(num_parameters=128)
      (move13): LearnableBias()
      (move21): LearnableBias()
      (binary_pw_down1): Conv2d(128, 128, kernel_size=(1, 1), stride=(1, 1), bias=False)
      (binary_pw_down2): Conv2d(128, 128, kernel_size=(1, 1), stride=(1, 1), bias=False)
      (bn2_1): BatchNorm2d(128, eps=1e-05, momentum=0.1, affine=True, track_running_stats=True)
      (bn2_2): BatchNorm2d(128, eps=1e-05, momentum=0.1, affine=True, track_running_stats=True)
      (move22): LearnableBias()
      (prelu2): PReLU(num_parameters=256)
      (move23): LearnableBias()
      (binary_activation): BinaryActivation()
      (pooling): AvgPool2d(kernel_size=2, stride=2, padding=0)
    )
    (5): BasicBlock(
      (move11): LearnableBias()
      (binary_3x3): Conv2d(256, 256, kernel_size=(3, 3), stride=(1, 1), padding=(1, 1), bias=False)
      (bn1): BatchNorm2d(256, eps=1e-05, momentum=0.1, affine=True, track_running_stats=True)
      (move12): LearnableBias()
      (prelu1): PReLU(num_parameters=256)
      (move13): LearnableBias()
      (move21): LearnableBias()
      (binary_pw): Conv2d(256, 256, kernel_size=(1, 1), stride=(1, 1), bias=False)
      (bn2): BatchNorm2d(256, eps=1e-05, momentum=0.1, affine=True, track_running_stats=True)
      (move22): LearnableBias()
      (prelu2): PReLU(num_parameters=256)
      (move23): LearnableBias()
      (binary_activation): BinaryActivation()
    )
    (6): BasicBlock(
      (move11): LearnableBias()
      (binary_3x3): Conv2d(256, 256, kernel_size=(3, 3), stride=(2, 2), padding=(1, 1), bias=False)
      (bn1): BatchNorm2d(256, eps=1e-05, momentum=0.1, affine=True, track_running_stats=True)
      (move12): LearnableBias()
      (prelu1): PReLU(num_parameters=256)
      (move13): LearnableBias()
      (move21): LearnableBias()
      (binary_pw_down1): Conv2d(256, 256, kernel_size=(1, 1), stride=(1, 1), bias=False)
      (binary_pw_down2): Conv2d(256, 256, kernel_size=(1, 1), stride=(1, 1), bias=False)
      (bn2_1): BatchNorm2d(256, eps=1e-05, momentum=0.1, affine=True, track_running_stats=True)
      (bn2_2): BatchNorm2d(256, eps=1e-05, momentum=0.1, affine=True, track_running_stats=True)
      (move22): LearnableBias()
      (prelu2): PReLU(num_parameters=512)
      (move23): LearnableBias()
      (binary_activation): BinaryActivation()
      (pooling): AvgPool2d(kernel_size=2, stride=2, padding=0)
    )
    (7): BasicBlock(
      (move11): LearnableBias()
      (binary_3x3): Conv2d(512, 512, kernel_size=(3, 3), stride=(1, 1), padding=(1, 1), bias=False)
      (bn1): BatchNorm2d(512, eps=1e-05, momentum=0.1, affine=True, track_running_stats=True)
      (move12): LearnableBias()
      (prelu1): PReLU(num_parameters=512)
      (move13): LearnableBias()
      (move21): LearnableBias()
      (binary_pw): Conv2d(512, 512, kernel_size=(1, 1), stride=(1, 1), bias=False)
      (bn2): BatchNorm2d(512, eps=1e-05, momentum=0.1, affine=True, track_running_stats=True)
      (move22): LearnableBias()
      (prelu2): PReLU(num_parameters=512)
      (move23): LearnableBias()
      (binary_activation): BinaryActivation()
    )
    (8): BasicBlock(
      (move11): LearnableBias()
      (binary_3x3): Conv2d(512, 512, kernel_size=(3, 3), stride=(1, 1), padding=(1, 1), bias=False)
      (bn1): BatchNorm2d(512, eps=1e-05, momentum=0.1, affine=True, track_running_stats=True)
      (move12): LearnableBias()
      (prelu1): PReLU(num_parameters=512)
      (move13): LearnableBias()
      (move21): LearnableBias()
      (binary_pw): Conv2d(512, 512, kernel_size=(1, 1), stride=(1, 1), bias=False)
      (bn2): BatchNorm2d(512, eps=1e-05, momentum=0.1, affine=True, track_running_stats=True)
      (move22): LearnableBias()
      (prelu2): PReLU(num_parameters=512)
      (move23): LearnableBias()
      (binary_activation): BinaryActivation()
    )
    (9): BasicBlock(
      (move11): LearnableBias()
      (binary_3x3): Conv2d(512, 512, kernel_size=(3, 3), stride=(1, 1), padding=(1, 1), bias=False)
      (bn1): BatchNorm2d(512, eps=1e-05, momentum=0.1, affine=True, track_running_stats=True)
      (move12): LearnableBias()
      (prelu1): PReLU(num_parameters=512)
      (move13): LearnableBias()
      (move21): LearnableBias()
      (binary_pw): Conv2d(512, 512, kernel_size=(1, 1), stride=(1, 1), bias=False)
      (bn2): BatchNorm2d(512, eps=1e-05, momentum=0.1, affine=True, track_running_stats=True)
      (move22): LearnableBias()
      (prelu2): PReLU(num_parameters=512)
      (move23): LearnableBias()
      (binary_activation): BinaryActivation()
    )
    (10): BasicBlock(
      (move11): LearnableBias()
      (binary_3x3): Conv2d(512, 512, kernel_size=(3, 3), stride=(1, 1), padding=(1, 1), bias=False)
      (bn1): BatchNorm2d(512, eps=1e-05, momentum=0.1, affine=True, track_running_stats=True)
      (move12): LearnableBias()
      (prelu1): PReLU(num_parameters=512)
      (move13): LearnableBias()
      (move21): LearnableBias()
      (binary_pw): Conv2d(512, 512, kernel_size=(1, 1), stride=(1, 1), bias=False)
      (bn2): BatchNorm2d(512, eps=1e-05, momentum=0.1, affine=True, track_running_stats=True)
      (move22): LearnableBias()
      (prelu2): PReLU(num_parameters=512)
      (move23): LearnableBias()
      (binary_activation): BinaryActivation()
    )
    (11): BasicBlock(
      (move11): LearnableBias()
      (binary_3x3): Conv2d(512, 512, kernel_size=(3, 3), stride=(1, 1), padding=(1, 1), bias=False)
      (bn1): BatchNorm2d(512, eps=1e-05, momentum=0.1, affine=True, track_running_stats=True)
      (move12): LearnableBias()
      (prelu1): PReLU(num_parameters=512)
      (move13): LearnableBias()
      (move21): LearnableBias()
      (binary_pw): Conv2d(512, 512, kernel_size=(1, 1), stride=(1, 1), bias=False)
      (bn2): BatchNorm2d(512, eps=1e-05, momentum=0.1, affine=True, track_running_stats=True)
      (move22): LearnableBias()
      (prelu2): PReLU(num_parameters=512)
      (move23): LearnableBias()
      (binary_activation): BinaryActivation()
    )
    (12): BasicBlock(
      (move11): LearnableBias()
      (binary_3x3): Conv2d(512, 512, kernel_size=(3, 3), stride=(2, 2), padding=(1, 1), bias=False)
      (bn1): BatchNorm2d(512, eps=1e-05, momentum=0.1, affine=True, track_running_stats=True)
      (move12): LearnableBias()
      (prelu1): PReLU(num_parameters=512)
      (move13): LearnableBias()
      (move21): LearnableBias()
      (binary_pw_down1): Conv2d(512, 512, kernel_size=(1, 1), stride=(1, 1), bias=False)
      (binary_pw_down2): Conv2d(512, 512, kernel_size=(1, 1), stride=(1, 1), bias=False)
      (bn2_1): BatchNorm2d(512, eps=1e-05, momentum=0.1, affine=True, track_running_stats=True)
      (bn2_2): BatchNorm2d(512, eps=1e-05, momentum=0.1, affine=True, track_running_stats=True)
      (move22): LearnableBias()
      (prelu2): PReLU(num_parameters=1024)
      (move23): LearnableBias()
      (binary_activation): BinaryActivation()
      (pooling): AvgPool2d(kernel_size=2, stride=2, padding=0)
    )
    (13): BasicBlock(
      (move11): LearnableBias()
      (binary_3x3): Conv2d(1024, 1024, kernel_size=(3, 3), stride=(1, 1), padding=(1, 1), bias=False)
      (bn1): BatchNorm2d(1024, eps=1e-05, momentum=0.1, affine=True, track_running_stats=True)
      (move12): LearnableBias()
      (prelu1): PReLU(num_parameters=1024)
      (move13): LearnableBias()
      (move21): LearnableBias()
      (binary_pw): Conv2d(1024, 1024, kernel_size=(1, 1), stride=(1, 1), bias=False)
      (bn2): BatchNorm2d(1024, eps=1e-05, momentum=0.1, affine=True, track_running_stats=True)
      (move22): LearnableBias()
      (prelu2): PReLU(num_parameters=1024)
      (move23): LearnableBias()
      (binary_activation): BinaryActivation()
    )
  )
  (pool1): AdaptiveAvgPool2d(output_size=1)
  (fc): Linear(in_features=1024, out_features=10, bias=True)
)
2020-12-20 21:21:50,421 loading checkpoint ./models\checkpoint.pth.tar ..........
2020-12-20 21:21:50,710 loaded checkpoint ./models\checkpoint.pth.tar epoch = 52
2020-12-20 21:33:43,788 args = Namespace(batch_size=256, data='/datasets/imagenet', epochs=256, label_smooth=0.1, learning_rate=0.005, momentum=0.9, save='./models', teacher='resnet34', weight_decay=1e-05, workers=4)
2020-12-20 21:33:45,258 student:
2020-12-20 21:33:45,259 reactnet(
  (feature): ModuleList(
    (0): firstconv3x3(
      (conv1): Conv2d(3, 8, kernel_size=(3, 3), stride=(2, 2), padding=(1, 1), bias=False)
      (bn1): BatchNorm2d(8, eps=1e-05, momentum=0.1, affine=True, track_running_stats=True)
    )
    (1): BasicBlock(
      (move11): LearnableBias()
      (binary_3x3): Conv2d(8, 8, kernel_size=(3, 3), stride=(1, 1), padding=(1, 1), bias=False)
      (bn1): BatchNorm2d(8, eps=1e-05, momentum=0.1, affine=True, track_running_stats=True)
      (move12): LearnableBias()
      (prelu1): PReLU(num_parameters=8)
      (move13): LearnableBias()
      (move21): LearnableBias()
      (binary_pw_down1): Conv2d(8, 8, kernel_size=(1, 1), stride=(1, 1), bias=False)
      (binary_pw_down2): Conv2d(8, 8, kernel_size=(1, 1), stride=(1, 1), bias=False)
      (bn2_1): BatchNorm2d(8, eps=1e-05, momentum=0.1, affine=True, track_running_stats=True)
      (bn2_2): BatchNorm2d(8, eps=1e-05, momentum=0.1, affine=True, track_running_stats=True)
      (move22): LearnableBias()
      (prelu2): PReLU(num_parameters=16)
      (move23): LearnableBias()
      (binary_activation): BinaryActivation()
      (pooling): AvgPool2d(kernel_size=2, stride=2, padding=0)
    )
    (2): BasicBlock(
      (move11): LearnableBias()
      (binary_3x3): Conv2d(16, 16, kernel_size=(3, 3), stride=(2, 2), padding=(1, 1), bias=False)
      (bn1): BatchNorm2d(16, eps=1e-05, momentum=0.1, affine=True, track_running_stats=True)
      (move12): LearnableBias()
      (prelu1): PReLU(num_parameters=16)
      (move13): LearnableBias()
      (move21): LearnableBias()
      (binary_pw_down1): Conv2d(16, 16, kernel_size=(1, 1), stride=(1, 1), bias=False)
      (binary_pw_down2): Conv2d(16, 16, kernel_size=(1, 1), stride=(1, 1), bias=False)
      (bn2_1): BatchNorm2d(16, eps=1e-05, momentum=0.1, affine=True, track_running_stats=True)
      (bn2_2): BatchNorm2d(16, eps=1e-05, momentum=0.1, affine=True, track_running_stats=True)
      (move22): LearnableBias()
…
      (bn1): BatchNorm2d(64, eps=1e-05, momentum=0.1, affine=True, track_running_stats=True)
      (conv2): Conv2d(64, 64, kernel_size=(3, 3), stride=(1, 1), padding=(1, 1), bias=False)
      (bn2): BatchNorm2d(64, eps=1e-05, momentum=0.1, affine=True, track_running_stats=True)
      (shortcut): LambdaLayer()
    )
    (1): BasicBlock(
      (conv1): Conv2d(64, 64, kernel_size=(3, 3), stride=(1, 1), padding=(1, 1), bias=False)
      (bn1): BatchNorm2d(64, eps=1e-05, momentum=0.1, affine=True, track_running_stats=True)
      (conv2): Conv2d(64, 64, kernel_size=(3, 3), stride=(1, 1), padding=(1, 1), bias=False)
      (bn2): BatchNorm2d(64, eps=1e-05, momentum=0.1, affine=True, track_running_stats=True)
      (shortcut): Sequential()
    )
    (2): BasicBlock(
      (conv1): Conv2d(64, 64, kernel_size=(3, 3), stride=(1, 1), padding=(1, 1), bias=False)
      (bn1): BatchNorm2d(64, eps=1e-05, momentum=0.1, affine=True, track_running_stats=True)
      (conv2): Conv2d(64, 64, kernel_size=(3, 3), stride=(1, 1), padding=(1, 1), bias=False)
      (bn2): BatchNorm2d(64, eps=1e-05, momentum=0.1, affine=True, track_running_stats=True)
      (shortcut): Sequential()
    )
    (3): BasicBlock(
      (conv1): Conv2d(64, 64, kernel_size=(3, 3), stride=(1, 1), padding=(1, 1), bias=False)
      (bn1): BatchNorm2d(64, eps=1e-05, momentum=0.1, affine=True, track_running_stats=True)
      (conv2): Conv2d(64, 64, kernel_size=(3, 3), stride=(1, 1), padding=(1, 1), bias=False)
      (bn2): BatchNorm2d(64, eps=1e-05, momentum=0.1, affine=True, track_running_stats=True)
      (shortcut): Sequential()
    )
    (4): BasicBlock(
      (conv1): Conv2d(64, 64, kernel_size=(3, 3), stride=(1, 1), padding=(1, 1), bias=False)
      (bn1): BatchNorm2d(64, eps=1e-05, momentum=0.1, affine=True, track_running_stats=True)
      (conv2): Conv2d(64, 64, kernel_size=(3, 3), stride=(1, 1), padding=(1, 1), bias=False)
      (bn2): BatchNorm2d(64, eps=1e-05, momentum=0.1, affine=True, track_running_stats=True)
      (shortcut): Sequential()
    )
  )
  (linear): Linear(in_features=64, out_features=10, bias=True)
)
2020-12-22 17:06:20,980 args = Namespace(batch_size=128, beta=1.0, cutmix_prob=1.0, data='/datasets/imagenet', epochs=60, label_smooth=0.1, learning_rate=0.01, momentum=0.9, save='./models_cutmix', teacher='resnet34', weight_decay=1e-05, workers=4)
2020-12-22 17:06:22,467 student:
2020-12-22 17:06:22,467 reactnet(
  (feature): ModuleList(
    (0): firstconv3x3(
      (conv1): Conv2d(3, 16, kernel_size=(3, 3), stride=(1, 1), padding=(1, 1), bias=False)
      (bn1): BatchNorm2d(16, eps=1e-05, momentum=0.1, affine=True, track_running_stats=True)
    )
    (1): BasicBlock(
      (move11): LearnableBias()
      (binary_3x3): Conv2d(16, 16, kernel_size=(3, 3), stride=(1, 1), padding=(1, 1), bias=False)
      (bn1): BatchNorm2d(16, eps=1e-05, momentum=0.1, affine=True, track_running_stats=True)
      (move12): LearnableBias()
      (prelu1): PReLU(num_parameters=16)
      (move13): LearnableBias()
      (move21): LearnableBias()
      (binary_pw_down1): Conv2d(16, 16, kernel_size=(1, 1), stride=(1, 1), bias=False)
      (binary_pw_down2): Conv2d(16, 16, kernel_size=(1, 1), stride=(1, 1), bias=False)
      (bn2_1): BatchNorm2d(16, eps=1e-05, momentum=0.1, affine=True, track_running_stats=True)
      (bn2_2): BatchNorm2d(16, eps=1e-05, momentum=0.1, affine=True, track_running_stats=True)
      (move22): LearnableBias()
      (prelu2): PReLU(num_parameters=32)
      (move23): LearnableBias()
      (binary_activation): BinaryActivation()
      (pooling): AvgPool2d(kernel_size=2, stride=2, padding=0)
    )
    (2): BasicBlock(
      (move11): LearnableBias()
      (binary_3x3): Conv2d(32, 32, kernel_size=(3, 3), stride=(2, 2), padding=(1, 1), bias=False)
      (bn1): BatchNorm2d(32, eps=1e-05, momentum=0.1, affine=True, track_running_stats=True)
      (move12): LearnableBias()
      (prelu1): PReLU(num_parameters=32)
      (move13): LearnableBias()
      (move21): LearnableBias()
      (binary_pw_down1): Conv2d(32, 32, kernel_size=(1, 1), stride=(1, 1), bias=False)
      (binary_pw_down2): Conv2d(32, 32, kernel_size=(1, 1), stride=(1, 1), bias=False)
      (bn2_1): BatchNorm2d(32, eps=1e-05, momentum=0.1, affine=True, track_running_stats=True)
      (bn2_2): BatchNorm2d(32, eps=1e-05, momentum=0.1, affine=True, track_running_stats=True)
      (move22): LearnableBias()
      (prelu2): PReLU(num_parameters=64)
      (move23): LearnableBias()
      (binary_activation): BinaryActivation()
      (pooling): AvgPool2d(kernel_size=2, stride=2, padding=0)
    )
    (3): BasicBlock(
      (move11): LearnableBias()
      (binary_3x3): Conv2d(64, 64, kernel_size=(3, 3), stride=(1, 1), padding=(1, 1), bias=False)
      (bn1): BatchNorm2d(64, eps=1e-05, momentum=0.1, affine=True, track_running_stats=True)
      (move12): LearnableBias()
      (prelu1): PReLU(num_parameters=64)
      (move13): LearnableBias()
      (move21): LearnableBias()
      (binary_pw): Conv2d(64, 64, kernel_size=(1, 1), stride=(1, 1), bias=False)
      (bn2): BatchNorm2d(64, eps=1e-05, momentum=0.1, affine=True, track_running_stats=True)
      (move22): LearnableBias()
      (prelu2): PReLU(num_parameters=64)
      (move23): LearnableBias()
      (binary_activation): BinaryActivation()
    )
    (4): BasicBlock(
      (move11): LearnableBias()
      (binary_3x3): Conv2d(64, 64, kernel_size=(3, 3), stride=(2, 2), padding=(1, 1), bias=False)
      (bn1): BatchNorm2d(64, eps=1e-05, momentum=0.1, affine=True, track_running_stats=True)
      (move12): LearnableBias()
      (prelu1): PReLU(num_parameters=64)
      (move13): LearnableBias()
      (move21): LearnableBias()
      (binary_pw_down1): Conv2d(64, 64, kernel_size=(1, 1), stride=(1, 1), bias=False)
      (binary_pw_down2): Conv2d(64, 64, kernel_size=(1, 1), stride=(1, 1), bias=False)
      (bn2_1): BatchNorm2d(64, eps=1e-05, momentum=0.1, affine=True, track_running_stats=True)
      (bn2_2): BatchNorm2d(64, eps=1e-05, momentum=0.1, affine=True, track_running_stats=True)
      (move22): LearnableBias()
      (prelu2): PReLU(num_parameters=128)
      (move23): LearnableBias()
      (binary_activation): BinaryActivation()
      (pooling): AvgPool2d(kernel_size=2, stride=2, padding=0)
    )
    (5): BasicBlock(
      (move11): LearnableBias()
      (binary_3x3): Conv2d(128, 128, kernel_size=(3, 3), stride=(1, 1), padding=(1, 1), bias=False)
      (bn1): BatchNorm2d(128, eps=1e-05, momentum=0.1, affine=True, track_running_stats=True)
      (move12): LearnableBias()
      (prelu1): PReLU(num_parameters=128)
      (move13): LearnableBias()
      (move21): LearnableBias()
      (binary_pw): Conv2d(128, 128, kernel_size=(1, 1), stride=(1, 1), bias=False)
      (bn2): BatchNorm2d(128, eps=1e-05, momentum=0.1, affine=True, track_running_stats=True)
      (move22): LearnableBias()
      (prelu2): PReLU(num_parameters=128)
      (move23): LearnableBias()
      (binary_activation): BinaryActivation()
    )
    (6): BasicBlock(
      (move11): LearnableBias()
      (binary_3x3): Conv2d(128, 128, kernel_size=(3, 3), stride=(1, 1), padding=(1, 1), bias=False)
      (bn1): BatchNorm2d(128, eps=1e-05, momentum=0.1, affine=True, track_running_stats=True)
      (move12): LearnableBias()
      (prelu1): PReLU(num_parameters=128)
      (move13): LearnableBias()
      (move21): LearnableBias()
      (binary_pw): Conv2d(128, 128, kernel_size=(1, 1), stride=(1, 1), bias=False)
      (bn2): BatchNorm2d(128, eps=1e-05, momentum=0.1, affine=True, track_running_stats=True)
      (move22): LearnableBias()
      (prelu2): PReLU(num_parameters=128)
      (move23): LearnableBias()
      (binary_activation): BinaryActivation()
    )
    (7): BasicBlock(
      (move11): LearnableBias()
      (binary_3x3): Conv2d(128, 128, kernel_size=(3, 3), stride=(1, 1), padding=(1, 1), bias=False)
      (bn1): BatchNorm2d(128, eps=1e-05, momentum=0.1, affine=True, track_running_stats=True)
      (move12): LearnableBias()
      (prelu1): PReLU(num_parameters=128)
      (move13): LearnableBias()
      (move21): LearnableBias()
      (binary_pw): Conv2d(128, 128, kernel_size=(1, 1), stride=(1, 1), bias=False)
      (bn2): BatchNorm2d(128, eps=1e-05, momentum=0.1, affine=True, track_running_stats=True)
      (move22): LearnableBias()
      (prelu2): PReLU(num_parameters=128)
      (move23): LearnableBias()
      (binary_activation): BinaryActivation()
    )
    (8): BasicBlock(
      (move11): LearnableBias()
      (binary_3x3): Conv2d(128, 128, kernel_size=(3, 3), stride=(1, 1), padding=(1, 1), bias=False)
      (bn1): BatchNorm2d(128, eps=1e-05, momentum=0.1, affine=True, track_running_stats=True)
      (move12): LearnableBias()
      (prelu1): PReLU(num_parameters=128)
      (move13): LearnableBias()
      (move21): LearnableBias()
      (binary_pw): Conv2d(128, 128, kernel_size=(1, 1), stride=(1, 1), bias=False)
      (bn2): BatchNorm2d(128, eps=1e-05, momentum=0.1, affine=True, track_running_stats=True)
      (move22): LearnableBias()
      (prelu2): PReLU(num_parameters=128)
      (move23): LearnableBias()
      (binary_activation): BinaryActivation()
    )
    (9): BasicBlock(
      (move11): LearnableBias()
      (binary_3x3): Conv2d(128, 128, kernel_size=(3, 3), stride=(1, 1), padding=(1, 1), bias=False)
      (bn1): BatchNorm2d(128, eps=1e-05, momentum=0.1, affine=True, track_running_stats=True)
      (move12): LearnableBias()
      (prelu1): PReLU(num_parameters=128)
      (move13): LearnableBias()
      (move21): LearnableBias()
      (binary_pw): Conv2d(128, 128, kernel_size=(1, 1), stride=(1, 1), bias=False)
      (bn2): BatchNorm2d(128, eps=1e-05, momentum=0.1, affine=True, track_running_stats=True)
      (move22): LearnableBias()
      (prelu2): PReLU(num_parameters=128)
      (move23): LearnableBias()
      (binary_activation): BinaryActivation()
    )
    (10): BasicBlock(
      (move11): LearnableBias()
      (binary_3x3): Conv2d(128, 128, kernel_size=(3, 3), stride=(2, 2), padding=(1, 1), bias=False)
      (bn1): BatchNorm2d(128, eps=1e-05, momentum=0.1, affine=True, track_running_stats=True)
      (move12): LearnableBias()
      (prelu1): PReLU(num_parameters=128)
      (move13): LearnableBias()
      (move21): LearnableBias()
      (binary_pw_down1): Conv2d(128, 128, kernel_size=(1, 1), stride=(1, 1), bias=False)
      (binary_pw_down2): Conv2d(128, 128, kernel_size=(1, 1), stride=(1, 1), bias=False)
      (bn2_1): BatchNorm2d(128, eps=1e-05, momentum=0.1, affine=True, track_running_stats=True)
      (bn2_2): BatchNorm2d(128, eps=1e-05, momentum=0.1, affine=True, track_running_stats=True)
      (move22): LearnableBias()
      (prelu2): PReLU(num_parameters=256)
      (move23): LearnableBias()
      (binary_activation): BinaryActivation()
      (pooling): AvgPool2d(kernel_size=2, stride=2, padding=0)
    )
    (11): BasicBlock(
      (move11): LearnableBias()
      (binary_3x3): Conv2d(256, 256, kernel_size=(3, 3), stride=(1, 1), padding=(1, 1), bias=False)
      (bn1): BatchNorm2d(256, eps=1e-05, momentum=0.1, affine=True, track_running_stats=True)
      (move12): LearnableBias()
      (prelu1): PReLU(num_parameters=256)
      (move13): LearnableBias()
      (move21): LearnableBias()
      (binary_pw): Conv2d(256, 256, kernel_size=(1, 1), stride=(1, 1), bias=False)
      (bn2): BatchNorm2d(256, eps=1e-05, momentum=0.1, affine=True, track_running_stats=True)
      (move22): LearnableBias()
      (prelu2): PReLU(num_parameters=256)
      (move23): LearnableBias()
      (binary_activation): BinaryActivation()
    )
  )
  (pool1): AdaptiveAvgPool2d(output_size=1)
  (fc): Linear(in_features=256, out_features=10, bias=True)
)
2020-12-22 20:14:13,744 args = Namespace(batch_size=128, data='/datasets/imagenet', epochs=60, label_smooth=0.1, learning_rate=0.01, momentum=0.9, save='./models', teacher='resnet34', weight_decay=1e-05, workers=4)
2020-12-22 20:14:15,253 student:
2020-12-22 20:14:15,254 reactnet(
  (feature): ModuleList(
    (0): firstconv3x3(
      (conv1): Conv2d(3, 16, kernel_size=(3, 3), stride=(1, 1), padding=(1, 1), bias=False)
      (bn1): BatchNorm2d(16, eps=1e-05, momentum=0.1, affine=True, track_running_stats=True)
    )
    (1): BasicBlock(
      (move11): LearnableBias()
      (binary_3x3): Conv2d(16, 16, kernel_size=(3, 3), stride=(1, 1), padding=(1, 1), bias=False)
      (bn1): BatchNorm2d(16, eps=1e-05, momentum=0.1, affine=True, track_running_stats=True)
      (move12): LearnableBias()
      (prelu1): PReLU(num_parameters=16)
      (move13): LearnableBias()
      (move21): LearnableBias()
      (binary_pw_down1): Conv2d(16, 16, kernel_size=(1, 1), stride=(1, 1), bias=False)
      (binary_pw_down2): Conv2d(16, 16, kernel_size=(1, 1), stride=(1, 1), bias=False)
      (bn2_1): BatchNorm2d(16, eps=1e-05, momentum=0.1, affine=True, track_running_stats=True)
      (bn2_2): BatchNorm2d(16, eps=1e-05, momentum=0.1, affine=True, track_running_stats=True)
      (move22): LearnableBias()
      (prelu2): PReLU(num_parameters=32)
      (move23): LearnableBias()
      (binary_activation): BinaryActivation()
      (pooling): AvgPool2d(kernel_size=2, stride=2, padding=0)
    )
    (2): BasicBlock(
      (move11): LearnableBias()
      (binary_3x3): Conv2d(32, 32, kernel_size=(3, 3), stride=(2, 2), padding=(1, 1), bias=False)
      (bn1): BatchNorm2d(32, eps=1e-05, momentum=0.1, affine=True, track_running_stats=True)
      (move12): LearnableBias()
      (prelu1): PReLU(num_parameters=32)
      (move13): LearnableBias()
      (move21): LearnableBias()
      (binary_pw_down1): Conv2d(32, 32, kernel_size=(1, 1), stride=(1, 1), bias=False)
      (binary_pw_down2): Conv2d(32, 32, kernel_size=(1, 1), stride=(1, 1), bias=False)
      (bn2_1): BatchNorm2d(32, eps=1e-05, momentum=0.1, affine=True, track_running_stats=True)
      (bn2_2): BatchNorm2d(32, eps=1e-05, momentum=0.1, affine=True, track_running_stats=True)
      (move22): LearnableBias()
      (prelu2): PReLU(num_parameters=64)
      (move23): LearnableBias()
      (binary_activation): BinaryActivation()
      (pooling): AvgPool2d(kernel_size=2, stride=2, padding=0)
    )
    (3): BasicBlock(
      (move11): LearnableBias()
      (binary_3x3): Conv2d(64, 64, kernel_size=(3, 3), stride=(1, 1), padding=(1, 1), bias=False)
      (bn1): BatchNorm2d(64, eps=1e-05, momentum=0.1, affine=True, track_running_stats=True)
      (move12): LearnableBias()
      (prelu1): PReLU(num_parameters=64)
      (move13): LearnableBias()
      (move21): LearnableBias()
      (binary_pw): Conv2d(64, 64, kernel_size=(1, 1), stride=(1, 1), bias=False)
      (bn2): BatchNorm2d(64, eps=1e-05, momentum=0.1, affine=True, track_running_stats=True)
      (move22): LearnableBias()
      (prelu2): PReLU(num_parameters=64)
      (move23): LearnableBias()
      (binary_activation): BinaryActivation()
    )
    (4): BasicBlock(
      (move11): LearnableBias()
      (binary_3x3): Conv2d(64, 64, kernel_size=(3, 3), stride=(2, 2), padding=(1, 1), bias=False)
      (bn1): BatchNorm2d(64, eps=1e-05, momentum=0.1, affine=True, track_running_stats=True)
      (move12): LearnableBias()
      (prelu1): PReLU(num_parameters=64)
      (move13): LearnableBias()
      (move21): LearnableBias()
      (binary_pw_down1): Conv2d(64, 64, kernel_size=(1, 1), stride=(1, 1), bias=False)
      (binary_pw_down2): Conv2d(64, 64, kernel_size=(1, 1), stride=(1, 1), bias=False)
      (bn2_1): BatchNorm2d(64, eps=1e-05, momentum=0.1, affine=True, track_running_stats=True)
      (bn2_2): BatchNorm2d(64, eps=1e-05, momentum=0.1, affine=True, track_running_stats=True)
      (move22): LearnableBias()
      (prelu2): PReLU(num_parameters=128)
      (move23): LearnableBias()
      (binary_activation): BinaryActivation()
      (pooling): AvgPool2d(kernel_size=2, stride=2, padding=0)
    )
    (5): BasicBlock(
      (move11): LearnableBias()
      (binary_3x3): Conv2d(128, 128, kernel_size=(3, 3), stride=(1, 1), padding=(1, 1), bias=False)
      (bn1): BatchNorm2d(128, eps=1e-05, momentum=0.1, affine=True, track_running_stats=True)
      (move12): LearnableBias()
      (prelu1): PReLU(num_parameters=128)
      (move13): LearnableBias()
      (move21): LearnableBias()
      (binary_pw): Conv2d(128, 128, kernel_size=(1, 1), stride=(1, 1), bias=False)
      (bn2): BatchNorm2d(128, eps=1e-05, momentum=0.1, affine=True, track_running_stats=True)
      (move22): LearnableBias()
      (prelu2): PReLU(num_parameters=128)
      (move23): LearnableBias()
      (binary_activation): BinaryActivation()
    )
    (6): BasicBlock(
      (move11): LearnableBias()
      (binary_3x3): Conv2d(128, 128, kernel_size=(3, 3), stride=(1, 1), padding=(1, 1), bias=False)
      (bn1): BatchNorm2d(128, eps=1e-05, momentum=0.1, affine=True, track_running_stats=True)
      (move12): LearnableBias()
      (prelu1): PReLU(num_parameters=128)
      (move13): LearnableBias()
      (move21): LearnableBias()
      (binary_pw): Conv2d(128, 128, kernel_size=(1, 1), stride=(1, 1), bias=False)
      (bn2): BatchNorm2d(128, eps=1e-05, momentum=0.1, affine=True, track_running_stats=True)
      (move22): LearnableBias()
      (prelu2): PReLU(num_parameters=128)
      (move23): LearnableBias()
      (binary_activation): BinaryActivation()
    )
    (7): BasicBlock(
      (move11): LearnableBias()
      (binary_3x3): Conv2d(128, 128, kernel_size=(3, 3), stride=(1, 1), padding=(1, 1), bias=False)
      (bn1): BatchNorm2d(128, eps=1e-05, momentum=0.1, affine=True, track_running_stats=True)
      (move12): LearnableBias()
      (prelu1): PReLU(num_parameters=128)
      (move13): LearnableBias()
      (move21): LearnableBias()
      (binary_pw): Conv2d(128, 128, kernel_size=(1, 1), stride=(1, 1), bias=False)
      (bn2): BatchNorm2d(128, eps=1e-05, momentum=0.1, affine=True, track_running_stats=True)
      (move22): LearnableBias()
      (prelu2): PReLU(num_parameters=128)
      (move23): LearnableBias()
      (binary_activation): BinaryActivation()
    )
    (8): BasicBlock(
      (move11): LearnableBias()
      (binary_3x3): Conv2d(128, 128, kernel_size=(3, 3), stride=(1, 1), padding=(1, 1), bias=False)
      (bn1): BatchNorm2d(128, eps=1e-05, momentum=0.1, affine=True, track_running_stats=True)
      (move12): LearnableBias()
      (prelu1): PReLU(num_parameters=128)
      (move13): LearnableBias()
      (move21): LearnableBias()
      (binary_pw): Conv2d(128, 128, kernel_size=(1, 1), stride=(1, 1), bias=False)
      (bn2): BatchNorm2d(128, eps=1e-05, momentum=0.1, affine=True, track_running_stats=True)
      (move22): LearnableBias()
      (prelu2): PReLU(num_parameters=128)
      (move23): LearnableBias()
      (binary_activation): BinaryActivation()
    )
    (9): BasicBlock(
      (move11): LearnableBias()
      (binary_3x3): Conv2d(128, 128, kernel_size=(3, 3), stride=(1, 1), padding=(1, 1), bias=False)
      (bn1): BatchNorm2d(128, eps=1e-05, momentum=0.1, affine=True, track_running_stats=True)
      (move12): LearnableBias()
      (prelu1): PReLU(num_parameters=128)
      (move13): LearnableBias()
      (move21): LearnableBias()
      (binary_pw): Conv2d(128, 128, kernel_size=(1, 1), stride=(1, 1), bias=False)
      (bn2): BatchNorm2d(128, eps=1e-05, momentum=0.1, affine=True, track_running_stats=True)
      (move22): LearnableBias()
      (prelu2): PReLU(num_parameters=128)
      (move23): LearnableBias()
      (binary_activation): BinaryActivation()
    )
    (10): BasicBlock(
      (move11): LearnableBias()
      (binary_3x3): Conv2d(128, 128, kernel_size=(3, 3), stride=(2, 2), padding=(1, 1), bias=False)
      (bn1): BatchNorm2d(128, eps=1e-05, momentum=0.1, affine=True, track_running_stats=True)
      (move12): LearnableBias()
      (prelu1): PReLU(num_parameters=128)
      (move13): LearnableBias()
      (move21): LearnableBias()
      (binary_pw_down1): Conv2d(128, 128, kernel_size=(1, 1), stride=(1, 1), bias=False)
      (binary_pw_down2): Conv2d(128, 128, kernel_size=(1, 1), stride=(1, 1), bias=False)
      (bn2_1): BatchNorm2d(128, eps=1e-05, momentum=0.1, affine=True, track_running_stats=True)
      (bn2_2): BatchNorm2d(128, eps=1e-05, momentum=0.1, affine=True, track_running_stats=True)
      (move22): LearnableBias()
      (prelu2): PReLU(num_parameters=256)
      (move23): LearnableBias()
      (binary_activation): BinaryActivation()
      (pooling): AvgPool2d(kernel_size=2, stride=2, padding=0)
    )
    (11): BasicBlock(
      (move11): LearnableBias()
      (binary_3x3): Conv2d(256, 256, kernel_size=(3, 3), stride=(1, 1), padding=(1, 1), bias=False)
      (bn1): BatchNorm2d(256, eps=1e-05, momentum=0.1, affine=True, track_running_stats=True)
      (move12): LearnableBias()
      (prelu1): PReLU(num_parameters=256)
      (move13): LearnableBias()
      (move21): LearnableBias()
      (binary_pw): Conv2d(256, 256, kernel_size=(1, 1), stride=(1, 1), bias=False)
      (bn2): BatchNorm2d(256, eps=1e-05, momentum=0.1, affine=True, track_running_stats=True)
      (move22): LearnableBias()
      (prelu2): PReLU(num_parameters=256)
      (move23): LearnableBias()
      (binary_activation): BinaryActivation()
    )
  )
  (pool1): AdaptiveAvgPool2d(output_size=1)
  (fc): Linear(in_features=256, out_features=10, bias=True)
)
2020-12-22 21:35:33,881 args = Namespace(batch_size=128, data='/datasets/imagenet', epochs=35, label_smooth=0.1, learning_rate=0.005, momentum=0.9, save='./models', teacher='resnet34', weight_decay=1e-05, workers=4)
2020-12-22 21:35:35,576 student:
2020-12-22 21:35:35,576 reactnet(
  (feature): ModuleList(
    (0): firstconv3x3(
      (conv1): Conv2d(3, 64, kernel_size=(3, 3), stride=(1, 1), padding=(1, 1), bias=False)
      (bn1): BatchNorm2d(64, eps=1e-05, momentum=0.1, affine=True, track_running_stats=True)
    )
    (1): BasicBlock(
      (move11): LearnableBias()
      (binary_3x3): Conv2d(64, 64, kernel_size=(3, 3), stride=(2, 2), padding=(1, 1), bias=False)
      (bn1): BatchNorm2d(64, eps=1e-05, momentum=0.1, affine=True, track_running_stats=True)
      (move12): LearnableBias()
      (prelu1): PReLU(num_parameters=64)
      (move13): LearnableBias()
      (move21): LearnableBias()
      (binary_pw_down1): Conv2d(64, 64, kernel_size=(1, 1), stride=(1, 1), bias=False)
      (binary_pw_down2): Conv2d(64, 64, kernel_size=(1, 1), stride=(1, 1), bias=False)
      (bn2_1): BatchNorm2d(64, eps=1e-05, momentum=0.1, affine=True, track_running_stats=True)
      (bn2_2): BatchNorm2d(64, eps=1e-05, momentum=0.1, affine=True, track_running_stats=True)
      (move22): LearnableBias()
      (prelu2): PReLU(num_parameters=128)
      (move23): LearnableBias()
      (binary_activation): BinaryActivation()
      (pooling): AvgPool2d(kernel_size=2, stride=2, padding=0)
    )
    (2): BasicBlock(
      (move11): LearnableBias()
      (binary_3x3): Conv2d(128, 128, kernel_size=(3, 3), stride=(2, 2), padding=(1, 1), bias=False)
      (bn1): BatchNorm2d(128, eps=1e-05, momentum=0.1, affine=True, track_running_stats=True)
      (move12): LearnableBias()
      (prelu1): PReLU(num_parameters=128)
      (move13): LearnableBias()
      (move21): LearnableBias()
      (binary_pw_down1): Conv2d(128, 128, kernel_size=(1, 1), stride=(1, 1), bias=False)
      (binary_pw_down2): Conv2d(128, 128, kernel_size=(1, 1), stride=(1, 1), bias=False)
      (bn2_1): BatchNorm2d(128, eps=1e-05, momentum=0.1, affine=True, track_running_stats=True)
      (bn2_2): BatchNorm2d(128, eps=1e-05, momentum=0.1, affine=True, track_running_stats=True)
      (move22): LearnableBias()
      (prelu2): PReLU(num_parameters=256)
      (move23): LearnableBias()
      (binary_activation): BinaryActivation()
      (pooling): AvgPool2d(kernel_size=2, stride=2, padding=0)
    )
    (3): BasicBlock(
      (move11): LearnableBias()
      (binary_3x3): Conv2d(256, 256, kernel_size=(3, 3), stride=(1, 1), padding=(1, 1), bias=False)
      (bn1): BatchNorm2d(256, eps=1e-05, momentum=0.1, affine=True, track_running_stats=True)
      (move12): LearnableBias()
      (prelu1): PReLU(num_parameters=256)
      (move13): LearnableBias()
      (move21): LearnableBias()
      (binary_pw): Conv2d(256, 256, kernel_size=(1, 1), stride=(1, 1), bias=False)
      (bn2): BatchNorm2d(256, eps=1e-05, momentum=0.1, affine=True, track_running_stats=True)
      (move22): LearnableBias()
      (prelu2): PReLU(num_parameters=256)
      (move23): LearnableBias()
      (binary_activation): BinaryActivation()
    )
    (4): BasicBlock(
      (move11): LearnableBias()
      (binary_3x3): Conv2d(256, 256, kernel_size=(3, 3), stride=(2, 2), padding=(1, 1), bias=False)
      (bn1): BatchNorm2d(256, eps=1e-05, momentum=0.1, affine=True, track_running_stats=True)
      (move12): LearnableBias()
      (prelu1): PReLU(num_parameters=256)
      (move13): LearnableBias()
      (move21): LearnableBias()
      (binary_pw_down1): Conv2d(256, 256, kernel_size=(1, 1), stride=(1, 1), bias=False)
      (binary_pw_down2): Conv2d(256, 256, kernel_size=(1, 1), stride=(1, 1), bias=False)
      (bn2_1): BatchNorm2d(256, eps=1e-05, momentum=0.1, affine=True, track_running_stats=True)
      (bn2_2): BatchNorm2d(256, eps=1e-05, momentum=0.1, affine=True, track_running_stats=True)
      (move22): LearnableBias()
      (prelu2): PReLU(num_parameters=512)
      (move23): LearnableBias()
      (binary_activation): BinaryActivation()
      (pooling): AvgPool2d(kernel_size=2, stride=2, padding=0)
    )
    (5): BasicBlock(
      (move11): LearnableBias()
      (binary_3x3): Conv2d(512, 512, kernel_size=(3, 3), stride=(1, 1), padding=(1, 1), bias=False)
      (bn1): BatchNorm2d(512, eps=1e-05, momentum=0.1, affine=True, track_running_stats=True)
      (move12): LearnableBias()
      (prelu1): PReLU(num_parameters=512)
      (move13): LearnableBias()
      (move21): LearnableBias()
      (binary_pw): Conv2d(512, 512, kernel_size=(1, 1), stride=(1, 1), bias=False)
      (bn2): BatchNorm2d(512, eps=1e-05, momentum=0.1, affine=True, track_running_stats=True)
      (move22): LearnableBias()
      (prelu2): PReLU(num_parameters=512)
      (move23): LearnableBias()
      (binary_activation): BinaryActivation()
    )
    (6): BasicBlock(
      (move11): LearnableBias()
      (binary_3x3): Conv2d(512, 512, kernel_size=(3, 3), stride=(1, 1), padding=(1, 1), bias=False)
      (bn1): BatchNorm2d(512, eps=1e-05, momentum=0.1, affine=True, track_running_stats=True)
      (move12): LearnableBias()
      (prelu1): PReLU(num_parameters=512)
      (move13): LearnableBias()
      (move21): LearnableBias()
      (binary_pw): Conv2d(512, 512, kernel_size=(1, 1), stride=(1, 1), bias=False)
      (bn2): BatchNorm2d(512, eps=1e-05, momentum=0.1, affine=True, track_running_stats=True)
      (move22): LearnableBias()
      (prelu2): PReLU(num_parameters=512)
      (move23): LearnableBias()
      (binary_activation): BinaryActivation()
    )
    (7): BasicBlock(
      (move11): LearnableBias()
      (binary_3x3): Conv2d(512, 512, kernel_size=(3, 3), stride=(1, 1), padding=(1, 1), bias=False)
      (bn1): BatchNorm2d(512, eps=1e-05, momentum=0.1, affine=True, track_running_stats=True)
      (move12): LearnableBias()
      (prelu1): PReLU(num_parameters=512)
      (move13): LearnableBias()
      (move21): LearnableBias()
      (binary_pw): Conv2d(512, 512, kernel_size=(1, 1), stride=(1, 1), bias=False)
      (bn2): BatchNorm2d(512, eps=1e-05, momentum=0.1, affine=True, track_running_stats=True)
      (move22): LearnableBias()
      (prelu2): PReLU(num_parameters=512)
      (move23): LearnableBias()
      (binary_activation): BinaryActivation()
    )
    (8): BasicBlock(
      (move11): LearnableBias()
      (binary_3x3): Conv2d(512, 512, kernel_size=(3, 3), stride=(1, 1), padding=(1, 1), bias=False)
      (bn1): BatchNorm2d(512, eps=1e-05, momentum=0.1, affine=True, track_running_stats=True)
      (move12): LearnableBias()
      (prelu1): PReLU(num_parameters=512)
      (move13): LearnableBias()
      (move21): LearnableBias()
      (binary_pw): Conv2d(512, 512, kernel_size=(1, 1), stride=(1, 1), bias=False)
      (bn2): BatchNorm2d(512, eps=1e-05, momentum=0.1, affine=True, track_running_stats=True)
      (move22): LearnableBias()
      (prelu2): PReLU(num_parameters=512)
      (move23): LearnableBias()
      (binary_activation): BinaryActivation()
    )
    (9): BasicBlock(
      (move11): LearnableBias()
      (binary_3x3): Conv2d(512, 512, kernel_size=(3, 3), stride=(1, 1), padding=(1, 1), bias=False)
      (bn1): BatchNorm2d(512, eps=1e-05, momentum=0.1, affine=True, track_running_stats=True)
      (move12): LearnableBias()
      (prelu1): PReLU(num_parameters=512)
      (move13): LearnableBias()
      (move21): LearnableBias()
      (binary_pw): Conv2d(512, 512, kernel_size=(1, 1), stride=(1, 1), bias=False)
      (bn2): BatchNorm2d(512, eps=1e-05, momentum=0.1, affine=True, track_running_stats=True)
      (move22): LearnableBias()
      (prelu2): PReLU(num_parameters=512)
      (move23): LearnableBias()
      (binary_activation): BinaryActivation()
    )
    (10): BasicBlock(
      (move11): LearnableBias()
      (binary_3x3): Conv2d(512, 512, kernel_size=(3, 3), stride=(2, 2), padding=(1, 1), bias=False)
      (bn1): BatchNorm2d(512, eps=1e-05, momentum=0.1, affine=True, track_running_stats=True)
      (move12): LearnableBias()
      (prelu1): PReLU(num_parameters=512)
      (move13): LearnableBias()
      (move21): LearnableBias()
      (binary_pw_down1): Conv2d(512, 512, kernel_size=(1, 1), stride=(1, 1), bias=False)
      (binary_pw_down2): Conv2d(512, 512, kernel_size=(1, 1), stride=(1, 1), bias=False)
      (bn2_1): BatchNorm2d(512, eps=1e-05, momentum=0.1, affine=True, track_running_stats=True)
      (bn2_2): BatchNorm2d(512, eps=1e-05, momentum=0.1, affine=True, track_running_stats=True)
      (move22): LearnableBias()
      (prelu2): PReLU(num_parameters=1024)
      (move23): LearnableBias()
      (binary_activation): BinaryActivation()
      (pooling): AvgPool2d(kernel_size=2, stride=2, padding=0)
    )
    (11): BasicBlock(
      (move11): LearnableBias()
      (binary_3x3): Conv2d(1024, 1024, kernel_size=(3, 3), stride=(1, 1), padding=(1, 1), bias=False)
      (bn1): BatchNorm2d(1024, eps=1e-05, momentum=0.1, affine=True, track_running_stats=True)
      (move12): LearnableBias()
      (prelu1): PReLU(num_parameters=1024)
      (move13): LearnableBias()
      (move21): LearnableBias()
      (binary_pw): Conv2d(1024, 1024, kernel_size=(1, 1), stride=(1, 1), bias=False)
      (bn2): BatchNorm2d(1024, eps=1e-05, momentum=0.1, affine=True, track_running_stats=True)
      (move22): LearnableBias()
      (prelu2): PReLU(num_parameters=1024)
      (move23): LearnableBias()
      (binary_activation): BinaryActivation()
    )
  )
  (pool1): AdaptiveAvgPool2d(output_size=1)
  (fc): Linear(in_features=1024, out_features=10, bias=True)
)
2020-12-22 21:35:35,672 loading checkpoint ./models\checkpoint.pth.tar ..........
2020-12-22 21:36:01,297 args = Namespace(batch_size=128, data='/datasets/imagenet', epochs=35, label_smooth=0.1, learning_rate=0.005, momentum=0.9, save='./models', teacher='resnet34', weight_decay=1e-05, workers=4)
2020-12-22 21:36:03,006 student:
2020-12-22 21:36:03,007 reactnet(
  (feature): ModuleList(
    (0): firstconv3x3(
      (conv1): Conv2d(3, 64, kernel_size=(3, 3), stride=(1, 1), padding=(1, 1), bias=False)
      (bn1): BatchNorm2d(64, eps=1e-05, momentum=0.1, affine=True, track_running_stats=True)
    )
    (1): BasicBlock(
      (move11): LearnableBias()
      (binary_3x3): Conv2d(64, 64, kernel_size=(3, 3), stride=(1, 1), padding=(1, 1), bias=False)
      (bn1): BatchNorm2d(64, eps=1e-05, momentum=0.1, affine=True, track_running_stats=True)
      (move12): LearnableBias()
      (prelu1): PReLU(num_parameters=64)
      (move13): LearnableBias()
      (move21): LearnableBias()
      (binary_pw_down1): Conv2d(64, 64, kernel_size=(1, 1), stride=(1, 1), bias=False)
      (binary_pw_down2): Conv2d(64, 64, kernel_size=(1, 1), stride=(1, 1), bias=False)
      (bn2_1): BatchNorm2d(64, eps=1e-05, momentum=0.1, affine=True, track_running_stats=True)
      (bn2_2): BatchNorm2d(64, eps=1e-05, momentum=0.1, affine=True, track_running_stats=True)
      (move22): LearnableBias()
      (prelu2): PReLU(num_parameters=128)
      (move23): LearnableBias()
      (binary_activation): BinaryActivation()
      (pooling): AvgPool2d(kernel_size=2, stride=2, padding=0)
    )
    (2): BasicBlock(
      (move11): LearnableBias()
      (binary_3x3): Conv2d(128, 128, kernel_size=(3, 3), stride=(2, 2), padding=(1, 1), bias=False)
      (bn1): BatchNorm2d(128, eps=1e-05, momentum=0.1, affine=True, track_running_stats=True)
      (move12): LearnableBias()
      (prelu1): PReLU(num_parameters=128)
      (move13): LearnableBias()
      (move21): LearnableBias()
      (binary_pw_down1): Conv2d(128, 128, kernel_size=(1, 1), stride=(1, 1), bias=False)
      (binary_pw_down2): Conv2d(128, 128, kernel_size=(1, 1), stride=(1, 1), bias=False)
      (bn2_1): BatchNorm2d(128, eps=1e-05, momentum=0.1, affine=True, track_running_stats=True)
      (bn2_2): BatchNorm2d(128, eps=1e-05, momentum=0.1, affine=True, track_running_stats=True)
      (move22): LearnableBias()
      (prelu2): PReLU(num_parameters=256)
      (move23): LearnableBias()
      (binary_activation): BinaryActivation()
      (pooling): AvgPool2d(kernel_size=2, stride=2, padding=0)
    )
    (3): BasicBlock(
      (move11): LearnableBias()
      (binary_3x3): Conv2d(256, 256, kernel_size=(3, 3), stride=(1, 1), padding=(1, 1), bias=False)
      (bn1): BatchNorm2d(256, eps=1e-05, momentum=0.1, affine=True, track_running_stats=True)
      (move12): LearnableBias()
      (prelu1): PReLU(num_parameters=256)
      (move13): LearnableBias()
      (move21): LearnableBias()
      (binary_pw): Conv2d(256, 256, kernel_size=(1, 1), stride=(1, 1), bias=False)
      (bn2): BatchNorm2d(256, eps=1e-05, momentum=0.1, affine=True, track_running_stats=True)
      (move22): LearnableBias()
      (prelu2): PReLU(num_parameters=256)
      (move23): LearnableBias()
      (binary_activation): BinaryActivation()
    )
    (4): BasicBlock(
      (move11): LearnableBias()
      (binary_3x3): Conv2d(256, 256, kernel_size=(3, 3), stride=(2, 2), padding=(1, 1), bias=False)
      (bn1): BatchNorm2d(256, eps=1e-05, momentum=0.1, affine=True, track_running_stats=True)
      (move12): LearnableBias()
      (prelu1): PReLU(num_parameters=256)
      (move13): LearnableBias()
      (move21): LearnableBias()
      (binary_pw_down1): Conv2d(256, 256, kernel_size=(1, 1), stride=(1, 1), bias=False)
      (binary_pw_down2): Conv2d(256, 256, kernel_size=(1, 1), stride=(1, 1), bias=False)
      (bn2_1): BatchNorm2d(256, eps=1e-05, momentum=0.1, affine=True, track_running_stats=True)
      (bn2_2): BatchNorm2d(256, eps=1e-05, momentum=0.1, affine=True, track_running_stats=True)
      (move22): LearnableBias()
      (prelu2): PReLU(num_parameters=512)
      (move23): LearnableBias()
      (binary_activation): BinaryActivation()
      (pooling): AvgPool2d(kernel_size=2, stride=2, padding=0)
    )
    (5): BasicBlock(
      (move11): LearnableBias()
      (binary_3x3): Conv2d(512, 512, kernel_size=(3, 3), stride=(1, 1), padding=(1, 1), bias=False)
      (bn1): BatchNorm2d(512, eps=1e-05, momentum=0.1, affine=True, track_running_stats=True)
      (move12): LearnableBias()
      (prelu1): PReLU(num_parameters=512)
      (move13): LearnableBias()
      (move21): LearnableBias()
      (binary_pw): Conv2d(512, 512, kernel_size=(1, 1), stride=(1, 1), bias=False)
      (bn2): BatchNorm2d(512, eps=1e-05, momentum=0.1, affine=True, track_running_stats=True)
      (move22): LearnableBias()
      (prelu2): PReLU(num_parameters=512)
      (move23): LearnableBias()
      (binary_activation): BinaryActivation()
    )
    (6): BasicBlock(
      (move11): LearnableBias()
      (binary_3x3): Conv2d(512, 512, kernel_size=(3, 3), stride=(1, 1), padding=(1, 1), bias=False)
      (bn1): BatchNorm2d(512, eps=1e-05, momentum=0.1, affine=True, track_running_stats=True)
      (move12): LearnableBias()
      (prelu1): PReLU(num_parameters=512)
      (move13): LearnableBias()
      (move21): LearnableBias()
      (binary_pw): Conv2d(512, 512, kernel_size=(1, 1), stride=(1, 1), bias=False)
      (bn2): BatchNorm2d(512, eps=1e-05, momentum=0.1, affine=True, track_running_stats=True)
      (move22): LearnableBias()
      (prelu2): PReLU(num_parameters=512)
      (move23): LearnableBias()
      (binary_activation): BinaryActivation()
    )
    (7): BasicBlock(
      (move11): LearnableBias()
      (binary_3x3): Conv2d(512, 512, kernel_size=(3, 3), stride=(1, 1), padding=(1, 1), bias=False)
      (bn1): BatchNorm2d(512, eps=1e-05, momentum=0.1, affine=True, track_running_stats=True)
      (move12): LearnableBias()
      (prelu1): PReLU(num_parameters=512)
      (move13): LearnableBias()
      (move21): LearnableBias()
      (binary_pw): Conv2d(512, 512, kernel_size=(1, 1), stride=(1, 1), bias=False)
      (bn2): BatchNorm2d(512, eps=1e-05, momentum=0.1, affine=True, track_running_stats=True)
      (move22): LearnableBias()
      (prelu2): PReLU(num_parameters=512)
      (move23): LearnableBias()
      (binary_activation): BinaryActivation()
    )
    (8): BasicBlock(
      (move11): LearnableBias()
      (binary_3x3): Conv2d(512, 512, kernel_size=(3, 3), stride=(1, 1), padding=(1, 1), bias=False)
      (bn1): BatchNorm2d(512, eps=1e-05, momentum=0.1, affine=True, track_running_stats=True)
      (move12): LearnableBias()
      (prelu1): PReLU(num_parameters=512)
      (move13): LearnableBias()
      (move21): LearnableBias()
      (binary_pw): Conv2d(512, 512, kernel_size=(1, 1), stride=(1, 1), bias=False)
      (bn2): BatchNorm2d(512, eps=1e-05, momentum=0.1, affine=True, track_running_stats=True)
      (move22): LearnableBias()
      (prelu2): PReLU(num_parameters=512)
      (move23): LearnableBias()
      (binary_activation): BinaryActivation()
    )
    (9): BasicBlock(
      (move11): LearnableBias()
      (binary_3x3): Conv2d(512, 512, kernel_size=(3, 3), stride=(1, 1), padding=(1, 1), bias=False)
      (bn1): BatchNorm2d(512, eps=1e-05, momentum=0.1, affine=True, track_running_stats=True)
      (move12): LearnableBias()
      (prelu1): PReLU(num_parameters=512)
      (move13): LearnableBias()
      (move21): LearnableBias()
      (binary_pw): Conv2d(512, 512, kernel_size=(1, 1), stride=(1, 1), bias=False)
      (bn2): BatchNorm2d(512, eps=1e-05, momentum=0.1, affine=True, track_running_stats=True)
      (move22): LearnableBias()
      (prelu2): PReLU(num_parameters=512)
      (move23): LearnableBias()
      (binary_activation): BinaryActivation()
    )
    (10): BasicBlock(
      (move11): LearnableBias()
      (binary_3x3): Conv2d(512, 512, kernel_size=(3, 3), stride=(2, 2), padding=(1, 1), bias=False)
      (bn1): BatchNorm2d(512, eps=1e-05, momentum=0.1, affine=True, track_running_stats=True)
      (move12): LearnableBias()
      (prelu1): PReLU(num_parameters=512)
      (move13): LearnableBias()
      (move21): LearnableBias()
      (binary_pw_down1): Conv2d(512, 512, kernel_size=(1, 1), stride=(1, 1), bias=False)
      (binary_pw_down2): Conv2d(512, 512, kernel_size=(1, 1), stride=(1, 1), bias=False)
      (bn2_1): BatchNorm2d(512, eps=1e-05, momentum=0.1, affine=True, track_running_stats=True)
      (bn2_2): BatchNorm2d(512, eps=1e-05, momentum=0.1, affine=True, track_running_stats=True)
      (move22): LearnableBias()
      (prelu2): PReLU(num_parameters=1024)
      (move23): LearnableBias()
      (binary_activation): BinaryActivation()
      (pooling): AvgPool2d(kernel_size=2, stride=2, padding=0)
    )
    (11): BasicBlock(
      (move11): LearnableBias()
      (binary_3x3): Conv2d(1024, 1024, kernel_size=(3, 3), stride=(1, 1), padding=(1, 1), bias=False)
      (bn1): BatchNorm2d(1024, eps=1e-05, momentum=0.1, affine=True, track_running_stats=True)
      (move12): LearnableBias()
      (prelu1): PReLU(num_parameters=1024)
      (move13): LearnableBias()
      (move21): LearnableBias()
      (binary_pw): Conv2d(1024, 1024, kernel_size=(1, 1), stride=(1, 1), bias=False)
      (bn2): BatchNorm2d(1024, eps=1e-05, momentum=0.1, affine=True, track_running_stats=True)
      (move22): LearnableBias()
      (prelu2): PReLU(num_parameters=1024)
      (move23): LearnableBias()
      (binary_activation): BinaryActivation()
    )
  )
  (pool1): AdaptiveAvgPool2d(output_size=1)
  (fc): Linear(in_features=1024, out_features=10, bias=True)
)
2020-12-22 21:38:25,169 args = Namespace(batch_size=128, beta=1.0, cutmix_prob=0, data='/datasets/imagenet', epochs=60, label_smooth=0.1, learning_rate=0.01, mixup_prob=1.0, momentum=0.9, save='./models_cutmix', teacher='resnet34', weight_decay=1e-05, workers=4)
2020-12-22 21:38:26,652 student:
2020-12-22 21:38:26,652 reactnet(
  (feature): ModuleList(
    (0): firstconv3x3(
      (conv1): Conv2d(3, 16, kernel_size=(3, 3), stride=(1, 1), padding=(1, 1), bias=False)
      (bn1): BatchNorm2d(16, eps=1e-05, momentum=0.1, affine=True, track_running_stats=True)
    )
    (1): BasicBlock(
      (move11): LearnableBias()
      (binary_3x3): Conv2d(16, 16, kernel_size=(3, 3), stride=(1, 1), padding=(1, 1), bias=False)
      (bn1): BatchNorm2d(16, eps=1e-05, momentum=0.1, affine=True, track_running_stats=True)
      (move12): LearnableBias()
      (prelu1): PReLU(num_parameters=16)
      (move13): LearnableBias()
      (move21): LearnableBias()
      (binary_pw_down1): Conv2d(16, 16, kernel_size=(1, 1), stride=(1, 1), bias=False)
      (binary_pw_down2): Conv2d(16, 16, kernel_size=(1, 1), stride=(1, 1), bias=False)
      (bn2_1): BatchNorm2d(16, eps=1e-05, momentum=0.1, affine=True, track_running_stats=True)
      (bn2_2): BatchNorm2d(16, eps=1e-05, momentum=0.1, affine=True, track_running_stats=True)
      (move22): LearnableBias()
      (prelu2): PReLU(num_parameters=32)
      (move23): LearnableBias()
      (binary_activation): BinaryActivation()
      (pooling): AvgPool2d(kernel_size=2, stride=2, padding=0)
    )
    (2): BasicBlock(
      (move11): LearnableBias()
      (binary_3x3): Conv2d(32, 32, kernel_size=(3, 3), stride=(2, 2), padding=(1, 1), bias=False)
      (bn1): BatchNorm2d(32, eps=1e-05, momentum=0.1, affine=True, track_running_stats=True)
      (move12): LearnableBias()
      (prelu1): PReLU(num_parameters=32)
      (move13): LearnableBias()
      (move21): LearnableBias()
      (binary_pw_down1): Conv2d(32, 32, kernel_size=(1, 1), stride=(1, 1), bias=False)
      (binary_pw_down2): Conv2d(32, 32, kernel_size=(1, 1), stride=(1, 1), bias=False)
      (bn2_1): BatchNorm2d(32, eps=1e-05, momentum=0.1, affine=True, track_running_stats=True)
      (bn2_2): BatchNorm2d(32, eps=1e-05, momentum=0.1, affine=True, track_running_stats=True)
      (move22): LearnableBias()
      (prelu2): PReLU(num_parameters=64)
      (move23): LearnableBias()
      (binary_activation): BinaryActivation()
      (pooling): AvgPool2d(kernel_size=2, stride=2, padding=0)
    )
    (3): BasicBlock(
      (move11): LearnableBias()
      (binary_3x3): Conv2d(64, 64, kernel_size=(3, 3), stride=(1, 1), padding=(1, 1), bias=False)
      (bn1): BatchNorm2d(64, eps=1e-05, momentum=0.1, affine=True, track_running_stats=True)
      (move12): LearnableBias()
      (prelu1): PReLU(num_parameters=64)
      (move13): LearnableBias()
      (move21): LearnableBias()
      (binary_pw): Conv2d(64, 64, kernel_size=(1, 1), stride=(1, 1), bias=False)
      (bn2): BatchNorm2d(64, eps=1e-05, momentum=0.1, affine=True, track_running_stats=True)
      (move22): LearnableBias()
      (prelu2): PReLU(num_parameters=64)
      (move23): LearnableBias()
      (binary_activation): BinaryActivation()
    )
    (4): BasicBlock(
      (move11): LearnableBias()
      (binary_3x3): Conv2d(64, 64, kernel_size=(3, 3), stride=(2, 2), padding=(1, 1), bias=False)
      (bn1): BatchNorm2d(64, eps=1e-05, momentum=0.1, affine=True, track_running_stats=True)
      (move12): LearnableBias()
      (prelu1): PReLU(num_parameters=64)
      (move13): LearnableBias()
      (move21): LearnableBias()
      (binary_pw_down1): Conv2d(64, 64, kernel_size=(1, 1), stride=(1, 1), bias=False)
      (binary_pw_down2): Conv2d(64, 64, kernel_size=(1, 1), stride=(1, 1), bias=False)
      (bn2_1): BatchNorm2d(64, eps=1e-05, momentum=0.1, affine=True, track_running_stats=True)
      (bn2_2): BatchNorm2d(64, eps=1e-05, momentum=0.1, affine=True, track_running_stats=True)
      (move22): LearnableBias()
      (prelu2): PReLU(num_parameters=128)
      (move23): LearnableBias()
      (binary_activation): BinaryActivation()
      (pooling): AvgPool2d(kernel_size=2, stride=2, padding=0)
    )
    (5): BasicBlock(
      (move11): LearnableBias()
      (binary_3x3): Conv2d(128, 128, kernel_size=(3, 3), stride=(1, 1), padding=(1, 1), bias=False)
      (bn1): BatchNorm2d(128, eps=1e-05, momentum=0.1, affine=True, track_running_stats=True)
      (move12): LearnableBias()
      (prelu1): PReLU(num_parameters=128)
      (move13): LearnableBias()
      (move21): LearnableBias()
      (binary_pw): Conv2d(128, 128, kernel_size=(1, 1), stride=(1, 1), bias=False)
      (bn2): BatchNorm2d(128, eps=1e-05, momentum=0.1, affine=True, track_running_stats=True)
      (move22): LearnableBias()
      (prelu2): PReLU(num_parameters=128)
      (move23): LearnableBias()
      (binary_activation): BinaryActivation()
    )
    (6): BasicBlock(
      (move11): LearnableBias()
      (binary_3x3): Conv2d(128, 128, kernel_size=(3, 3), stride=(1, 1), padding=(1, 1), bias=False)
      (bn1): BatchNorm2d(128, eps=1e-05, momentum=0.1, affine=True, track_running_stats=True)
      (move12): LearnableBias()
      (prelu1): PReLU(num_parameters=128)
      (move13): LearnableBias()
      (move21): LearnableBias()
      (binary_pw): Conv2d(128, 128, kernel_size=(1, 1), stride=(1, 1), bias=False)
      (bn2): BatchNorm2d(128, eps=1e-05, momentum=0.1, affine=True, track_running_stats=True)
      (move22): LearnableBias()
      (prelu2): PReLU(num_parameters=128)
      (move23): LearnableBias()
      (binary_activation): BinaryActivation()
    )
    (7): BasicBlock(
      (move11): LearnableBias()
      (binary_3x3): Conv2d(128, 128, kernel_size=(3, 3), stride=(1, 1), padding=(1, 1), bias=False)
      (bn1): BatchNorm2d(128, eps=1e-05, momentum=0.1, affine=True, track_running_stats=True)
      (move12): LearnableBias()
      (prelu1): PReLU(num_parameters=128)
      (move13): LearnableBias()
      (move21): LearnableBias()
      (binary_pw): Conv2d(128, 128, kernel_size=(1, 1), stride=(1, 1), bias=False)
      (bn2): BatchNorm2d(128, eps=1e-05, momentum=0.1, affine=True, track_running_stats=True)
      (move22): LearnableBias()
      (prelu2): PReLU(num_parameters=128)
      (move23): LearnableBias()
      (binary_activation): BinaryActivation()
    )
    (8): BasicBlock(
      (move11): LearnableBias()
      (binary_3x3): Conv2d(128, 128, kernel_size=(3, 3), stride=(1, 1), padding=(1, 1), bias=False)
      (bn1): BatchNorm2d(128, eps=1e-05, momentum=0.1, affine=True, track_running_stats=True)
      (move12): LearnableBias()
      (prelu1): PReLU(num_parameters=128)
      (move13): LearnableBias()
      (move21): LearnableBias()
      (binary_pw): Conv2d(128, 128, kernel_size=(1, 1), stride=(1, 1), bias=False)
      (bn2): BatchNorm2d(128, eps=1e-05, momentum=0.1, affine=True, track_running_stats=True)
      (move22): LearnableBias()
      (prelu2): PReLU(num_parameters=128)
      (move23): LearnableBias()
      (binary_activation): BinaryActivation()
    )
    (9): BasicBlock(
      (move11): LearnableBias()
      (binary_3x3): Conv2d(128, 128, kernel_size=(3, 3), stride=(1, 1), padding=(1, 1), bias=False)
      (bn1): BatchNorm2d(128, eps=1e-05, momentum=0.1, affine=True, track_running_stats=True)
      (move12): LearnableBias()
      (prelu1): PReLU(num_parameters=128)
      (move13): LearnableBias()
      (move21): LearnableBias()
      (binary_pw): Conv2d(128, 128, kernel_size=(1, 1), stride=(1, 1), bias=False)
      (bn2): BatchNorm2d(128, eps=1e-05, momentum=0.1, affine=True, track_running_stats=True)
      (move22): LearnableBias()
      (prelu2): PReLU(num_parameters=128)
      (move23): LearnableBias()
      (binary_activation): BinaryActivation()
    )
    (10): BasicBlock(
      (move11): LearnableBias()
      (binary_3x3): Conv2d(128, 128, kernel_size=(3, 3), stride=(2, 2), padding=(1, 1), bias=False)
      (bn1): BatchNorm2d(128, eps=1e-05, momentum=0.1, affine=True, track_running_stats=True)
      (move12): LearnableBias()
      (prelu1): PReLU(num_parameters=128)
      (move13): LearnableBias()
      (move21): LearnableBias()
      (binary_pw_down1): Conv2d(128, 128, kernel_size=(1, 1), stride=(1, 1), bias=False)
      (binary_pw_down2): Conv2d(128, 128, kernel_size=(1, 1), stride=(1, 1), bias=False)
      (bn2_1): BatchNorm2d(128, eps=1e-05, momentum=0.1, affine=True, track_running_stats=True)
      (bn2_2): BatchNorm2d(128, eps=1e-05, momentum=0.1, affine=True, track_running_stats=True)
      (move22): LearnableBias()
      (prelu2): PReLU(num_parameters=256)
      (move23): LearnableBias()
      (binary_activation): BinaryActivation()
      (pooling): AvgPool2d(kernel_size=2, stride=2, padding=0)
    )
    (11): BasicBlock(
      (move11): LearnableBias()
      (binary_3x3): Conv2d(256, 256, kernel_size=(3, 3), stride=(1, 1), padding=(1, 1), bias=False)
      (bn1): BatchNorm2d(256, eps=1e-05, momentum=0.1, affine=True, track_running_stats=True)
      (move12): LearnableBias()
      (prelu1): PReLU(num_parameters=256)
      (move13): LearnableBias()
      (move21): LearnableBias()
      (binary_pw): Conv2d(256, 256, kernel_size=(1, 1), stride=(1, 1), bias=False)
      (bn2): BatchNorm2d(256, eps=1e-05, momentum=0.1, affine=True, track_running_stats=True)
      (move22): LearnableBias()
      (prelu2): PReLU(num_parameters=256)
      (move23): LearnableBias()
      (binary_activation): BinaryActivation()
    )
  )
  (pool1): AdaptiveAvgPool2d(output_size=1)
  (fc): Linear(in_features=256, out_features=10, bias=True)
)
