2020-12-20 22:38:20,662 args = Namespace(batch_size=256, data='/datasets/imagenet', epochs=256, label_smooth=0.1, learning_rate=0.0005, momentum=0.9, save='./models', teacher='resnet34', weight_decay=0.0, workers=40)
2020-12-20 22:38:23,176 student:
2020-12-20 22:38:23,177 reactnet(
  (feature): ModuleList(
    (0): firstconv3x3(
      (conv1): Conv2d(3, 32, kernel_size=(3, 3), stride=(2, 2), padding=(1, 1), bias=False)
      (bn1): BatchNorm2d(32, eps=1e-05, momentum=0.1, affine=True, track_running_stats=True)
    )
    (1): BasicBlock(
      (move11): LearnableBias()
      (binary_3x3): HardBinaryConv()
      (bn1): BatchNorm2d(32, eps=1e-05, momentum=0.1, affine=True, track_running_stats=True)
      (move12): LearnableBias()
      (prelu1): PReLU(num_parameters=32)
      (move13): LearnableBias()
      (move21): LearnableBias()
      (binary_pw_down1): HardBinaryConv()
      (binary_pw_down2): HardBinaryConv()
      (bn2_1): BatchNorm2d(32, eps=1e-05, momentum=0.1, affine=True, track_running_stats=True)
      (bn2_2): BatchNorm2d(32, eps=1e-05, momentum=0.1, affine=True, track_running_stats=True)
      (move22): LearnableBias()
      (prelu2): PReLU(num_parameters=64)
      (move23): LearnableBias()
      (binary_activation): BinaryActivation()
      (pooling): AvgPool2d(kernel_size=2, stride=2, padding=0)
    )
    (2): BasicBlock(
      (move11): LearnableBias()
      (binary_3x3): HardBinaryConv()
      (bn1): BatchNorm2d(64, eps=1e-05, momentum=0.1, affine=True, track_running_stats=True)
      (move12): LearnableBias()
      (prelu1): PReLU(num_parameters=64)
      (move13): LearnableBias()
      (move21): LearnableBias()
      (binary_pw_down1): HardBinaryConv()
      (binary_pw_down2): HardBinaryConv()
      (bn2_1): BatchNorm2d(64, eps=1e-05, momentum=0.1, affine=True, track_running_stats=True)
      (bn2_2): BatchNorm2d(64, eps=1e-05, momentum=0.1, affine=True, track_running_stats=True)
      (move22): LearnableBias()
      (prelu2): PReLU(num_parameters=128)
      (move23): LearnableBias()
      (binary_activation): BinaryActivation()
      (pooling): AvgPool2d(kernel_size=2, stride=2, padding=0)
    )
    (3): BasicBlock(
      (move11): LearnableBias()
      (binary_3x3): HardBinaryConv()
      (bn1): BatchNorm2d(128, eps=1e-05, momentum=0.1, affine=True, track_running_stats=True)
      (move12): LearnableBias()
      (prelu1): PReLU(num_parameters=128)
      (move13): LearnableBias()
      (move21): LearnableBias()
      (binary_pw): HardBinaryConv()
      (bn2): BatchNorm2d(128, eps=1e-05, momentum=0.1, affine=True, track_running_stats=True)
      (move22): LearnableBias()
      (prelu2): PReLU(num_parameters=128)
      (move23): LearnableBias()
      (binary_activation): BinaryActivation()
    )
    (4): BasicBlock(
      (move11): LearnableBias()
      (binary_3x3): HardBinaryConv()
      (bn1): BatchNorm2d(128, eps=1e-05, momentum=0.1, affine=True, track_running_stats=True)
      (move12): LearnableBias()
      (prelu1): PReLU(num_parameters=128)
      (move13): LearnableBias()
      (move21): LearnableBias()
      (binary_pw_down1): HardBinaryConv()
      (binary_pw_down2): HardBinaryConv()
      (bn2_1): BatchNorm2d(128, eps=1e-05, momentum=0.1, affine=True, track_running_stats=True)
      (bn2_2): BatchNorm2d(128, eps=1e-05, momentum=0.1, affine=True, track_running_stats=True)
      (move22): LearnableBias()
      (prelu2): PReLU(num_parameters=256)
      (move23): LearnableBias()
      (binary_activation): BinaryActivation()
      (pooling): AvgPool2d(kernel_size=2, stride=2, padding=0)
    )
    (5): BasicBlock(
      (move11): LearnableBias()
      (binary_3x3): HardBinaryConv()
      (bn1): BatchNorm2d(256, eps=1e-05, momentum=0.1, affine=True, track_running_stats=True)
      (move12): LearnableBias()
      (prelu1): PReLU(num_parameters=256)
      (move13): LearnableBias()
      (move21): LearnableBias()
      (binary_pw): HardBinaryConv()
      (bn2): BatchNorm2d(256, eps=1e-05, momentum=0.1, affine=True, track_running_stats=True)
      (move22): LearnableBias()
      (prelu2): PReLU(num_parameters=256)
      (move23): LearnableBias()
      (binary_activation): BinaryActivation()
    )
    (6): BasicBlock(
      (move11): LearnableBias()
      (binary_3x3): HardBinaryConv()
      (bn1): BatchNorm2d(256, eps=1e-05, momentum=0.1, affine=True, track_running_stats=True)
      (move12): LearnableBias()
      (prelu1): PReLU(num_parameters=256)
      (move13): LearnableBias()
      (move21): LearnableBias()
      (binary_pw_down1): HardBinaryConv()
      (binary_pw_down2): HardBinaryConv()
      (bn2_1): BatchNorm2d(256, eps=1e-05, momentum=0.1, affine=True, track_running_stats=True)
      (bn2_2): BatchNorm2d(256, eps=1e-05, momentum=0.1, affine=True, track_running_stats=True)
      (move22): LearnableBias()
      (prelu2): PReLU(num_parameters=512)
      (move23): LearnableBias()
      (binary_activation): BinaryActivation()
      (pooling): AvgPool2d(kernel_size=2, stride=2, padding=0)
    )
    (7): BasicBlock(
      (move11): LearnableBias()
      (binary_3x3): HardBinaryConv()
      (bn1): BatchNorm2d(512, eps=1e-05, momentum=0.1, affine=True, track_running_stats=True)
      (move12): LearnableBias()
      (prelu1): PReLU(num_parameters=512)
      (move13): LearnableBias()
      (move21): LearnableBias()
      (binary_pw): HardBinaryConv()
      (bn2): BatchNorm2d(512, eps=1e-05, momentum=0.1, affine=True, track_running_stats=True)
      (move22): LearnableBias()
      (prelu2): PReLU(num_parameters=512)
      (move23): LearnableBias()
      (binary_activation): BinaryActivation()
    )
    (8): BasicBlock(
      (move11): LearnableBias()
      (binary_3x3): HardBinaryConv()
      (bn1): BatchNorm2d(512, eps=1e-05, momentum=0.1, affine=True, track_running_stats=True)
      (move12): LearnableBias()
      (prelu1): PReLU(num_parameters=512)
      (move13): LearnableBias()
      (move21): LearnableBias()
      (binary_pw): HardBinaryConv()
      (bn2): BatchNorm2d(512, eps=1e-05, momentum=0.1, affine=True, track_running_stats=True)
      (move22): LearnableBias()
      (prelu2): PReLU(num_parameters=512)
      (move23): LearnableBias()
      (binary_activation): BinaryActivation()
    )
    (9): BasicBlock(
      (move11): LearnableBias()
      (binary_3x3): HardBinaryConv()
      (bn1): BatchNorm2d(512, eps=1e-05, momentum=0.1, affine=True, track_running_stats=True)
      (move12): LearnableBias()
      (prelu1): PReLU(num_parameters=512)
      (move13): LearnableBias()
      (move21): LearnableBias()
      (binary_pw): HardBinaryConv()
      (bn2): BatchNorm2d(512, eps=1e-05, momentum=0.1, affine=True, track_running_stats=True)
      (move22): LearnableBias()
      (prelu2): PReLU(num_parameters=512)
      (move23): LearnableBias()
      (binary_activation): BinaryActivation()
    )
    (10): BasicBlock(
      (move11): LearnableBias()
      (binary_3x3): HardBinaryConv()
      (bn1): BatchNorm2d(512, eps=1e-05, momentum=0.1, affine=True, track_running_stats=True)
      (move12): LearnableBias()
      (prelu1): PReLU(num_parameters=512)
      (move13): LearnableBias()
      (move21): LearnableBias()
      (binary_pw): HardBinaryConv()
      (bn2): BatchNorm2d(512, eps=1e-05, momentum=0.1, affine=True, track_running_stats=True)
      (move22): LearnableBias()
      (prelu2): PReLU(num_parameters=512)
      (move23): LearnableBias()
      (binary_activation): BinaryActivation()
    )
    (11): BasicBlock(
      (move11): LearnableBias()
      (binary_3x3): HardBinaryConv()
      (bn1): BatchNorm2d(512, eps=1e-05, momentum=0.1, affine=True, track_running_stats=True)
      (move12): LearnableBias()
      (prelu1): PReLU(num_parameters=512)
      (move13): LearnableBias()
      (move21): LearnableBias()
      (binary_pw): HardBinaryConv()
      (bn2): BatchNorm2d(512, eps=1e-05, momentum=0.1, affine=True, track_running_stats=True)
      (move22): LearnableBias()
      (prelu2): PReLU(num_parameters=512)
      (move23): LearnableBias()
      (binary_activation): BinaryActivation()
    )
    (12): BasicBlock(
      (move11): LearnableBias()
      (binary_3x3): HardBinaryConv()
      (bn1): BatchNorm2d(512, eps=1e-05, momentum=0.1, affine=True, track_running_stats=True)
      (move12): LearnableBias()
      (prelu1): PReLU(num_parameters=512)
      (move13): LearnableBias()
      (move21): LearnableBias()
      (binary_pw_down1): HardBinaryConv()
      (binary_pw_down2): HardBinaryConv()
      (bn2_1): BatchNorm2d(512, eps=1e-05, momentum=0.1, affine=True, track_running_stats=True)
      (bn2_2): BatchNorm2d(512, eps=1e-05, momentum=0.1, affine=True, track_running_stats=True)
      (move22): LearnableBias()
      (prelu2): PReLU(num_parameters=1024)
      (move23): LearnableBias()
      (binary_activation): BinaryActivation()
      (pooling): AvgPool2d(kernel_size=2, stride=2, padding=0)
    )
    (13): BasicBlock(
      (move11): LearnableBias()
      (binary_3x3): HardBinaryConv()
      (bn1): BatchNorm2d(1024, eps=1e-05, momentum=0.1, affine=True, track_running_stats=True)
      (move12): LearnableBias()
      (prelu1): PReLU(num_parameters=1024)
      (move13): LearnableBias()
      (move21): LearnableBias()
      (binary_pw): HardBinaryConv()
      (bn2): BatchNorm2d(1024, eps=1e-05, momentum=0.1, affine=True, track_running_stats=True)
      (move22): LearnableBias()
      (prelu2): PReLU(num_parameters=1024)
      (move23): LearnableBias()
      (binary_activation): BinaryActivation()
    )
  )
  (pool1): AdaptiveAvgPool2d(output_size=1)
  (fc): Linear(in_features=1024, out_features=1000, bias=True)
)
2020-12-20 22:39:04,234 args = Namespace(batch_size=256, data='/datasets/imagenet', epochs=256, label_smooth=0.1, learning_rate=0.0005, momentum=0.9, save='./models', teacher='resnet34', weight_decay=0.0, workers=40)
2020-12-20 22:39:06,717 student:
2020-12-20 22:39:06,718 reactnet(
  (feature): ModuleList(
    (0): firstconv3x3(
      (conv1): Conv2d(3, 32, kernel_size=(3, 3), stride=(2, 2), padding=(1, 1), bias=False)
      (bn1): BatchNorm2d(32, eps=1e-05, momentum=0.1, affine=True, track_running_stats=True)
    )
    (1): BasicBlock(
      (move11): LearnableBias()
      (binary_3x3): HardBinaryConv()
      (bn1): BatchNorm2d(32, eps=1e-05, momentum=0.1, affine=True, track_running_stats=True)
      (move12): LearnableBias()
      (prelu1): PReLU(num_parameters=32)
      (move13): LearnableBias()
      (move21): LearnableBias()
      (binary_pw_down1): HardBinaryConv()
      (binary_pw_down2): HardBinaryConv()
      (bn2_1): BatchNorm2d(32, eps=1e-05, momentum=0.1, affine=True, track_running_stats=True)
      (bn2_2): BatchNorm2d(32, eps=1e-05, momentum=0.1, affine=True, track_running_stats=True)
      (move22): LearnableBias()
      (prelu2): PReLU(num_parameters=64)
      (move23): LearnableBias()
      (binary_activation): BinaryActivation()
      (pooling): AvgPool2d(kernel_size=2, stride=2, padding=0)
    )
    (2): BasicBlock(
      (move11): LearnableBias()
      (binary_3x3): HardBinaryConv()
      (bn1): BatchNorm2d(64, eps=1e-05, momentum=0.1, affine=True, track_running_stats=True)
      (move12): LearnableBias()
      (prelu1): PReLU(num_parameters=64)
      (move13): LearnableBias()
      (move21): LearnableBias()
      (binary_pw_down1): HardBinaryConv()
      (binary_pw_down2): HardBinaryConv()
      (bn2_1): BatchNorm2d(64, eps=1e-05, momentum=0.1, affine=True, track_running_stats=True)
      (bn2_2): BatchNorm2d(64, eps=1e-05, momentum=0.1, affine=True, track_running_stats=True)
      (move22): LearnableBias()
      (prelu2): PReLU(num_parameters=128)
      (move23): LearnableBias()
      (binary_activation): BinaryActivation()
      (pooling): AvgPool2d(kernel_size=2, stride=2, padding=0)
    )
    (3): BasicBlock(
      (move11): LearnableBias()
      (binary_3x3): HardBinaryConv()
      (bn1): BatchNorm2d(128, eps=1e-05, momentum=0.1, affine=True, track_running_stats=True)
      (move12): LearnableBias()
      (prelu1): PReLU(num_parameters=128)
      (move13): LearnableBias()
      (move21): LearnableBias()
      (binary_pw): HardBinaryConv()
      (bn2): BatchNorm2d(128, eps=1e-05, momentum=0.1, affine=True, track_running_stats=True)
      (move22): LearnableBias()
      (prelu2): PReLU(num_parameters=128)
      (move23): LearnableBias()
      (binary_activation): BinaryActivation()
    )
    (4): BasicBlock(
      (move11): LearnableBias()
      (binary_3x3): HardBinaryConv()
      (bn1): BatchNorm2d(128, eps=1e-05, momentum=0.1, affine=True, track_running_stats=True)
      (move12): LearnableBias()
      (prelu1): PReLU(num_parameters=128)
      (move13): LearnableBias()
      (move21): LearnableBias()
      (binary_pw_down1): HardBinaryConv()
      (binary_pw_down2): HardBinaryConv()
      (bn2_1): BatchNorm2d(128, eps=1e-05, momentum=0.1, affine=True, track_running_stats=True)
      (bn2_2): BatchNorm2d(128, eps=1e-05, momentum=0.1, affine=True, track_running_stats=True)
      (move22): LearnableBias()
      (prelu2): PReLU(num_parameters=256)
      (move23): LearnableBias()
      (binary_activation): BinaryActivation()
      (pooling): AvgPool2d(kernel_size=2, stride=2, padding=0)
    )
    (5): BasicBlock(
      (move11): LearnableBias()
      (binary_3x3): HardBinaryConv()
      (bn1): BatchNorm2d(256, eps=1e-05, momentum=0.1, affine=True, track_running_stats=True)
      (move12): LearnableBias()
      (prelu1): PReLU(num_parameters=256)
      (move13): LearnableBias()
      (move21): LearnableBias()
      (binary_pw): HardBinaryConv()
      (bn2): BatchNorm2d(256, eps=1e-05, momentum=0.1, affine=True, track_running_stats=True)
      (move22): LearnableBias()
      (prelu2): PReLU(num_parameters=256)
      (move23): LearnableBias()
      (binary_activation): BinaryActivation()
    )
    (6): BasicBlock(
      (move11): LearnableBias()
      (binary_3x3): HardBinaryConv()
      (bn1): BatchNorm2d(256, eps=1e-05, momentum=0.1, affine=True, track_running_stats=True)
      (move12): LearnableBias()
      (prelu1): PReLU(num_parameters=256)
      (move13): LearnableBias()
      (move21): LearnableBias()
      (binary_pw_down1): HardBinaryConv()
      (binary_pw_down2): HardBinaryConv()
      (bn2_1): BatchNorm2d(256, eps=1e-05, momentum=0.1, affine=True, track_running_stats=True)
      (bn2_2): BatchNorm2d(256, eps=1e-05, momentum=0.1, affine=True, track_running_stats=True)
      (move22): LearnableBias()
      (prelu2): PReLU(num_parameters=512)
      (move23): LearnableBias()
      (binary_activation): BinaryActivation()
      (pooling): AvgPool2d(kernel_size=2, stride=2, padding=0)
    )
    (7): BasicBlock(
      (move11): LearnableBias()
      (binary_3x3): HardBinaryConv()
      (bn1): BatchNorm2d(512, eps=1e-05, momentum=0.1, affine=True, track_running_stats=True)
      (move12): LearnableBias()
      (prelu1): PReLU(num_parameters=512)
      (move13): LearnableBias()
      (move21): LearnableBias()
      (binary_pw): HardBinaryConv()
      (bn2): BatchNorm2d(512, eps=1e-05, momentum=0.1, affine=True, track_running_stats=True)
      (move22): LearnableBias()
      (prelu2): PReLU(num_parameters=512)
      (move23): LearnableBias()
      (binary_activation): BinaryActivation()
    )
    (8): BasicBlock(
      (move11): LearnableBias()
      (binary_3x3): HardBinaryConv()
      (bn1): BatchNorm2d(512, eps=1e-05, momentum=0.1, affine=True, track_running_stats=True)
      (move12): LearnableBias()
      (prelu1): PReLU(num_parameters=512)
      (move13): LearnableBias()
      (move21): LearnableBias()
      (binary_pw): HardBinaryConv()
      (bn2): BatchNorm2d(512, eps=1e-05, momentum=0.1, affine=True, track_running_stats=True)
      (move22): LearnableBias()
      (prelu2): PReLU(num_parameters=512)
      (move23): LearnableBias()
      (binary_activation): BinaryActivation()
    )
    (9): BasicBlock(
      (move11): LearnableBias()
      (binary_3x3): HardBinaryConv()
      (bn1): BatchNorm2d(512, eps=1e-05, momentum=0.1, affine=True, track_running_stats=True)
      (move12): LearnableBias()
      (prelu1): PReLU(num_parameters=512)
      (move13): LearnableBias()
      (move21): LearnableBias()
      (binary_pw): HardBinaryConv()
      (bn2): BatchNorm2d(512, eps=1e-05, momentum=0.1, affine=True, track_running_stats=True)
      (move22): LearnableBias()
      (prelu2): PReLU(num_parameters=512)
      (move23): LearnableBias()
      (binary_activation): BinaryActivation()
    )
    (10): BasicBlock(
      (move11): LearnableBias()
      (binary_3x3): HardBinaryConv()
      (bn1): BatchNorm2d(512, eps=1e-05, momentum=0.1, affine=True, track_running_stats=True)
      (move12): LearnableBias()
      (prelu1): PReLU(num_parameters=512)
      (move13): LearnableBias()
      (move21): LearnableBias()
      (binary_pw): HardBinaryConv()
      (bn2): BatchNorm2d(512, eps=1e-05, momentum=0.1, affine=True, track_running_stats=True)
      (move22): LearnableBias()
      (prelu2): PReLU(num_parameters=512)
      (move23): LearnableBias()
      (binary_activation): BinaryActivation()
    )
    (11): BasicBlock(
      (move11): LearnableBias()
      (binary_3x3): HardBinaryConv()
      (bn1): BatchNorm2d(512, eps=1e-05, momentum=0.1, affine=True, track_running_stats=True)
      (move12): LearnableBias()
      (prelu1): PReLU(num_parameters=512)
      (move13): LearnableBias()
      (move21): LearnableBias()
      (binary_pw): HardBinaryConv()
      (bn2): BatchNorm2d(512, eps=1e-05, momentum=0.1, affine=True, track_running_stats=True)
      (move22): LearnableBias()
      (prelu2): PReLU(num_parameters=512)
      (move23): LearnableBias()
      (binary_activation): BinaryActivation()
    )
    (12): BasicBlock(
      (move11): LearnableBias()
      (binary_3x3): HardBinaryConv()
      (bn1): BatchNorm2d(512, eps=1e-05, momentum=0.1, affine=True, track_running_stats=True)
      (move12): LearnableBias()
      (prelu1): PReLU(num_parameters=512)
      (move13): LearnableBias()
      (move21): LearnableBias()
      (binary_pw_down1): HardBinaryConv()
      (binary_pw_down2): HardBinaryConv()
      (bn2_1): BatchNorm2d(512, eps=1e-05, momentum=0.1, affine=True, track_running_stats=True)
      (bn2_2): BatchNorm2d(512, eps=1e-05, momentum=0.1, affine=True, track_running_stats=True)
      (move22): LearnableBias()
      (prelu2): PReLU(num_parameters=1024)
      (move23): LearnableBias()
      (binary_activation): BinaryActivation()
      (pooling): AvgPool2d(kernel_size=2, stride=2, padding=0)
    )
    (13): BasicBlock(
      (move11): LearnableBias()
      (binary_3x3): HardBinaryConv()
      (bn1): BatchNorm2d(1024, eps=1e-05, momentum=0.1, affine=True, track_running_stats=True)
      (move12): LearnableBias()
      (prelu1): PReLU(num_parameters=1024)
      (move13): LearnableBias()
      (move21): LearnableBias()
      (binary_pw): HardBinaryConv()
      (bn2): BatchNorm2d(1024, eps=1e-05, momentum=0.1, affine=True, track_running_stats=True)
      (move22): LearnableBias()
      (prelu2): PReLU(num_parameters=1024)
      (move23): LearnableBias()
      (binary_activation): BinaryActivation()
    )
  )
  (pool1): AdaptiveAvgPool2d(output_size=1)
  (fc): Linear(in_features=1024, out_features=1000, bias=True)
)
2020-12-20 22:40:19,815 args = Namespace(batch_size=256, data='/datasets/imagenet', epochs=256, label_smooth=0.1, learning_rate=0.0005, momentum=0.9, save='./models', teacher='resnet34', weight_decay=0.0, workers=40)
2020-12-20 22:40:22,273 student:
2020-12-20 22:40:22,274 reactnet(
  (feature): ModuleList(
    (0): firstconv3x3(
      (conv1): Conv2d(3, 32, kernel_size=(3, 3), stride=(2, 2), padding=(1, 1), bias=False)
      (bn1): BatchNorm2d(32, eps=1e-05, momentum=0.1, affine=True, track_running_stats=True)
    )
    (1): BasicBlock(
      (move11): LearnableBias()
      (binary_3x3): HardBinaryConv()
      (bn1): BatchNorm2d(32, eps=1e-05, momentum=0.1, affine=True, track_running_stats=True)
      (move12): LearnableBias()
      (prelu1): PReLU(num_parameters=32)
      (move13): LearnableBias()
      (move21): LearnableBias()
      (binary_pw_down1): HardBinaryConv()
      (binary_pw_down2): HardBinaryConv()
      (bn2_1): BatchNorm2d(32, eps=1e-05, momentum=0.1, affine=True, track_running_stats=True)
      (bn2_2): BatchNorm2d(32, eps=1e-05, momentum=0.1, affine=True, track_running_stats=True)
      (move22): LearnableBias()
      (prelu2): PReLU(num_parameters=64)
      (move23): LearnableBias()
      (binary_activation): BinaryActivation()
      (pooling): AvgPool2d(kernel_size=2, stride=2, padding=0)
    )
    (2): BasicBlock(
      (move11): LearnableBias()
      (binary_3x3): HardBinaryConv()
      (bn1): BatchNorm2d(64, eps=1e-05, momentum=0.1, affine=True, track_running_stats=True)
      (move12): LearnableBias()
      (prelu1): PReLU(num_parameters=64)
      (move13): LearnableBias()
      (move21): LearnableBias()
      (binary_pw_down1): HardBinaryConv()
      (binary_pw_down2): HardBinaryConv()
      (bn2_1): BatchNorm2d(64, eps=1e-05, momentum=0.1, affine=True, track_running_stats=True)
      (bn2_2): BatchNorm2d(64, eps=1e-05, momentum=0.1, affine=True, track_running_stats=True)
      (move22): LearnableBias()
      (prelu2): PReLU(num_parameters=128)
      (move23): LearnableBias()
      (binary_activation): BinaryActivation()
      (pooling): AvgPool2d(kernel_size=2, stride=2, padding=0)
    )
    (3): BasicBlock(
      (move11): LearnableBias()
      (binary_3x3): HardBinaryConv()
      (bn1): BatchNorm2d(128, eps=1e-05, momentum=0.1, affine=True, track_running_stats=True)
      (move12): LearnableBias()
      (prelu1): PReLU(num_parameters=128)
      (move13): LearnableBias()
      (move21): LearnableBias()
      (binary_pw): HardBinaryConv()
      (bn2): BatchNorm2d(128, eps=1e-05, momentum=0.1, affine=True, track_running_stats=True)
      (move22): LearnableBias()
      (prelu2): PReLU(num_parameters=128)
      (move23): LearnableBias()
      (binary_activation): BinaryActivation()
    )
    (4): BasicBlock(
      (move11): LearnableBias()
      (binary_3x3): HardBinaryConv()
      (bn1): BatchNorm2d(128, eps=1e-05, momentum=0.1, affine=True, track_running_stats=True)
      (move12): LearnableBias()
      (prelu1): PReLU(num_parameters=128)
      (move13): LearnableBias()
      (move21): LearnableBias()
      (binary_pw_down1): HardBinaryConv()
      (binary_pw_down2): HardBinaryConv()
      (bn2_1): BatchNorm2d(128, eps=1e-05, momentum=0.1, affine=True, track_running_stats=True)
      (bn2_2): BatchNorm2d(128, eps=1e-05, momentum=0.1, affine=True, track_running_stats=True)
      (move22): LearnableBias()
      (prelu2): PReLU(num_parameters=256)
      (move23): LearnableBias()
      (binary_activation): BinaryActivation()
      (pooling): AvgPool2d(kernel_size=2, stride=2, padding=0)
    )
    (5): BasicBlock(
      (move11): LearnableBias()
      (binary_3x3): HardBinaryConv()
      (bn1): BatchNorm2d(256, eps=1e-05, momentum=0.1, affine=True, track_running_stats=True)
      (move12): LearnableBias()
      (prelu1): PReLU(num_parameters=256)
      (move13): LearnableBias()
      (move21): LearnableBias()
      (binary_pw): HardBinaryConv()
      (bn2): BatchNorm2d(256, eps=1e-05, momentum=0.1, affine=True, track_running_stats=True)
      (move22): LearnableBias()
      (prelu2): PReLU(num_parameters=256)
      (move23): LearnableBias()
      (binary_activation): BinaryActivation()
    )
    (6): BasicBlock(
      (move11): LearnableBias()
      (binary_3x3): HardBinaryConv()
      (bn1): BatchNorm2d(256, eps=1e-05, momentum=0.1, affine=True, track_running_stats=True)
      (move12): LearnableBias()
      (prelu1): PReLU(num_parameters=256)
      (move13): LearnableBias()
      (move21): LearnableBias()
      (binary_pw_down1): HardBinaryConv()
      (binary_pw_down2): HardBinaryConv()
      (bn2_1): BatchNorm2d(256, eps=1e-05, momentum=0.1, affine=True, track_running_stats=True)
      (bn2_2): BatchNorm2d(256, eps=1e-05, momentum=0.1, affine=True, track_running_stats=True)
      (move22): LearnableBias()
      (prelu2): PReLU(num_parameters=512)
      (move23): LearnableBias()
      (binary_activation): BinaryActivation()
      (pooling): AvgPool2d(kernel_size=2, stride=2, padding=0)
    )
    (7): BasicBlock(
      (move11): LearnableBias()
      (binary_3x3): HardBinaryConv()
      (bn1): BatchNorm2d(512, eps=1e-05, momentum=0.1, affine=True, track_running_stats=True)
      (move12): LearnableBias()
      (prelu1): PReLU(num_parameters=512)
      (move13): LearnableBias()
      (move21): LearnableBias()
      (binary_pw): HardBinaryConv()
      (bn2): BatchNorm2d(512, eps=1e-05, momentum=0.1, affine=True, track_running_stats=True)
      (move22): LearnableBias()
      (prelu2): PReLU(num_parameters=512)
      (move23): LearnableBias()
      (binary_activation): BinaryActivation()
    )
    (8): BasicBlock(
      (move11): LearnableBias()
      (binary_3x3): HardBinaryConv()
      (bn1): BatchNorm2d(512, eps=1e-05, momentum=0.1, affine=True, track_running_stats=True)
      (move12): LearnableBias()
      (prelu1): PReLU(num_parameters=512)
      (move13): LearnableBias()
      (move21): LearnableBias()
      (binary_pw): HardBinaryConv()
      (bn2): BatchNorm2d(512, eps=1e-05, momentum=0.1, affine=True, track_running_stats=True)
      (move22): LearnableBias()
      (prelu2): PReLU(num_parameters=512)
      (move23): LearnableBias()
      (binary_activation): BinaryActivation()
    )
    (9): BasicBlock(
      (move11): LearnableBias()
      (binary_3x3): HardBinaryConv()
      (bn1): BatchNorm2d(512, eps=1e-05, momentum=0.1, affine=True, track_running_stats=True)
      (move12): LearnableBias()
      (prelu1): PReLU(num_parameters=512)
      (move13): LearnableBias()
      (move21): LearnableBias()
      (binary_pw): HardBinaryConv()
      (bn2): BatchNorm2d(512, eps=1e-05, momentum=0.1, affine=True, track_running_stats=True)
      (move22): LearnableBias()
      (prelu2): PReLU(num_parameters=512)
      (move23): LearnableBias()
      (binary_activation): BinaryActivation()
    )
    (10): BasicBlock(
      (move11): LearnableBias()
      (binary_3x3): HardBinaryConv()
      (bn1): BatchNorm2d(512, eps=1e-05, momentum=0.1, affine=True, track_running_stats=True)
      (move12): LearnableBias()
      (prelu1): PReLU(num_parameters=512)
      (move13): LearnableBias()
      (move21): LearnableBias()
      (binary_pw): HardBinaryConv()
      (bn2): BatchNorm2d(512, eps=1e-05, momentum=0.1, affine=True, track_running_stats=True)
      (move22): LearnableBias()
      (prelu2): PReLU(num_parameters=512)
      (move23): LearnableBias()
      (binary_activation): BinaryActivation()
    )
    (11): BasicBlock(
      (move11): LearnableBias()
      (binary_3x3): HardBinaryConv()
      (bn1): BatchNorm2d(512, eps=1e-05, momentum=0.1, affine=True, track_running_stats=True)
      (move12): LearnableBias()
      (prelu1): PReLU(num_parameters=512)
      (move13): LearnableBias()
      (move21): LearnableBias()
      (binary_pw): HardBinaryConv()
      (bn2): BatchNorm2d(512, eps=1e-05, momentum=0.1, affine=True, track_running_stats=True)
      (move22): LearnableBias()
      (prelu2): PReLU(num_parameters=512)
      (move23): LearnableBias()
      (binary_activation): BinaryActivation()
    )
    (12): BasicBlock(
      (move11): LearnableBias()
      (binary_3x3): HardBinaryConv()
      (bn1): BatchNorm2d(512, eps=1e-05, momentum=0.1, affine=True, track_running_stats=True)
      (move12): LearnableBias()
      (prelu1): PReLU(num_parameters=512)
      (move13): LearnableBias()
      (move21): LearnableBias()
      (binary_pw_down1): HardBinaryConv()
      (binary_pw_down2): HardBinaryConv()
      (bn2_1): BatchNorm2d(512, eps=1e-05, momentum=0.1, affine=True, track_running_stats=True)
      (bn2_2): BatchNorm2d(512, eps=1e-05, momentum=0.1, affine=True, track_running_stats=True)
      (move22): LearnableBias()
      (prelu2): PReLU(num_parameters=1024)
      (move23): LearnableBias()
      (binary_activation): BinaryActivation()
      (pooling): AvgPool2d(kernel_size=2, stride=2, padding=0)
    )
    (13): BasicBlock(
      (move11): LearnableBias()
      (binary_3x3): HardBinaryConv()
      (bn1): BatchNorm2d(1024, eps=1e-05, momentum=0.1, affine=True, track_running_stats=True)
      (move12): LearnableBias()
      (prelu1): PReLU(num_parameters=1024)
      (move13): LearnableBias()
      (move21): LearnableBias()
      (binary_pw): HardBinaryConv()
      (bn2): BatchNorm2d(1024, eps=1e-05, momentum=0.1, affine=True, track_running_stats=True)
      (move22): LearnableBias()
      (prelu2): PReLU(num_parameters=1024)
      (move23): LearnableBias()
      (binary_activation): BinaryActivation()
    )
  )
  (pool1): AdaptiveAvgPool2d(output_size=1)
  (fc): Linear(in_features=1024, out_features=10, bias=True)
)
2020-12-20 22:42:14,502 args = Namespace(batch_size=256, data='/datasets/imagenet', epochs=256, label_smooth=0.1, learning_rate=0.0005, momentum=0.9, save='./models', teacher='resnet34', weight_decay=0.0, workers=4)
2020-12-20 22:42:16,950 student:
2020-12-20 22:42:16,950 reactnet(
  (feature): ModuleList(
    (0): firstconv3x3(
      (conv1): Conv2d(3, 32, kernel_size=(3, 3), stride=(2, 2), padding=(1, 1), bias=False)
      (bn1): BatchNorm2d(32, eps=1e-05, momentum=0.1, affine=True, track_running_stats=True)
    )
    (1): BasicBlock(
      (move11): LearnableBias()
      (binary_3x3): HardBinaryConv()
      (bn1): BatchNorm2d(32, eps=1e-05, momentum=0.1, affine=True, track_running_stats=True)
      (move12): LearnableBias()
      (prelu1): PReLU(num_parameters=32)
      (move13): LearnableBias()
      (move21): LearnableBias()
      (binary_pw_down1): HardBinaryConv()
      (binary_pw_down2): HardBinaryConv()
      (bn2_1): BatchNorm2d(32, eps=1e-05, momentum=0.1, affine=True, track_running_stats=True)
      (bn2_2): BatchNorm2d(32, eps=1e-05, momentum=0.1, affine=True, track_running_stats=True)
      (move22): LearnableBias()
      (prelu2): PReLU(num_parameters=64)
      (move23): LearnableBias()
      (binary_activation): BinaryActivation()
      (pooling): AvgPool2d(kernel_size=2, stride=2, padding=0)
    )
    (2): BasicBlock(
      (move11): LearnableBias()
      (binary_3x3): HardBinaryConv()
      (bn1): BatchNorm2d(64, eps=1e-05, momentum=0.1, affine=True, track_running_stats=True)
      (move12): LearnableBias()
      (prelu1): PReLU(num_parameters=64)
      (move13): LearnableBias()
      (move21): LearnableBias()
      (binary_pw_down1): HardBinaryConv()
      (binary_pw_down2): HardBinaryConv()
      (bn2_1): BatchNorm2d(64, eps=1e-05, momentum=0.1, affine=True, track_running_stats=True)
      (bn2_2): BatchNorm2d(64, eps=1e-05, momentum=0.1, affine=True, track_running_stats=True)
      (move22): LearnableBias()
      (prelu2): PReLU(num_parameters=128)
      (move23): LearnableBias()
      (binary_activation): BinaryActivation()
      (pooling): AvgPool2d(kernel_size=2, stride=2, padding=0)
    )
    (3): BasicBlock(
      (move11): LearnableBias()
      (binary_3x3): HardBinaryConv()
      (bn1): BatchNorm2d(128, eps=1e-05, momentum=0.1, affine=True, track_running_stats=True)
      (move12): LearnableBias()
      (prelu1): PReLU(num_parameters=128)
      (move13): LearnableBias()
      (move21): LearnableBias()
      (binary_pw): HardBinaryConv()
      (bn2): BatchNorm2d(128, eps=1e-05, momentum=0.1, affine=True, track_running_stats=True)
      (move22): LearnableBias()
      (prelu2): PReLU(num_parameters=128)
      (move23): LearnableBias()
      (binary_activation): BinaryActivation()
    )
    (4): BasicBlock(
      (move11): LearnableBias()
      (binary_3x3): HardBinaryConv()
      (bn1): BatchNorm2d(128, eps=1e-05, momentum=0.1, affine=True, track_running_stats=True)
      (move12): LearnableBias()
      (prelu1): PReLU(num_parameters=128)
      (move13): LearnableBias()
      (move21): LearnableBias()
      (binary_pw_down1): HardBinaryConv()
      (binary_pw_down2): HardBinaryConv()
      (bn2_1): BatchNorm2d(128, eps=1e-05, momentum=0.1, affine=True, track_running_stats=True)
      (bn2_2): BatchNorm2d(128, eps=1e-05, momentum=0.1, affine=True, track_running_stats=True)
      (move22): LearnableBias()
      (prelu2): PReLU(num_parameters=256)
      (move23): LearnableBias()
      (binary_activation): BinaryActivation()
      (pooling): AvgPool2d(kernel_size=2, stride=2, padding=0)
    )
    (5): BasicBlock(
      (move11): LearnableBias()
      (binary_3x3): HardBinaryConv()
      (bn1): BatchNorm2d(256, eps=1e-05, momentum=0.1, affine=True, track_running_stats=True)
      (move12): LearnableBias()
      (prelu1): PReLU(num_parameters=256)
      (move13): LearnableBias()
      (move21): LearnableBias()
      (binary_pw): HardBinaryConv()
      (bn2): BatchNorm2d(256, eps=1e-05, momentum=0.1, affine=True, track_running_stats=True)
      (move22): LearnableBias()
      (prelu2): PReLU(num_parameters=256)
      (move23): LearnableBias()
      (binary_activation): BinaryActivation()
    )
    (6): BasicBlock(
      (move11): LearnableBias()
      (binary_3x3): HardBinaryConv()
      (bn1): BatchNorm2d(256, eps=1e-05, momentum=0.1, affine=True, track_running_stats=True)
      (move12): LearnableBias()
      (prelu1): PReLU(num_parameters=256)
      (move13): LearnableBias()
      (move21): LearnableBias()
      (binary_pw_down1): HardBinaryConv()
      (binary_pw_down2): HardBinaryConv()
      (bn2_1): BatchNorm2d(256, eps=1e-05, momentum=0.1, affine=True, track_running_stats=True)
      (bn2_2): BatchNorm2d(256, eps=1e-05, momentum=0.1, affine=True, track_running_stats=True)
      (move22): LearnableBias()
      (prelu2): PReLU(num_parameters=512)
      (move23): LearnableBias()
      (binary_activation): BinaryActivation()
      (pooling): AvgPool2d(kernel_size=2, stride=2, padding=0)
    )
    (7): BasicBlock(
      (move11): LearnableBias()
      (binary_3x3): HardBinaryConv()
      (bn1): BatchNorm2d(512, eps=1e-05, momentum=0.1, affine=True, track_running_stats=True)
      (move12): LearnableBias()
      (prelu1): PReLU(num_parameters=512)
      (move13): LearnableBias()
      (move21): LearnableBias()
      (binary_pw): HardBinaryConv()
      (bn2): BatchNorm2d(512, eps=1e-05, momentum=0.1, affine=True, track_running_stats=True)
      (move22): LearnableBias()
      (prelu2): PReLU(num_parameters=512)
      (move23): LearnableBias()
      (binary_activation): BinaryActivation()
    )
    (8): BasicBlock(
      (move11): LearnableBias()
      (binary_3x3): HardBinaryConv()
      (bn1): BatchNorm2d(512, eps=1e-05, momentum=0.1, affine=True, track_running_stats=True)
      (move12): LearnableBias()
      (prelu1): PReLU(num_parameters=512)
      (move13): LearnableBias()
      (move21): LearnableBias()
      (binary_pw): HardBinaryConv()
      (bn2): BatchNorm2d(512, eps=1e-05, momentum=0.1, affine=True, track_running_stats=True)
      (move22): LearnableBias()
      (prelu2): PReLU(num_parameters=512)
      (move23): LearnableBias()
      (binary_activation): BinaryActivation()
    )
    (9): BasicBlock(
      (move11): LearnableBias()
      (binary_3x3): HardBinaryConv()
      (bn1): BatchNorm2d(512, eps=1e-05, momentum=0.1, affine=True, track_running_stats=True)
      (move12): LearnableBias()
      (prelu1): PReLU(num_parameters=512)
      (move13): LearnableBias()
      (move21): LearnableBias()
      (binary_pw): HardBinaryConv()
      (bn2): BatchNorm2d(512, eps=1e-05, momentum=0.1, affine=True, track_running_stats=True)
      (move22): LearnableBias()
      (prelu2): PReLU(num_parameters=512)
      (move23): LearnableBias()
      (binary_activation): BinaryActivation()
    )
    (10): BasicBlock(
      (move11): LearnableBias()
      (binary_3x3): HardBinaryConv()
      (bn1): BatchNorm2d(512, eps=1e-05, momentum=0.1, affine=True, track_running_stats=True)
      (move12): LearnableBias()
      (prelu1): PReLU(num_parameters=512)
      (move13): LearnableBias()
      (move21): LearnableBias()
      (binary_pw): HardBinaryConv()
      (bn2): BatchNorm2d(512, eps=1e-05, momentum=0.1, affine=True, track_running_stats=True)
      (move22): LearnableBias()
      (prelu2): PReLU(num_parameters=512)
      (move23): LearnableBias()
      (binary_activation): BinaryActivation()
    )
    (11): BasicBlock(
      (move11): LearnableBias()
      (binary_3x3): HardBinaryConv()
      (bn1): BatchNorm2d(512, eps=1e-05, momentum=0.1, affine=True, track_running_stats=True)
      (move12): LearnableBias()
      (prelu1): PReLU(num_parameters=512)
      (move13): LearnableBias()
      (move21): LearnableBias()
      (binary_pw): HardBinaryConv()
      (bn2): BatchNorm2d(512, eps=1e-05, momentum=0.1, affine=True, track_running_stats=True)
      (move22): LearnableBias()
      (prelu2): PReLU(num_parameters=512)
      (move23): LearnableBias()
      (binary_activation): BinaryActivation()
    )
    (12): BasicBlock(
      (move11): LearnableBias()
      (binary_3x3): HardBinaryConv()
      (bn1): BatchNorm2d(512, eps=1e-05, momentum=0.1, affine=True, track_running_stats=True)
      (move12): LearnableBias()
      (prelu1): PReLU(num_parameters=512)
      (move13): LearnableBias()
      (move21): LearnableBias()
      (binary_pw_down1): HardBinaryConv()
      (binary_pw_down2): HardBinaryConv()
      (bn2_1): BatchNorm2d(512, eps=1e-05, momentum=0.1, affine=True, track_running_stats=True)
      (bn2_2): BatchNorm2d(512, eps=1e-05, momentum=0.1, affine=True, track_running_stats=True)
      (move22): LearnableBias()
      (prelu2): PReLU(num_parameters=1024)
      (move23): LearnableBias()
      (binary_activation): BinaryActivation()
      (pooling): AvgPool2d(kernel_size=2, stride=2, padding=0)
    )
    (13): BasicBlock(
      (move11): LearnableBias()
      (binary_3x3): HardBinaryConv()
      (bn1): BatchNorm2d(1024, eps=1e-05, momentum=0.1, affine=True, track_running_stats=True)
      (move12): LearnableBias()
      (prelu1): PReLU(num_parameters=1024)
      (move13): LearnableBias()
      (move21): LearnableBias()
      (binary_pw): HardBinaryConv()
      (bn2): BatchNorm2d(1024, eps=1e-05, momentum=0.1, affine=True, track_running_stats=True)
      (move22): LearnableBias()
      (prelu2): PReLU(num_parameters=1024)
      (move23): LearnableBias()
      (binary_activation): BinaryActivation()
    )
  )
  (pool1): AdaptiveAvgPool2d(output_size=1)
  (fc): Linear(in_features=1024, out_features=10, bias=True)
)
2020-12-20 22:43:14,557 args = Namespace(batch_size=256, data='/datasets/imagenet', epochs=256, label_smooth=0.1, learning_rate=0.0005, momentum=0.9, save='./models', teacher='resnet34', weight_decay=0.0, workers=4)
2020-12-20 22:43:17,027 student:
2020-12-20 22:43:17,027 reactnet(
  (feature): ModuleList(
    (0): firstconv3x3(
      (conv1): Conv2d(3, 32, kernel_size=(3, 3), stride=(2, 2), padding=(1, 1), bias=False)
      (bn1): BatchNorm2d(32, eps=1e-05, momentum=0.1, affine=True, track_running_stats=True)
    )
    (1): BasicBlock(
      (move11): LearnableBias()
      (binary_3x3): HardBinaryConv()
      (bn1): BatchNorm2d(32, eps=1e-05, momentum=0.1, affine=True, track_running_stats=True)
      (move12): LearnableBias()
      (prelu1): PReLU(num_parameters=32)
      (move13): LearnableBias()
      (move21): LearnableBias()
      (binary_pw_down1): HardBinaryConv()
      (binary_pw_down2): HardBinaryConv()
      (bn2_1): BatchNorm2d(32, eps=1e-05, momentum=0.1, affine=True, track_running_stats=True)
      (bn2_2): BatchNorm2d(32, eps=1e-05, momentum=0.1, affine=True, track_running_stats=True)
      (move22): LearnableBias()
      (prelu2): PReLU(num_parameters=64)
      (move23): LearnableBias()
      (binary_activation): BinaryActivation()
      (pooling): AvgPool2d(kernel_size=2, stride=2, padding=0)
    )
    (2): BasicBlock(
      (move11): LearnableBias()
      (binary_3x3): HardBinaryConv()
      (bn1): BatchNorm2d(64, eps=1e-05, momentum=0.1, affine=True, track_running_stats=True)
      (move12): LearnableBias()
      (prelu1): PReLU(num_parameters=64)
      (move13): LearnableBias()
      (move21): LearnableBias()
      (binary_pw_down1): HardBinaryConv()
      (binary_pw_down2): HardBinaryConv()
      (bn2_1): BatchNorm2d(64, eps=1e-05, momentum=0.1, affine=True, track_running_stats=True)
      (bn2_2): BatchNorm2d(64, eps=1e-05, momentum=0.1, affine=True, track_running_stats=True)
      (move22): LearnableBias()
      (prelu2): PReLU(num_parameters=128)
      (move23): LearnableBias()
      (binary_activation): BinaryActivation()
      (pooling): AvgPool2d(kernel_size=2, stride=2, padding=0)
    )
    (3): BasicBlock(
      (move11): LearnableBias()
      (binary_3x3): HardBinaryConv()
      (bn1): BatchNorm2d(128, eps=1e-05, momentum=0.1, affine=True, track_running_stats=True)
      (move12): LearnableBias()
      (prelu1): PReLU(num_parameters=128)
      (move13): LearnableBias()
      (move21): LearnableBias()
      (binary_pw): HardBinaryConv()
      (bn2): BatchNorm2d(128, eps=1e-05, momentum=0.1, affine=True, track_running_stats=True)
      (move22): LearnableBias()
      (prelu2): PReLU(num_parameters=128)
      (move23): LearnableBias()
      (binary_activation): BinaryActivation()
    )
    (4): BasicBlock(
      (move11): LearnableBias()
      (binary_3x3): HardBinaryConv()
      (bn1): BatchNorm2d(128, eps=1e-05, momentum=0.1, affine=True, track_running_stats=True)
      (move12): LearnableBias()
      (prelu1): PReLU(num_parameters=128)
      (move13): LearnableBias()
      (move21): LearnableBias()
      (binary_pw_down1): HardBinaryConv()
      (binary_pw_down2): HardBinaryConv()
      (bn2_1): BatchNorm2d(128, eps=1e-05, momentum=0.1, affine=True, track_running_stats=True)
      (bn2_2): BatchNorm2d(128, eps=1e-05, momentum=0.1, affine=True, track_running_stats=True)
      (move22): LearnableBias()
      (prelu2): PReLU(num_parameters=256)
      (move23): LearnableBias()
      (binary_activation): BinaryActivation()
      (pooling): AvgPool2d(kernel_size=2, stride=2, padding=0)
    )
    (5): BasicBlock(
      (move11): LearnableBias()
      (binary_3x3): HardBinaryConv()
      (bn1): BatchNorm2d(256, eps=1e-05, momentum=0.1, affine=True, track_running_stats=True)
      (move12): LearnableBias()
      (prelu1): PReLU(num_parameters=256)
      (move13): LearnableBias()
      (move21): LearnableBias()
      (binary_pw): HardBinaryConv()
      (bn2): BatchNorm2d(256, eps=1e-05, momentum=0.1, affine=True, track_running_stats=True)
      (move22): LearnableBias()
      (prelu2): PReLU(num_parameters=256)
      (move23): LearnableBias()
      (binary_activation): BinaryActivation()
    )
    (6): BasicBlock(
      (move11): LearnableBias()
      (binary_3x3): HardBinaryConv()
      (bn1): BatchNorm2d(256, eps=1e-05, momentum=0.1, affine=True, track_running_stats=True)
      (move12): LearnableBias()
      (prelu1): PReLU(num_parameters=256)
      (move13): LearnableBias()
      (move21): LearnableBias()
      (binary_pw_down1): HardBinaryConv()
      (binary_pw_down2): HardBinaryConv()
      (bn2_1): BatchNorm2d(256, eps=1e-05, momentum=0.1, affine=True, track_running_stats=True)
      (bn2_2): BatchNorm2d(256, eps=1e-05, momentum=0.1, affine=True, track_running_stats=True)
      (move22): LearnableBias()
      (prelu2): PReLU(num_parameters=512)
      (move23): LearnableBias()
      (binary_activation): BinaryActivation()
      (pooling): AvgPool2d(kernel_size=2, stride=2, padding=0)
    )
    (7): BasicBlock(
      (move11): LearnableBias()
      (binary_3x3): HardBinaryConv()
      (bn1): BatchNorm2d(512, eps=1e-05, momentum=0.1, affine=True, track_running_stats=True)
      (move12): LearnableBias()
      (prelu1): PReLU(num_parameters=512)
      (move13): LearnableBias()
      (move21): LearnableBias()
      (binary_pw): HardBinaryConv()
      (bn2): BatchNorm2d(512, eps=1e-05, momentum=0.1, affine=True, track_running_stats=True)
      (move22): LearnableBias()
      (prelu2): PReLU(num_parameters=512)
      (move23): LearnableBias()
      (binary_activation): BinaryActivation()
    )
    (8): BasicBlock(
      (move11): LearnableBias()
      (binary_3x3): HardBinaryConv()
      (bn1): BatchNorm2d(512, eps=1e-05, momentum=0.1, affine=True, track_running_stats=True)
      (move12): LearnableBias()
      (prelu1): PReLU(num_parameters=512)
      (move13): LearnableBias()
      (move21): LearnableBias()
      (binary_pw): HardBinaryConv()
      (bn2): BatchNorm2d(512, eps=1e-05, momentum=0.1, affine=True, track_running_stats=True)
      (move22): LearnableBias()
      (prelu2): PReLU(num_parameters=512)
      (move23): LearnableBias()
      (binary_activation): BinaryActivation()
    )
    (9): BasicBlock(
      (move11): LearnableBias()
      (binary_3x3): HardBinaryConv()
      (bn1): BatchNorm2d(512, eps=1e-05, momentum=0.1, affine=True, track_running_stats=True)
      (move12): LearnableBias()
      (prelu1): PReLU(num_parameters=512)
      (move13): LearnableBias()
      (move21): LearnableBias()
      (binary_pw): HardBinaryConv()
      (bn2): BatchNorm2d(512, eps=1e-05, momentum=0.1, affine=True, track_running_stats=True)
      (move22): LearnableBias()
      (prelu2): PReLU(num_parameters=512)
      (move23): LearnableBias()
      (binary_activation): BinaryActivation()
    )
    (10): BasicBlock(
      (move11): LearnableBias()
      (binary_3x3): HardBinaryConv()
      (bn1): BatchNorm2d(512, eps=1e-05, momentum=0.1, affine=True, track_running_stats=True)
      (move12): LearnableBias()
      (prelu1): PReLU(num_parameters=512)
      (move13): LearnableBias()
      (move21): LearnableBias()
      (binary_pw): HardBinaryConv()
      (bn2): BatchNorm2d(512, eps=1e-05, momentum=0.1, affine=True, track_running_stats=True)
      (move22): LearnableBias()
      (prelu2): PReLU(num_parameters=512)
      (move23): LearnableBias()
      (binary_activation): BinaryActivation()
    )
    (11): BasicBlock(
      (move11): LearnableBias()
      (binary_3x3): HardBinaryConv()
      (bn1): BatchNorm2d(512, eps=1e-05, momentum=0.1, affine=True, track_running_stats=True)
      (move12): LearnableBias()
      (prelu1): PReLU(num_parameters=512)
      (move13): LearnableBias()
      (move21): LearnableBias()
      (binary_pw): HardBinaryConv()
      (bn2): BatchNorm2d(512, eps=1e-05, momentum=0.1, affine=True, track_running_stats=True)
      (move22): LearnableBias()
      (prelu2): PReLU(num_parameters=512)
      (move23): LearnableBias()
      (binary_activation): BinaryActivation()
    )
    (12): BasicBlock(
      (move11): LearnableBias()
      (binary_3x3): HardBinaryConv()
      (bn1): BatchNorm2d(512, eps=1e-05, momentum=0.1, affine=True, track_running_stats=True)
      (move12): LearnableBias()
      (prelu1): PReLU(num_parameters=512)
      (move13): LearnableBias()
      (move21): LearnableBias()
      (binary_pw_down1): HardBinaryConv()
      (binary_pw_down2): HardBinaryConv()
      (bn2_1): BatchNorm2d(512, eps=1e-05, momentum=0.1, affine=True, track_running_stats=True)
      (bn2_2): BatchNorm2d(512, eps=1e-05, momentum=0.1, affine=True, track_running_stats=True)
      (move22): LearnableBias()
      (prelu2): PReLU(num_parameters=1024)
      (move23): LearnableBias()
      (binary_activation): BinaryActivation()
      (pooling): AvgPool2d(kernel_size=2, stride=2, padding=0)
    )
    (13): BasicBlock(
      (move11): LearnableBias()
      (binary_3x3): HardBinaryConv()
      (bn1): BatchNorm2d(1024, eps=1e-05, momentum=0.1, affine=True, track_running_stats=True)
      (move12): LearnableBias()
      (prelu1): PReLU(num_parameters=1024)
      (move13): LearnableBias()
      (move21): LearnableBias()
      (binary_pw): HardBinaryConv()
      (bn2): BatchNorm2d(1024, eps=1e-05, momentum=0.1, affine=True, track_running_stats=True)
      (move22): LearnableBias()
      (prelu2): PReLU(num_parameters=1024)
      (move23): LearnableBias()
      (binary_activation): BinaryActivation()
    )
  )
  (pool1): AdaptiveAvgPool2d(output_size=1)
  (fc): Linear(in_features=1024, out_features=10, bias=True)
)
2020-12-20 22:44:20,265 args = Namespace(batch_size=256, data='/datasets/imagenet', epochs=256, label_smooth=0.1, learning_rate=0.0005, momentum=0.9, save='./models', teacher='resnet34', weight_decay=0.0, workers=4)
2020-12-20 22:44:22,638 student:
2020-12-20 22:44:22,639 reactnet(
  (feature): ModuleList(
    (0): firstconv3x3(
      (conv1): Conv2d(3, 8, kernel_size=(3, 3), stride=(2, 2), padding=(1, 1), bias=False)
      (bn1): BatchNorm2d(8, eps=1e-05, momentum=0.1, affine=True, track_running_stats=True)
    )
    (1): BasicBlock(
      (move11): LearnableBias()
      (binary_3x3): HardBinaryConv()
      (bn1): BatchNorm2d(8, eps=1e-05, momentum=0.1, affine=True, track_running_stats=True)
      (move12): LearnableBias()
      (prelu1): PReLU(num_parameters=8)
      (move13): LearnableBias()
      (move21): LearnableBias()
      (binary_pw_down1): HardBinaryConv()
      (binary_pw_down2): HardBinaryConv()
      (bn2_1): BatchNorm2d(8, eps=1e-05, momentum=0.1, affine=True, track_running_stats=True)
      (bn2_2): BatchNorm2d(8, eps=1e-05, momentum=0.1, affine=True, track_running_stats=True)
      (move22): LearnableBias()
      (prelu2): PReLU(num_parameters=16)
      (move23): LearnableBias()
      (binary_activation): BinaryActivation()
      (pooling): AvgPool2d(kernel_size=2, stride=2, padding=0)
    )
    (2): BasicBlock(
      (move11): LearnableBias()
      (binary_3x3): HardBinaryConv()
      (bn1): BatchNorm2d(16, eps=1e-05, momentum=0.1, affine=True, track_running_stats=True)
      (move12): LearnableBias()
      (prelu1): PReLU(num_parameters=16)
      (move13): LearnableBias()
      (move21): LearnableBias()
      (binary_pw_down1): HardBinaryConv()
      (binary_pw_down2): HardBinaryConv()
      (bn2_1): BatchNorm2d(16, eps=1e-05, momentum=0.1, affine=True, track_running_stats=True)
      (bn2_2): BatchNorm2d(16, eps=1e-05, momentum=0.1, affine=True, track_running_stats=True)
      (move22): LearnableBias()
      (prelu2): PReLU(num_parameters=32)
      (move23): LearnableBias()
      (binary_activation): BinaryActivation()
      (pooling): AvgPool2d(kernel_size=2, stride=2, padding=0)
    )
    (3): BasicBlock(
      (move11): LearnableBias()
      (binary_3x3): HardBinaryConv()
      (bn1): BatchNorm2d(32, eps=1e-05, momentum=0.1, affine=True, track_running_stats=True)
      (move12): LearnableBias()
      (prelu1): PReLU(num_parameters=32)
      (move13): LearnableBias()
      (move21): LearnableBias()
      (binary_pw): HardBinaryConv()
      (bn2): BatchNorm2d(32, eps=1e-05, momentum=0.1, affine=True, track_running_stats=True)
      (move22): LearnableBias()
      (prelu2): PReLU(num_parameters=32)
      (move23): LearnableBias()
      (binary_activation): BinaryActivation()
    )
    (4): BasicBlock(
      (move11): LearnableBias()
      (binary_3x3): HardBinaryConv()
      (bn1): BatchNorm2d(32, eps=1e-05, momentum=0.1, affine=True, track_running_stats=True)
      (move12): LearnableBias()
      (prelu1): PReLU(num_parameters=32)
      (move13): LearnableBias()
      (move21): LearnableBias()
      (binary_pw_down1): HardBinaryConv()
      (binary_pw_down2): HardBinaryConv()
      (bn2_1): BatchNorm2d(32, eps=1e-05, momentum=0.1, affine=True, track_running_stats=True)
      (bn2_2): BatchNorm2d(32, eps=1e-05, momentum=0.1, affine=True, track_running_stats=True)
      (move22): LearnableBias()
      (prelu2): PReLU(num_parameters=64)
      (move23): LearnableBias()
      (binary_activation): BinaryActivation()
      (pooling): AvgPool2d(kernel_size=2, stride=2, padding=0)
    )
    (5): BasicBlock(
      (move11): LearnableBias()
      (binary_3x3): HardBinaryConv()
      (bn1): BatchNorm2d(64, eps=1e-05, momentum=0.1, affine=True, track_running_stats=True)
      (move12): LearnableBias()
      (prelu1): PReLU(num_parameters=64)
      (move13): LearnableBias()
      (move21): LearnableBias()
      (binary_pw): HardBinaryConv()
      (bn2): BatchNorm2d(64, eps=1e-05, momentum=0.1, affine=True, track_running_stats=True)
      (move22): LearnableBias()
      (prelu2): PReLU(num_parameters=64)
      (move23): LearnableBias()
      (binary_activation): BinaryActivation()
    )
    (6): BasicBlock(
      (move11): LearnableBias()
      (binary_3x3): HardBinaryConv()
      (bn1): BatchNorm2d(64, eps=1e-05, momentum=0.1, affine=True, track_running_stats=True)
      (move12): LearnableBias()
      (prelu1): PReLU(num_parameters=64)
      (move13): LearnableBias()
      (move21): LearnableBias()
      (binary_pw_down1): HardBinaryConv()
      (binary_pw_down2): HardBinaryConv()
      (bn2_1): BatchNorm2d(64, eps=1e-05, momentum=0.1, affine=True, track_running_stats=True)
      (bn2_2): BatchNorm2d(64, eps=1e-05, momentum=0.1, affine=True, track_running_stats=True)
      (move22): LearnableBias()
      (prelu2): PReLU(num_parameters=128)
      (move23): LearnableBias()
      (binary_activation): BinaryActivation()
      (pooling): AvgPool2d(kernel_size=2, stride=2, padding=0)
    )
    (7): BasicBlock(
      (move11): LearnableBias()
      (binary_3x3): HardBinaryConv()
      (bn1): BatchNorm2d(128, eps=1e-05, momentum=0.1, affine=True, track_running_stats=True)
      (move12): LearnableBias()
      (prelu1): PReLU(num_parameters=128)
      (move13): LearnableBias()
      (move21): LearnableBias()
      (binary_pw): HardBinaryConv()
      (bn2): BatchNorm2d(128, eps=1e-05, momentum=0.1, affine=True, track_running_stats=True)
      (move22): LearnableBias()
      (prelu2): PReLU(num_parameters=128)
      (move23): LearnableBias()
      (binary_activation): BinaryActivation()
    )
    (8): BasicBlock(
      (move11): LearnableBias()
      (binary_3x3): HardBinaryConv()
      (bn1): BatchNorm2d(128, eps=1e-05, momentum=0.1, affine=True, track_running_stats=True)
      (move12): LearnableBias()
      (prelu1): PReLU(num_parameters=128)
      (move13): LearnableBias()
      (move21): LearnableBias()
      (binary_pw): HardBinaryConv()
      (bn2): BatchNorm2d(128, eps=1e-05, momentum=0.1, affine=True, track_running_stats=True)
      (move22): LearnableBias()
      (prelu2): PReLU(num_parameters=128)
      (move23): LearnableBias()
      (binary_activation): BinaryActivation()
    )
    (9): BasicBlock(
      (move11): LearnableBias()
      (binary_3x3): HardBinaryConv()
      (bn1): BatchNorm2d(128, eps=1e-05, momentum=0.1, affine=True, track_running_stats=True)
      (move12): LearnableBias()
      (prelu1): PReLU(num_parameters=128)
      (move13): LearnableBias()
      (move21): LearnableBias()
      (binary_pw): HardBinaryConv()
      (bn2): BatchNorm2d(128, eps=1e-05, momentum=0.1, affine=True, track_running_stats=True)
      (move22): LearnableBias()
      (prelu2): PReLU(num_parameters=128)
      (move23): LearnableBias()
      (binary_activation): BinaryActivation()
    )
    (10): BasicBlock(
      (move11): LearnableBias()
      (binary_3x3): HardBinaryConv()
      (bn1): BatchNorm2d(128, eps=1e-05, momentum=0.1, affine=True, track_running_stats=True)
      (move12): LearnableBias()
      (prelu1): PReLU(num_parameters=128)
      (move13): LearnableBias()
      (move21): LearnableBias()
      (binary_pw): HardBinaryConv()
      (bn2): BatchNorm2d(128, eps=1e-05, momentum=0.1, affine=True, track_running_stats=True)
      (move22): LearnableBias()
      (prelu2): PReLU(num_parameters=128)
      (move23): LearnableBias()
      (binary_activation): BinaryActivation()
    )
    (11): BasicBlock(
      (move11): LearnableBias()
      (binary_3x3): HardBinaryConv()
      (bn1): BatchNorm2d(128, eps=1e-05, momentum=0.1, affine=True, track_running_stats=True)
      (move12): LearnableBias()
      (prelu1): PReLU(num_parameters=128)
      (move13): LearnableBias()
      (move21): LearnableBias()
      (binary_pw): HardBinaryConv()
      (bn2): BatchNorm2d(128, eps=1e-05, momentum=0.1, affine=True, track_running_stats=True)
      (move22): LearnableBias()
      (prelu2): PReLU(num_parameters=128)
      (move23): LearnableBias()
      (binary_activation): BinaryActivation()
    )
    (12): BasicBlock(
      (move11): LearnableBias()
      (binary_3x3): HardBinaryConv()
      (bn1): BatchNorm2d(128, eps=1e-05, momentum=0.1, affine=True, track_running_stats=True)
      (move12): LearnableBias()
      (prelu1): PReLU(num_parameters=128)
      (move13): LearnableBias()
      (move21): LearnableBias()
      (binary_pw_down1): HardBinaryConv()
      (binary_pw_down2): HardBinaryConv()
      (bn2_1): BatchNorm2d(128, eps=1e-05, momentum=0.1, affine=True, track_running_stats=True)
      (bn2_2): BatchNorm2d(128, eps=1e-05, momentum=0.1, affine=True, track_running_stats=True)
      (move22): LearnableBias()
      (prelu2): PReLU(num_parameters=256)
      (move23): LearnableBias()
      (binary_activation): BinaryActivation()
      (pooling): AvgPool2d(kernel_size=2, stride=2, padding=0)
    )
    (13): BasicBlock(
      (move11): LearnableBias()
      (binary_3x3): HardBinaryConv()
      (bn1): BatchNorm2d(256, eps=1e-05, momentum=0.1, affine=True, track_running_stats=True)
      (move12): LearnableBias()
      (prelu1): PReLU(num_parameters=256)
      (move13): LearnableBias()
      (move21): LearnableBias()
      (binary_pw): HardBinaryConv()
      (bn2): BatchNorm2d(256, eps=1e-05, momentum=0.1, affine=True, track_running_stats=True)
      (move22): LearnableBias()
      (prelu2): PReLU(num_parameters=256)
      (move23): LearnableBias()
      (binary_activation): BinaryActivation()
    )
  )
  (pool1): AdaptiveAvgPool2d(output_size=1)
  (fc): Linear(in_features=256, out_features=10, bias=True)
)
2020-12-20 22:45:56,947 args = Namespace(batch_size=256, data='/datasets/imagenet', epochs=256, label_smooth=0.1, learning_rate=0.0005, momentum=0.9, save='./models', teacher='resnet34', weight_decay=0.0, workers=4)
2020-12-20 22:45:59,212 student:
2020-12-20 22:45:59,212 reactnet(
  (feature): ModuleList(
    (0): firstconv3x3(
      (conv1): Conv2d(3, 8, kernel_size=(3, 3), stride=(2, 2), padding=(1, 1), bias=False)
      (bn1): BatchNorm2d(8, eps=1e-05, momentum=0.1, affine=True, track_running_stats=True)
    )
    (1): BasicBlock(
      (move11): LearnableBias()
      (binary_3x3): HardBinaryConv()
      (bn1): BatchNorm2d(8, eps=1e-05, momentum=0.1, affine=True, track_running_stats=True)
      (move12): LearnableBias()
      (prelu1): PReLU(num_parameters=8)
      (move13): LearnableBias()
      (move21): LearnableBias()
      (binary_pw_down1): HardBinaryConv()
      (binary_pw_down2): HardBinaryConv()
      (bn2_1): BatchNorm2d(8, eps=1e-05, momentum=0.1, affine=True, track_running_stats=True)
      (bn2_2): BatchNorm2d(8, eps=1e-05, momentum=0.1, affine=True, track_running_stats=True)
      (move22): LearnableBias()
      (prelu2): PReLU(num_parameters=16)
      (move23): LearnableBias()
      (binary_activation): BinaryActivation()
      (pooling): AvgPool2d(kernel_size=2, stride=2, padding=0)
    )
    (2): BasicBlock(
      (move11): LearnableBias()
      (binary_3x3): HardBinaryConv()
      (bn1): BatchNorm2d(16, eps=1e-05, momentum=0.1, affine=True, track_running_stats=True)
      (move12): LearnableBias()
      (prelu1): PReLU(num_parameters=16)
      (move13): LearnableBias()
      (move21): LearnableBias()
      (binary_pw_down1): HardBinaryConv()
      (binary_pw_down2): HardBinaryConv()
      (bn2_1): BatchNorm2d(16, eps=1e-05, momentum=0.1, affine=True, track_running_stats=True)
      (bn2_2): BatchNorm2d(16, eps=1e-05, momentum=0.1, affine=True, track_running_stats=True)
      (move22): LearnableBias()
      (prelu2): PReLU(num_parameters=32)
      (move23): LearnableBias()
      (binary_activation): BinaryActivation()
      (pooling): AvgPool2d(kernel_size=2, stride=2, padding=0)
    )
    (3): BasicBlock(
      (move11): LearnableBias()
      (binary_3x3): HardBinaryConv()
      (bn1): BatchNorm2d(32, eps=1e-05, momentum=0.1, affine=True, track_running_stats=True)
      (move12): LearnableBias()
      (prelu1): PReLU(num_parameters=32)
      (move13): LearnableBias()
      (move21): LearnableBias()
      (binary_pw): HardBinaryConv()
      (bn2): BatchNorm2d(32, eps=1e-05, momentum=0.1, affine=True, track_running_stats=True)
      (move22): LearnableBias()
      (prelu2): PReLU(num_parameters=32)
      (move23): LearnableBias()
      (binary_activation): BinaryActivation()
    )
    (4): BasicBlock(
      (move11): LearnableBias()
      (binary_3x3): HardBinaryConv()
      (bn1): BatchNorm2d(32, eps=1e-05, momentum=0.1, affine=True, track_running_stats=True)
      (move12): LearnableBias()
      (prelu1): PReLU(num_parameters=32)
      (move13): LearnableBias()
      (move21): LearnableBias()
      (binary_pw_down1): HardBinaryConv()
      (binary_pw_down2): HardBinaryConv()
      (bn2_1): BatchNorm2d(32, eps=1e-05, momentum=0.1, affine=True, track_running_stats=True)
      (bn2_2): BatchNorm2d(32, eps=1e-05, momentum=0.1, affine=True, track_running_stats=True)
      (move22): LearnableBias()
      (prelu2): PReLU(num_parameters=64)
      (move23): LearnableBias()
      (binary_activation): BinaryActivation()
      (pooling): AvgPool2d(kernel_size=2, stride=2, padding=0)
    )
    (5): BasicBlock(
      (move11): LearnableBias()
      (binary_3x3): HardBinaryConv()
      (bn1): BatchNorm2d(64, eps=1e-05, momentum=0.1, affine=True, track_running_stats=True)
      (move12): LearnableBias()
      (prelu1): PReLU(num_parameters=64)
      (move13): LearnableBias()
      (move21): LearnableBias()
      (binary_pw): HardBinaryConv()
      (bn2): BatchNorm2d(64, eps=1e-05, momentum=0.1, affine=True, track_running_stats=True)
      (move22): LearnableBias()
      (prelu2): PReLU(num_parameters=64)
      (move23): LearnableBias()
      (binary_activation): BinaryActivation()
    )
    (6): BasicBlock(
      (move11): LearnableBias()
      (binary_3x3): HardBinaryConv()
      (bn1): BatchNorm2d(64, eps=1e-05, momentum=0.1, affine=True, track_running_stats=True)
      (move12): LearnableBias()
      (prelu1): PReLU(num_parameters=64)
      (move13): LearnableBias()
      (move21): LearnableBias()
      (binary_pw_down1): HardBinaryConv()
      (binary_pw_down2): HardBinaryConv()
      (bn2_1): BatchNorm2d(64, eps=1e-05, momentum=0.1, affine=True, track_running_stats=True)
      (bn2_2): BatchNorm2d(64, eps=1e-05, momentum=0.1, affine=True, track_running_stats=True)
      (move22): LearnableBias()
      (prelu2): PReLU(num_parameters=128)
      (move23): LearnableBias()
      (binary_activation): BinaryActivation()
      (pooling): AvgPool2d(kernel_size=2, stride=2, padding=0)
    )
    (7): BasicBlock(
      (move11): LearnableBias()
      (binary_3x3): HardBinaryConv()
      (bn1): BatchNorm2d(128, eps=1e-05, momentum=0.1, affine=True, track_running_stats=True)
      (move12): LearnableBias()
      (prelu1): PReLU(num_parameters=128)
      (move13): LearnableBias()
      (move21): LearnableBias()
      (binary_pw): HardBinaryConv()
      (bn2): BatchNorm2d(128, eps=1e-05, momentum=0.1, affine=True, track_running_stats=True)
      (move22): LearnableBias()
      (prelu2): PReLU(num_parameters=128)
      (move23): LearnableBias()
      (binary_activation): BinaryActivation()
    )
    (8): BasicBlock(
      (move11): LearnableBias()
      (binary_3x3): HardBinaryConv()
      (bn1): BatchNorm2d(128, eps=1e-05, momentum=0.1, affine=True, track_running_stats=True)
      (move12): LearnableBias()
      (prelu1): PReLU(num_parameters=128)
      (move13): LearnableBias()
      (move21): LearnableBias()
      (binary_pw): HardBinaryConv()
      (bn2): BatchNorm2d(128, eps=1e-05, momentum=0.1, affine=True, track_running_stats=True)
      (move22): LearnableBias()
      (prelu2): PReLU(num_parameters=128)
      (move23): LearnableBias()
      (binary_activation): BinaryActivation()
    )
    (9): BasicBlock(
      (move11): LearnableBias()
      (binary_3x3): HardBinaryConv()
      (bn1): BatchNorm2d(128, eps=1e-05, momentum=0.1, affine=True, track_running_stats=True)
      (move12): LearnableBias()
      (prelu1): PReLU(num_parameters=128)
      (move13): LearnableBias()
      (move21): LearnableBias()
      (binary_pw): HardBinaryConv()
      (bn2): BatchNorm2d(128, eps=1e-05, momentum=0.1, affine=True, track_running_stats=True)
      (move22): LearnableBias()
      (prelu2): PReLU(num_parameters=128)
      (move23): LearnableBias()
      (binary_activation): BinaryActivation()
    )
    (10): BasicBlock(
      (move11): LearnableBias()
      (binary_3x3): HardBinaryConv()
      (bn1): BatchNorm2d(128, eps=1e-05, momentum=0.1, affine=True, track_running_stats=True)
      (move12): LearnableBias()
      (prelu1): PReLU(num_parameters=128)
      (move13): LearnableBias()
      (move21): LearnableBias()
      (binary_pw): HardBinaryConv()
      (bn2): BatchNorm2d(128, eps=1e-05, momentum=0.1, affine=True, track_running_stats=True)
      (move22): LearnableBias()
      (prelu2): PReLU(num_parameters=128)
      (move23): LearnableBias()
      (binary_activation): BinaryActivation()
    )
    (11): BasicBlock(
      (move11): LearnableBias()
      (binary_3x3): HardBinaryConv()
      (bn1): BatchNorm2d(128, eps=1e-05, momentum=0.1, affine=True, track_running_stats=True)
      (move12): LearnableBias()
      (prelu1): PReLU(num_parameters=128)
      (move13): LearnableBias()
      (move21): LearnableBias()
      (binary_pw): HardBinaryConv()
      (bn2): BatchNorm2d(128, eps=1e-05, momentum=0.1, affine=True, track_running_stats=True)
      (move22): LearnableBias()
      (prelu2): PReLU(num_parameters=128)
      (move23): LearnableBias()
      (binary_activation): BinaryActivation()
    )
    (12): BasicBlock(
      (move11): LearnableBias()
      (binary_3x3): HardBinaryConv()
      (bn1): BatchNorm2d(128, eps=1e-05, momentum=0.1, affine=True, track_running_stats=True)
      (move12): LearnableBias()
      (prelu1): PReLU(num_parameters=128)
      (move13): LearnableBias()
      (move21): LearnableBias()
      (binary_pw_down1): HardBinaryConv()
      (binary_pw_down2): HardBinaryConv()
      (bn2_1): BatchNorm2d(128, eps=1e-05, momentum=0.1, affine=True, track_running_stats=True)
      (bn2_2): BatchNorm2d(128, eps=1e-05, momentum=0.1, affine=True, track_running_stats=True)
      (move22): LearnableBias()
      (prelu2): PReLU(num_parameters=256)
      (move23): LearnableBias()
      (binary_activation): BinaryActivation()
      (pooling): AvgPool2d(kernel_size=2, stride=2, padding=0)
    )
    (13): BasicBlock(
      (move11): LearnableBias()
      (binary_3x3): HardBinaryConv()
      (bn1): BatchNorm2d(256, eps=1e-05, momentum=0.1, affine=True, track_running_stats=True)
      (move12): LearnableBias()
      (prelu1): PReLU(num_parameters=256)
      (move13): LearnableBias()
      (move21): LearnableBias()
      (binary_pw): HardBinaryConv()
      (bn2): BatchNorm2d(256, eps=1e-05, momentum=0.1, affine=True, track_running_stats=True)
      (move22): LearnableBias()
      (prelu2): PReLU(num_parameters=256)
      (move23): LearnableBias()
      (binary_activation): BinaryActivation()
    )
  )
  (pool1): AdaptiveAvgPool2d(output_size=1)
  (fc): Linear(in_features=256, out_features=10, bias=True)
)
2020-12-20 22:48:14,922 args = Namespace(batch_size=256, data='/datasets/imagenet', epochs=256, label_smooth=0.1, learning_rate=0.0005, momentum=0.9, save='./models', teacher='resnet34', weight_decay=0.0, workers=4)
2020-12-20 22:48:16,429 student:
2020-12-20 22:48:16,429 reactnet(
  (feature): ModuleList(
    (0): firstconv3x3(
      (conv1): Conv2d(3, 8, kernel_size=(3, 3), stride=(2, 2), padding=(1, 1), bias=False)
      (bn1): BatchNorm2d(8, eps=1e-05, momentum=0.1, affine=True, track_running_stats=True)
    )
    (1): BasicBlock(
      (move11): LearnableBias()
      (binary_3x3): HardBinaryConv()
      (bn1): BatchNorm2d(8, eps=1e-05, momentum=0.1, affine=True, track_running_stats=True)
      (move12): LearnableBias()
      (prelu1): PReLU(num_parameters=8)
      (move13): LearnableBias()
      (move21): LearnableBias()
      (binary_pw_down1): HardBinaryConv()
      (binary_pw_down2): HardBinaryConv()
      (bn2_1): BatchNorm2d(8, eps=1e-05, momentum=0.1, affine=True, track_running_stats=True)
      (bn2_2): BatchNorm2d(8, eps=1e-05, momentum=0.1, affine=True, track_running_stats=True)
      (move22): LearnableBias()
      (prelu2): PReLU(num_parameters=16)
      (move23): LearnableBias()
      (binary_activation): BinaryActivation()
      (pooling): AvgPool2d(kernel_size=2, stride=2, padding=0)
    )
    (2): BasicBlock(
      (move11): LearnableBias()
      (binary_3x3): HardBinaryConv()
      (bn1): BatchNorm2d(16, eps=1e-05, momentum=0.1, affine=True, track_running_stats=True)
      (move12): LearnableBias()
      (prelu1): PReLU(num_parameters=16)
      (move13): LearnableBias()
      (move21): LearnableBias()
      (binary_pw_down1): HardBinaryConv()
      (binary_pw_down2): HardBinaryConv()
      (bn2_1): BatchNorm2d(16, eps=1e-05, momentum=0.1, affine=True, track_running_stats=True)
      (bn2_2): BatchNorm2d(16, eps=1e-05, momentum=0.1, affine=True, track_running_stats=True)
      (move22): LearnableBias()
      (prelu2): PReLU(num_parameters=32)
      (move23): LearnableBias()
      (binary_activation): BinaryActivation()
      (pooling): AvgPool2d(kernel_size=2, stride=2, padding=0)
    )
    (3): BasicBlock(
      (move11): LearnableBias()
      (binary_3x3): HardBinaryConv()
      (bn1): BatchNorm2d(32, eps=1e-05, momentum=0.1, affine=True, track_running_stats=True)
      (move12): LearnableBias()
      (prelu1): PReLU(num_parameters=32)
      (move13): LearnableBias()
      (move21): LearnableBias()
      (binary_pw): HardBinaryConv()
      (bn2): BatchNorm2d(32, eps=1e-05, momentum=0.1, affine=True, track_running_stats=True)
      (move22): LearnableBias()
      (prelu2): PReLU(num_parameters=32)
      (move23): LearnableBias()
      (binary_activation): BinaryActivation()
    )
    (4): BasicBlock(
      (move11): LearnableBias()
      (binary_3x3): HardBinaryConv()
      (bn1): BatchNorm2d(32, eps=1e-05, momentum=0.1, affine=True, track_running_stats=True)
      (move12): LearnableBias()
      (prelu1): PReLU(num_parameters=32)
      (move13): LearnableBias()
      (move21): LearnableBias()
      (binary_pw_down1): HardBinaryConv()
      (binary_pw_down2): HardBinaryConv()
      (bn2_1): BatchNorm2d(32, eps=1e-05, momentum=0.1, affine=True, track_running_stats=True)
      (bn2_2): BatchNorm2d(32, eps=1e-05, momentum=0.1, affine=True, track_running_stats=True)
      (move22): LearnableBias()
      (prelu2): PReLU(num_parameters=64)
      (move23): LearnableBias()
      (binary_activation): BinaryActivation()
      (pooling): AvgPool2d(kernel_size=2, stride=2, padding=0)
    )
    (5): BasicBlock(
      (move11): LearnableBias()
      (binary_3x3): HardBinaryConv()
      (bn1): BatchNorm2d(64, eps=1e-05, momentum=0.1, affine=True, track_running_stats=True)
      (move12): LearnableBias()
      (prelu1): PReLU(num_parameters=64)
      (move13): LearnableBias()
      (move21): LearnableBias()
      (binary_pw): HardBinaryConv()
      (bn2): BatchNorm2d(64, eps=1e-05, momentum=0.1, affine=True, track_running_stats=True)
      (move22): LearnableBias()
      (prelu2): PReLU(num_parameters=64)
      (move23): LearnableBias()
      (binary_activation): BinaryActivation()
    )
    (6): BasicBlock(
      (move11): LearnableBias()
      (binary_3x3): HardBinaryConv()
      (bn1): BatchNorm2d(64, eps=1e-05, momentum=0.1, affine=True, track_running_stats=True)
      (move12): LearnableBias()
      (prelu1): PReLU(num_parameters=64)
      (move13): LearnableBias()
      (move21): LearnableBias()
      (binary_pw_down1): HardBinaryConv()
      (binary_pw_down2): HardBinaryConv()
      (bn2_1): BatchNorm2d(64, eps=1e-05, momentum=0.1, affine=True, track_running_stats=True)
      (bn2_2): BatchNorm2d(64, eps=1e-05, momentum=0.1, affine=True, track_running_stats=True)
      (move22): LearnableBias()
      (prelu2): PReLU(num_parameters=128)
      (move23): LearnableBias()
      (binary_activation): BinaryActivation()
      (pooling): AvgPool2d(kernel_size=2, stride=2, padding=0)
    )
    (7): BasicBlock(
      (move11): LearnableBias()
      (binary_3x3): HardBinaryConv()
      (bn1): BatchNorm2d(128, eps=1e-05, momentum=0.1, affine=True, track_running_stats=True)
      (move12): LearnableBias()
      (prelu1): PReLU(num_parameters=128)
      (move13): LearnableBias()
      (move21): LearnableBias()
      (binary_pw): HardBinaryConv()
      (bn2): BatchNorm2d(128, eps=1e-05, momentum=0.1, affine=True, track_running_stats=True)
      (move22): LearnableBias()
      (prelu2): PReLU(num_parameters=128)
      (move23): LearnableBias()
      (binary_activation): BinaryActivation()
    )
    (8): BasicBlock(
      (move11): LearnableBias()
      (binary_3x3): HardBinaryConv()
      (bn1): BatchNorm2d(128, eps=1e-05, momentum=0.1, affine=True, track_running_stats=True)
      (move12): LearnableBias()
      (prelu1): PReLU(num_parameters=128)
      (move13): LearnableBias()
      (move21): LearnableBias()
      (binary_pw): HardBinaryConv()
      (bn2): BatchNorm2d(128, eps=1e-05, momentum=0.1, affine=True, track_running_stats=True)
      (move22): LearnableBias()
      (prelu2): PReLU(num_parameters=128)
      (move23): LearnableBias()
      (binary_activation): BinaryActivation()
    )
    (9): BasicBlock(
      (move11): LearnableBias()
      (binary_3x3): HardBinaryConv()
      (bn1): BatchNorm2d(128, eps=1e-05, momentum=0.1, affine=True, track_running_stats=True)
      (move12): LearnableBias()
      (prelu1): PReLU(num_parameters=128)
      (move13): LearnableBias()
      (move21): LearnableBias()
      (binary_pw): HardBinaryConv()
      (bn2): BatchNorm2d(128, eps=1e-05, momentum=0.1, affine=True, track_running_stats=True)
      (move22): LearnableBias()
      (prelu2): PReLU(num_parameters=128)
      (move23): LearnableBias()
      (binary_activation): BinaryActivation()
    )
    (10): BasicBlock(
      (move11): LearnableBias()
      (binary_3x3): HardBinaryConv()
      (bn1): BatchNorm2d(128, eps=1e-05, momentum=0.1, affine=True, track_running_stats=True)
      (move12): LearnableBias()
      (prelu1): PReLU(num_parameters=128)
      (move13): LearnableBias()
      (move21): LearnableBias()
      (binary_pw): HardBinaryConv()
      (bn2): BatchNorm2d(128, eps=1e-05, momentum=0.1, affine=True, track_running_stats=True)
      (move22): LearnableBias()
      (prelu2): PReLU(num_parameters=128)
      (move23): LearnableBias()
      (binary_activation): BinaryActivation()
    )
    (11): BasicBlock(
      (move11): LearnableBias()
      (binary_3x3): HardBinaryConv()
      (bn1): BatchNorm2d(128, eps=1e-05, momentum=0.1, affine=True, track_running_stats=True)
      (move12): LearnableBias()
      (prelu1): PReLU(num_parameters=128)
      (move13): LearnableBias()
      (move21): LearnableBias()
      (binary_pw): HardBinaryConv()
      (bn2): BatchNorm2d(128, eps=1e-05, momentum=0.1, affine=True, track_running_stats=True)
      (move22): LearnableBias()
      (prelu2): PReLU(num_parameters=128)
      (move23): LearnableBias()
      (binary_activation): BinaryActivation()
    )
    (12): BasicBlock(
      (move11): LearnableBias()
      (binary_3x3): HardBinaryConv()
      (bn1): BatchNorm2d(128, eps=1e-05, momentum=0.1, affine=True, track_running_stats=True)
      (move12): LearnableBias()
      (prelu1): PReLU(num_parameters=128)
      (move13): LearnableBias()
      (move21): LearnableBias()
      (binary_pw_down1): HardBinaryConv()
      (binary_pw_down2): HardBinaryConv()
      (bn2_1): BatchNorm2d(128, eps=1e-05, momentum=0.1, affine=True, track_running_stats=True)
      (bn2_2): BatchNorm2d(128, eps=1e-05, momentum=0.1, affine=True, track_running_stats=True)
      (move22): LearnableBias()
      (prelu2): PReLU(num_parameters=256)
      (move23): LearnableBias()
      (binary_activation): BinaryActivation()
      (pooling): AvgPool2d(kernel_size=2, stride=2, padding=0)
    )
    (13): BasicBlock(
      (move11): LearnableBias()
      (binary_3x3): HardBinaryConv()
      (bn1): BatchNorm2d(256, eps=1e-05, momentum=0.1, affine=True, track_running_stats=True)
      (move12): LearnableBias()
      (prelu1): PReLU(num_parameters=256)
      (move13): LearnableBias()
      (move21): LearnableBias()
      (binary_pw): HardBinaryConv()
      (bn2): BatchNorm2d(256, eps=1e-05, momentum=0.1, affine=True, track_running_stats=True)
      (move22): LearnableBias()
      (prelu2): PReLU(num_parameters=256)
      (move23): LearnableBias()
      (binary_activation): BinaryActivation()
    )
  )
  (pool1): AdaptiveAvgPool2d(output_size=1)
  (fc): Linear(in_features=256, out_features=10, bias=True)
)
2020-12-20 22:49:37,399 args = Namespace(batch_size=256, data='/datasets/imagenet', epochs=256, label_smooth=0.1, learning_rate=0.0005, momentum=0.9, save='./models', teacher='resnet34', weight_decay=0.0, workers=4)
2020-12-20 22:49:38,836 student:
2020-12-20 22:49:38,837 reactnet(
  (feature): ModuleList(
    (0): firstconv3x3(
      (conv1): Conv2d(3, 8, kernel_size=(3, 3), stride=(2, 2), padding=(1, 1), bias=False)
      (bn1): BatchNorm2d(8, eps=1e-05, momentum=0.1, affine=True, track_running_stats=True)
    )
    (1): BasicBlock(
      (move11): LearnableBias()
      (binary_3x3): HardBinaryConv()
      (bn1): BatchNorm2d(8, eps=1e-05, momentum=0.1, affine=True, track_running_stats=True)
      (move12): LearnableBias()
      (prelu1): PReLU(num_parameters=8)
      (move13): LearnableBias()
      (move21): LearnableBias()
      (binary_pw_down1): HardBinaryConv()
      (binary_pw_down2): HardBinaryConv()
      (bn2_1): BatchNorm2d(8, eps=1e-05, momentum=0.1, affine=True, track_running_stats=True)
      (bn2_2): BatchNorm2d(8, eps=1e-05, momentum=0.1, affine=True, track_running_stats=True)
      (move22): LearnableBias()
      (prelu2): PReLU(num_parameters=16)
      (move23): LearnableBias()
      (binary_activation): BinaryActivation()
      (pooling): AvgPool2d(kernel_size=2, stride=2, padding=0)
    )
    (2): BasicBlock(
      (move11): LearnableBias()
      (binary_3x3): HardBinaryConv()
      (bn1): BatchNorm2d(16, eps=1e-05, momentum=0.1, affine=True, track_running_stats=True)
      (move12): LearnableBias()
      (prelu1): PReLU(num_parameters=16)
      (move13): LearnableBias()
      (move21): LearnableBias()
      (binary_pw_down1): HardBinaryConv()
      (binary_pw_down2): HardBinaryConv()
      (bn2_1): BatchNorm2d(16, eps=1e-05, momentum=0.1, affine=True, track_running_stats=True)
      (bn2_2): BatchNorm2d(16, eps=1e-05, momentum=0.1, affine=True, track_running_stats=True)
      (move22): LearnableBias()
      (prelu2): PReLU(num_parameters=32)
      (move23): LearnableBias()
      (binary_activation): BinaryActivation()
      (pooling): AvgPool2d(kernel_size=2, stride=2, padding=0)
    )
    (3): BasicBlock(
      (move11): LearnableBias()
      (binary_3x3): HardBinaryConv()
      (bn1): BatchNorm2d(32, eps=1e-05, momentum=0.1, affine=True, track_running_stats=True)
      (move12): LearnableBias()
      (prelu1): PReLU(num_parameters=32)
      (move13): LearnableBias()
      (move21): LearnableBias()
      (binary_pw): HardBinaryConv()
      (bn2): BatchNorm2d(32, eps=1e-05, momentum=0.1, affine=True, track_running_stats=True)
      (move22): LearnableBias()
      (prelu2): PReLU(num_parameters=32)
      (move23): LearnableBias()
      (binary_activation): BinaryActivation()
    )
    (4): BasicBlock(
      (move11): LearnableBias()
      (binary_3x3): HardBinaryConv()
      (bn1): BatchNorm2d(32, eps=1e-05, momentum=0.1, affine=True, track_running_stats=True)
      (move12): LearnableBias()
      (prelu1): PReLU(num_parameters=32)
      (move13): LearnableBias()
      (move21): LearnableBias()
      (binary_pw_down1): HardBinaryConv()
      (binary_pw_down2): HardBinaryConv()
      (bn2_1): BatchNorm2d(32, eps=1e-05, momentum=0.1, affine=True, track_running_stats=True)
      (bn2_2): BatchNorm2d(32, eps=1e-05, momentum=0.1, affine=True, track_running_stats=True)
      (move22): LearnableBias()
      (prelu2): PReLU(num_parameters=64)
      (move23): LearnableBias()
      (binary_activation): BinaryActivation()
      (pooling): AvgPool2d(kernel_size=2, stride=2, padding=0)
    )
    (5): BasicBlock(
      (move11): LearnableBias()
      (binary_3x3): HardBinaryConv()
      (bn1): BatchNorm2d(64, eps=1e-05, momentum=0.1, affine=True, track_running_stats=True)
      (move12): LearnableBias()
      (prelu1): PReLU(num_parameters=64)
      (move13): LearnableBias()
      (move21): LearnableBias()
      (binary_pw): HardBinaryConv()
      (bn2): BatchNorm2d(64, eps=1e-05, momentum=0.1, affine=True, track_running_stats=True)
      (move22): LearnableBias()
      (prelu2): PReLU(num_parameters=64)
      (move23): LearnableBias()
      (binary_activation): BinaryActivation()
    )
    (6): BasicBlock(
      (move11): LearnableBias()
      (binary_3x3): HardBinaryConv()
      (bn1): BatchNorm2d(64, eps=1e-05, momentum=0.1, affine=True, track_running_stats=True)
      (move12): LearnableBias()
      (prelu1): PReLU(num_parameters=64)
      (move13): LearnableBias()
      (move21): LearnableBias()
      (binary_pw_down1): HardBinaryConv()
      (binary_pw_down2): HardBinaryConv()
      (bn2_1): BatchNorm2d(64, eps=1e-05, momentum=0.1, affine=True, track_running_stats=True)
      (bn2_2): BatchNorm2d(64, eps=1e-05, momentum=0.1, affine=True, track_running_stats=True)
      (move22): LearnableBias()
      (prelu2): PReLU(num_parameters=128)
      (move23): LearnableBias()
      (binary_activation): BinaryActivation()
      (pooling): AvgPool2d(kernel_size=2, stride=2, padding=0)
    )
    (7): BasicBlock(
      (move11): LearnableBias()
      (binary_3x3): HardBinaryConv()
      (bn1): BatchNorm2d(128, eps=1e-05, momentum=0.1, affine=True, track_running_stats=True)
      (move12): LearnableBias()
      (prelu1): PReLU(num_parameters=128)
      (move13): LearnableBias()
      (move21): LearnableBias()
      (binary_pw): HardBinaryConv()
      (bn2): BatchNorm2d(128, eps=1e-05, momentum=0.1, affine=True, track_running_stats=True)
      (move22): LearnableBias()
      (prelu2): PReLU(num_parameters=128)
      (move23): LearnableBias()
      (binary_activation): BinaryActivation()
    )
    (8): BasicBlock(
      (move11): LearnableBias()
      (binary_3x3): HardBinaryConv()
      (bn1): BatchNorm2d(128, eps=1e-05, momentum=0.1, affine=True, track_running_stats=True)
      (move12): LearnableBias()
      (prelu1): PReLU(num_parameters=128)
      (move13): LearnableBias()
      (move21): LearnableBias()
      (binary_pw): HardBinaryConv()
      (bn2): BatchNorm2d(128, eps=1e-05, momentum=0.1, affine=True, track_running_stats=True)
      (move22): LearnableBias()
      (prelu2): PReLU(num_parameters=128)
      (move23): LearnableBias()
      (binary_activation): BinaryActivation()
    )
    (9): BasicBlock(
      (move11): LearnableBias()
      (binary_3x3): HardBinaryConv()
      (bn1): BatchNorm2d(128, eps=1e-05, momentum=0.1, affine=True, track_running_stats=True)
      (move12): LearnableBias()
      (prelu1): PReLU(num_parameters=128)
      (move13): LearnableBias()
      (move21): LearnableBias()
      (binary_pw): HardBinaryConv()
      (bn2): BatchNorm2d(128, eps=1e-05, momentum=0.1, affine=True, track_running_stats=True)
      (move22): LearnableBias()
      (prelu2): PReLU(num_parameters=128)
      (move23): LearnableBias()
      (binary_activation): BinaryActivation()
    )
    (10): BasicBlock(
      (move11): LearnableBias()
      (binary_3x3): HardBinaryConv()
      (bn1): BatchNorm2d(128, eps=1e-05, momentum=0.1, affine=True, track_running_stats=True)
      (move12): LearnableBias()
      (prelu1): PReLU(num_parameters=128)
      (move13): LearnableBias()
      (move21): LearnableBias()
      (binary_pw): HardBinaryConv()
      (bn2): BatchNorm2d(128, eps=1e-05, momentum=0.1, affine=True, track_running_stats=True)
      (move22): LearnableBias()
      (prelu2): PReLU(num_parameters=128)
      (move23): LearnableBias()
      (binary_activation): BinaryActivation()
    )
    (11): BasicBlock(
      (move11): LearnableBias()
      (binary_3x3): HardBinaryConv()
      (bn1): BatchNorm2d(128, eps=1e-05, momentum=0.1, affine=True, track_running_stats=True)
      (move12): LearnableBias()
      (prelu1): PReLU(num_parameters=128)
      (move13): LearnableBias()
      (move21): LearnableBias()
      (binary_pw): HardBinaryConv()
      (bn2): BatchNorm2d(128, eps=1e-05, momentum=0.1, affine=True, track_running_stats=True)
      (move22): LearnableBias()
      (prelu2): PReLU(num_parameters=128)
      (move23): LearnableBias()
      (binary_activation): BinaryActivation()
    )
    (12): BasicBlock(
      (move11): LearnableBias()
      (binary_3x3): HardBinaryConv()
      (bn1): BatchNorm2d(128, eps=1e-05, momentum=0.1, affine=True, track_running_stats=True)
      (move12): LearnableBias()
      (prelu1): PReLU(num_parameters=128)
      (move13): LearnableBias()
      (move21): LearnableBias()
      (binary_pw_down1): HardBinaryConv()
      (binary_pw_down2): HardBinaryConv()
      (bn2_1): BatchNorm2d(128, eps=1e-05, momentum=0.1, affine=True, track_running_stats=True)
      (bn2_2): BatchNorm2d(128, eps=1e-05, momentum=0.1, affine=True, track_running_stats=True)
      (move22): LearnableBias()
      (prelu2): PReLU(num_parameters=256)
      (move23): LearnableBias()
      (binary_activation): BinaryActivation()
      (pooling): AvgPool2d(kernel_size=2, stride=2, padding=0)
    )
    (13): BasicBlock(
      (move11): LearnableBias()
      (binary_3x3): HardBinaryConv()
      (bn1): BatchNorm2d(256, eps=1e-05, momentum=0.1, affine=True, track_running_stats=True)
      (move12): LearnableBias()
      (prelu1): PReLU(num_parameters=256)
      (move13): LearnableBias()
      (move21): LearnableBias()
      (binary_pw): HardBinaryConv()
      (bn2): BatchNorm2d(256, eps=1e-05, momentum=0.1, affine=True, track_running_stats=True)
      (move22): LearnableBias()
      (prelu2): PReLU(num_parameters=256)
      (move23): LearnableBias()
      (binary_activation): BinaryActivation()
    )
  )
  (pool1): AdaptiveAvgPool2d(output_size=1)
  (fc): Linear(in_features=256, out_features=10, bias=True)
)
2020-12-21 19:44:55,782 args = Namespace(batch_size=128, data='/datasets/imagenet', epochs=100, label_smooth=0.1, learning_rate=0.01, momentum=0.9, save='./models', teacher='resnet34', weight_decay=0.0, workers=4)
2020-12-21 19:44:57,286 student:
2020-12-21 19:44:57,286 reactnet(
  (feature): ModuleList(
    (0): firstconv3x3(
      (conv1): Conv2d(3, 16, kernel_size=(3, 3), stride=(1, 1), padding=(1, 1), bias=False)
      (bn1): BatchNorm2d(16, eps=1e-05, momentum=0.1, affine=True, track_running_stats=True)
    )
    (1): BasicBlock(
      (move11): LearnableBias()
      (binary_3x3): HardBinaryConv()
      (bn1): BatchNorm2d(16, eps=1e-05, momentum=0.1, affine=True, track_running_stats=True)
      (move12): LearnableBias()
      (prelu1): PReLU(num_parameters=16)
      (move13): LearnableBias()
      (move21): LearnableBias()
      (binary_pw_down1): HardBinaryConv()
      (binary_pw_down2): HardBinaryConv()
      (bn2_1): BatchNorm2d(16, eps=1e-05, momentum=0.1, affine=True, track_running_stats=True)
      (bn2_2): BatchNorm2d(16, eps=1e-05, momentum=0.1, affine=True, track_running_stats=True)
      (move22): LearnableBias()
      (prelu2): PReLU(num_parameters=32)
      (move23): LearnableBias()
      (binary_activation): BinaryActivation()
      (pooling): AvgPool2d(kernel_size=2, stride=2, padding=0)
    )
    (2): BasicBlock(
      (move11): LearnableBias()
      (binary_3x3): HardBinaryConv()
      (bn1): BatchNorm2d(32, eps=1e-05, momentum=0.1, affine=True, track_running_stats=True)
      (move12): LearnableBias()
      (prelu1): PReLU(num_parameters=32)
      (move13): LearnableBias()
      (move21): LearnableBias()
      (binary_pw_down1): HardBinaryConv()
      (binary_pw_down2): HardBinaryConv()
      (bn2_1): BatchNorm2d(32, eps=1e-05, momentum=0.1, affine=True, track_running_stats=True)
      (bn2_2): BatchNorm2d(32, eps=1e-05, momentum=0.1, affine=True, track_running_stats=True)
      (move22): LearnableBias()
      (prelu2): PReLU(num_parameters=64)
      (move23): LearnableBias()
      (binary_activation): BinaryActivation()
      (pooling): AvgPool2d(kernel_size=2, stride=2, padding=0)
    )
    (3): BasicBlock(
      (move11): LearnableBias()
      (binary_3x3): HardBinaryConv()
      (bn1): BatchNorm2d(64, eps=1e-05, momentum=0.1, affine=True, track_running_stats=True)
      (move12): LearnableBias()
      (prelu1): PReLU(num_parameters=64)
      (move13): LearnableBias()
      (move21): LearnableBias()
      (binary_pw): HardBinaryConv()
      (bn2): BatchNorm2d(64, eps=1e-05, momentum=0.1, affine=True, track_running_stats=True)
      (move22): LearnableBias()
      (prelu2): PReLU(num_parameters=64)
      (move23): LearnableBias()
      (binary_activation): BinaryActivation()
    )
    (4): BasicBlock(
      (move11): LearnableBias()
      (binary_3x3): HardBinaryConv()
      (bn1): BatchNorm2d(64, eps=1e-05, momentum=0.1, affine=True, track_running_stats=True)
      (move12): LearnableBias()
      (prelu1): PReLU(num_parameters=64)
      (move13): LearnableBias()
      (move21): LearnableBias()
      (binary_pw_down1): HardBinaryConv()
      (binary_pw_down2): HardBinaryConv()
      (bn2_1): BatchNorm2d(64, eps=1e-05, momentum=0.1, affine=True, track_running_stats=True)
      (bn2_2): BatchNorm2d(64, eps=1e-05, momentum=0.1, affine=True, track_running_stats=True)
      (move22): LearnableBias()
      (prelu2): PReLU(num_parameters=128)
      (move23): LearnableBias()
      (binary_activation): BinaryActivation()
      (pooling): AvgPool2d(kernel_size=2, stride=2, padding=0)
    )
    (5): BasicBlock(
      (move11): LearnableBias()
      (binary_3x3): HardBinaryConv()
      (bn1): BatchNorm2d(128, eps=1e-05, momentum=0.1, affine=True, track_running_stats=True)
      (move12): LearnableBias()
      (prelu1): PReLU(num_parameters=128)
      (move13): LearnableBias()
      (move21): LearnableBias()
      (binary_pw): HardBinaryConv()
      (bn2): BatchNorm2d(128, eps=1e-05, momentum=0.1, affine=True, track_running_stats=True)
      (move22): LearnableBias()
      (prelu2): PReLU(num_parameters=128)
      (move23): LearnableBias()
      (binary_activation): BinaryActivation()
    )
    (6): BasicBlock(
      (move11): LearnableBias()
      (binary_3x3): HardBinaryConv()
      (bn1): BatchNorm2d(128, eps=1e-05, momentum=0.1, affine=True, track_running_stats=True)
      (move12): LearnableBias()
      (prelu1): PReLU(num_parameters=128)
      (move13): LearnableBias()
      (move21): LearnableBias()
      (binary_pw): HardBinaryConv()
      (bn2): BatchNorm2d(128, eps=1e-05, momentum=0.1, affine=True, track_running_stats=True)
      (move22): LearnableBias()
      (prelu2): PReLU(num_parameters=128)
      (move23): LearnableBias()
      (binary_activation): BinaryActivation()
    )
    (7): BasicBlock(
      (move11): LearnableBias()
      (binary_3x3): HardBinaryConv()
      (bn1): BatchNorm2d(128, eps=1e-05, momentum=0.1, affine=True, track_running_stats=True)
      (move12): LearnableBias()
      (prelu1): PReLU(num_parameters=128)
      (move13): LearnableBias()
      (move21): LearnableBias()
      (binary_pw): HardBinaryConv()
      (bn2): BatchNorm2d(128, eps=1e-05, momentum=0.1, affine=True, track_running_stats=True)
      (move22): LearnableBias()
      (prelu2): PReLU(num_parameters=128)
      (move23): LearnableBias()
      (binary_activation): BinaryActivation()
    )
    (8): BasicBlock(
      (move11): LearnableBias()
      (binary_3x3): HardBinaryConv()
      (bn1): BatchNorm2d(128, eps=1e-05, momentum=0.1, affine=True, track_running_stats=True)
      (move12): LearnableBias()
      (prelu1): PReLU(num_parameters=128)
      (move13): LearnableBias()
      (move21): LearnableBias()
      (binary_pw): HardBinaryConv()
      (bn2): BatchNorm2d(128, eps=1e-05, momentum=0.1, affine=True, track_running_stats=True)
      (move22): LearnableBias()
      (prelu2): PReLU(num_parameters=128)
      (move23): LearnableBias()
      (binary_activation): BinaryActivation()
    )
    (9): BasicBlock(
      (move11): LearnableBias()
      (binary_3x3): HardBinaryConv()
      (bn1): BatchNorm2d(128, eps=1e-05, momentum=0.1, affine=True, track_running_stats=True)
      (move12): LearnableBias()
      (prelu1): PReLU(num_parameters=128)
      (move13): LearnableBias()
      (move21): LearnableBias()
      (binary_pw): HardBinaryConv()
      (bn2): BatchNorm2d(128, eps=1e-05, momentum=0.1, affine=True, track_running_stats=True)
      (move22): LearnableBias()
      (prelu2): PReLU(num_parameters=128)
      (move23): LearnableBias()
      (binary_activation): BinaryActivation()
    )
    (10): BasicBlock(
      (move11): LearnableBias()
      (binary_3x3): HardBinaryConv()
      (bn1): BatchNorm2d(128, eps=1e-05, momentum=0.1, affine=True, track_running_stats=True)
      (move12): LearnableBias()
      (prelu1): PReLU(num_parameters=128)
      (move13): LearnableBias()
      (move21): LearnableBias()
      (binary_pw_down1): HardBinaryConv()
      (binary_pw_down2): HardBinaryConv()
      (bn2_1): BatchNorm2d(128, eps=1e-05, momentum=0.1, affine=True, track_running_stats=True)
      (bn2_2): BatchNorm2d(128, eps=1e-05, momentum=0.1, affine=True, track_running_stats=True)
      (move22): LearnableBias()
      (prelu2): PReLU(num_parameters=256)
      (move23): LearnableBias()
      (binary_activation): BinaryActivation()
      (pooling): AvgPool2d(kernel_size=2, stride=2, padding=0)
    )
    (11): BasicBlock(
      (move11): LearnableBias()
      (binary_3x3): HardBinaryConv()
      (bn1): BatchNorm2d(256, eps=1e-05, momentum=0.1, affine=True, track_running_stats=True)
      (move12): LearnableBias()
      (prelu1): PReLU(num_parameters=256)
      (move13): LearnableBias()
      (move21): LearnableBias()
      (binary_pw): HardBinaryConv()
      (bn2): BatchNorm2d(256, eps=1e-05, momentum=0.1, affine=True, track_running_stats=True)
      (move22): LearnableBias()
      (prelu2): PReLU(num_parameters=256)
      (move23): LearnableBias()
      (binary_activation): BinaryActivation()
    )
  )
  (pool1): AdaptiveAvgPool2d(output_size=1)
  (fc): Linear(in_features=256, out_features=10, bias=True)
)
2020-12-21 19:46:33,021 args = Namespace(batch_size=128, data='/datasets/imagenet', epochs=100, label_smooth=0.1, learning_rate=0.01, momentum=0.9, save='./models', teacher='resnet34', weight_decay=0.0, workers=4)
2020-12-21 19:46:34,482 student:
2020-12-21 19:46:34,482 reactnet(
  (feature): ModuleList(
    (0): firstconv3x3(
      (conv1): Conv2d(3, 16, kernel_size=(3, 3), stride=(1, 1), padding=(1, 1), bias=False)
      (bn1): BatchNorm2d(16, eps=1e-05, momentum=0.1, affine=True, track_running_stats=True)
    )
    (1): BasicBlock(
      (move11): LearnableBias()
      (binary_3x3): HardBinaryConv()
      (bn1): BatchNorm2d(16, eps=1e-05, momentum=0.1, affine=True, track_running_stats=True)
      (move12): LearnableBias()
      (prelu1): PReLU(num_parameters=16)
      (move13): LearnableBias()
      (move21): LearnableBias()
      (binary_pw_down1): HardBinaryConv()
      (binary_pw_down2): HardBinaryConv()
      (bn2_1): BatchNorm2d(16, eps=1e-05, momentum=0.1, affine=True, track_running_stats=True)
      (bn2_2): BatchNorm2d(16, eps=1e-05, momentum=0.1, affine=True, track_running_stats=True)
      (move22): LearnableBias()
      (prelu2): PReLU(num_parameters=32)
      (move23): LearnableBias()
      (binary_activation): BinaryActivation()
      (pooling): AvgPool2d(kernel_size=2, stride=2, padding=0)
    )
    (2): BasicBlock(
      (move11): LearnableBias()
      (binary_3x3): HardBinaryConv()
      (bn1): BatchNorm2d(32, eps=1e-05, momentum=0.1, affine=True, track_running_stats=True)
      (move12): LearnableBias()
      (prelu1): PReLU(num_parameters=32)
      (move13): LearnableBias()
      (move21): LearnableBias()
      (binary_pw_down1): HardBinaryConv()
      (binary_pw_down2): HardBinaryConv()
      (bn2_1): BatchNorm2d(32, eps=1e-05, momentum=0.1, affine=True, track_running_stats=True)
      (bn2_2): BatchNorm2d(32, eps=1e-05, momentum=0.1, affine=True, track_running_stats=True)
      (move22): LearnableBias()
      (prelu2): PReLU(num_parameters=64)
      (move23): LearnableBias()
      (binary_activation): BinaryActivation()
      (pooling): AvgPool2d(kernel_size=2, stride=2, padding=0)
    )
    (3): BasicBlock(
      (move11): LearnableBias()
      (binary_3x3): HardBinaryConv()
      (bn1): BatchNorm2d(64, eps=1e-05, momentum=0.1, affine=True, track_running_stats=True)
      (move12): LearnableBias()
      (prelu1): PReLU(num_parameters=64)
      (move13): LearnableBias()
      (move21): LearnableBias()
      (binary_pw): HardBinaryConv()
      (bn2): BatchNorm2d(64, eps=1e-05, momentum=0.1, affine=True, track_running_stats=True)
      (move22): LearnableBias()
      (prelu2): PReLU(num_parameters=64)
      (move23): LearnableBias()
      (binary_activation): BinaryActivation()
    )
    (4): BasicBlock(
      (move11): LearnableBias()
      (binary_3x3): HardBinaryConv()
      (bn1): BatchNorm2d(64, eps=1e-05, momentum=0.1, affine=True, track_running_stats=True)
      (move12): LearnableBias()
      (prelu1): PReLU(num_parameters=64)
      (move13): LearnableBias()
      (move21): LearnableBias()
      (binary_pw_down1): HardBinaryConv()
      (binary_pw_down2): HardBinaryConv()
      (bn2_1): BatchNorm2d(64, eps=1e-05, momentum=0.1, affine=True, track_running_stats=True)
      (bn2_2): BatchNorm2d(64, eps=1e-05, momentum=0.1, affine=True, track_running_stats=True)
      (move22): LearnableBias()
      (prelu2): PReLU(num_parameters=128)
      (move23): LearnableBias()
      (binary_activation): BinaryActivation()
      (pooling): AvgPool2d(kernel_size=2, stride=2, padding=0)
    )
    (5): BasicBlock(
      (move11): LearnableBias()
      (binary_3x3): HardBinaryConv()
      (bn1): BatchNorm2d(128, eps=1e-05, momentum=0.1, affine=True, track_running_stats=True)
      (move12): LearnableBias()
      (prelu1): PReLU(num_parameters=128)
      (move13): LearnableBias()
      (move21): LearnableBias()
      (binary_pw): HardBinaryConv()
      (bn2): BatchNorm2d(128, eps=1e-05, momentum=0.1, affine=True, track_running_stats=True)
      (move22): LearnableBias()
      (prelu2): PReLU(num_parameters=128)
      (move23): LearnableBias()
      (binary_activation): BinaryActivation()
    )
    (6): BasicBlock(
      (move11): LearnableBias()
      (binary_3x3): HardBinaryConv()
      (bn1): BatchNorm2d(128, eps=1e-05, momentum=0.1, affine=True, track_running_stats=True)
      (move12): LearnableBias()
      (prelu1): PReLU(num_parameters=128)
      (move13): LearnableBias()
      (move21): LearnableBias()
      (binary_pw): HardBinaryConv()
      (bn2): BatchNorm2d(128, eps=1e-05, momentum=0.1, affine=True, track_running_stats=True)
      (move22): LearnableBias()
      (prelu2): PReLU(num_parameters=128)
      (move23): LearnableBias()
      (binary_activation): BinaryActivation()
    )
    (7): BasicBlock(
      (move11): LearnableBias()
      (binary_3x3): HardBinaryConv()
      (bn1): BatchNorm2d(128, eps=1e-05, momentum=0.1, affine=True, track_running_stats=True)
      (move12): LearnableBias()
      (prelu1): PReLU(num_parameters=128)
      (move13): LearnableBias()
      (move21): LearnableBias()
      (binary_pw): HardBinaryConv()
      (bn2): BatchNorm2d(128, eps=1e-05, momentum=0.1, affine=True, track_running_stats=True)
      (move22): LearnableBias()
      (prelu2): PReLU(num_parameters=128)
      (move23): LearnableBias()
      (binary_activation): BinaryActivation()
    )
    (8): BasicBlock(
      (move11): LearnableBias()
      (binary_3x3): HardBinaryConv()
      (bn1): BatchNorm2d(128, eps=1e-05, momentum=0.1, affine=True, track_running_stats=True)
      (move12): LearnableBias()
      (prelu1): PReLU(num_parameters=128)
      (move13): LearnableBias()
      (move21): LearnableBias()
      (binary_pw): HardBinaryConv()
      (bn2): BatchNorm2d(128, eps=1e-05, momentum=0.1, affine=True, track_running_stats=True)
      (move22): LearnableBias()
      (prelu2): PReLU(num_parameters=128)
      (move23): LearnableBias()
      (binary_activation): BinaryActivation()
    )
    (9): BasicBlock(
      (move11): LearnableBias()
      (binary_3x3): HardBinaryConv()
      (bn1): BatchNorm2d(128, eps=1e-05, momentum=0.1, affine=True, track_running_stats=True)
      (move12): LearnableBias()
      (prelu1): PReLU(num_parameters=128)
      (move13): LearnableBias()
      (move21): LearnableBias()
      (binary_pw): HardBinaryConv()
      (bn2): BatchNorm2d(128, eps=1e-05, momentum=0.1, affine=True, track_running_stats=True)
      (move22): LearnableBias()
      (prelu2): PReLU(num_parameters=128)
      (move23): LearnableBias()
      (binary_activation): BinaryActivation()
    )
    (10): BasicBlock(
      (move11): LearnableBias()
      (binary_3x3): HardBinaryConv()
      (bn1): BatchNorm2d(128, eps=1e-05, momentum=0.1, affine=True, track_running_stats=True)
      (move12): LearnableBias()
      (prelu1): PReLU(num_parameters=128)
      (move13): LearnableBias()
      (move21): LearnableBias()
      (binary_pw_down1): HardBinaryConv()
      (binary_pw_down2): HardBinaryConv()
      (bn2_1): BatchNorm2d(128, eps=1e-05, momentum=0.1, affine=True, track_running_stats=True)
      (bn2_2): BatchNorm2d(128, eps=1e-05, momentum=0.1, affine=True, track_running_stats=True)
      (move22): LearnableBias()
      (prelu2): PReLU(num_parameters=256)
      (move23): LearnableBias()
      (binary_activation): BinaryActivation()
      (pooling): AvgPool2d(kernel_size=2, stride=2, padding=0)
    )
    (11): BasicBlock(
      (move11): LearnableBias()
      (binary_3x3): HardBinaryConv()
      (bn1): BatchNorm2d(256, eps=1e-05, momentum=0.1, affine=True, track_running_stats=True)
      (move12): LearnableBias()
      (prelu1): PReLU(num_parameters=256)
      (move13): LearnableBias()
      (move21): LearnableBias()
      (binary_pw): HardBinaryConv()
      (bn2): BatchNorm2d(256, eps=1e-05, momentum=0.1, affine=True, track_running_stats=True)
      (move22): LearnableBias()
      (prelu2): PReLU(num_parameters=256)
      (move23): LearnableBias()
      (binary_activation): BinaryActivation()
    )
  )
  (pool1): AdaptiveAvgPool2d(output_size=1)
  (fc): Linear(in_features=256, out_features=10, bias=True)
)
2020-12-21 20:30:50,671 args = Namespace(batch_size=128, data='/datasets/imagenet', epochs=100, label_smooth=0.1, learning_rate=0.01, momentum=0.9, save='./models', teacher='resnet34', weight_decay=0.0, workers=4)
2020-12-21 20:30:52,123 student:
2020-12-21 20:30:52,124 reactnet(
  (feature): ModuleList(
    (0): firstconv3x3(
      (conv1): Conv2d(3, 16, kernel_size=(3, 3), stride=(1, 1), padding=(1, 1), bias=False)
      (bn1): BatchNorm2d(16, eps=1e-05, momentum=0.1, affine=True, track_running_stats=True)
    )
    (1): BasicBlock(
      (move11): LearnableBias()
      (binary_3x3): HardBinaryConv()
      (bn1): BatchNorm2d(16, eps=1e-05, momentum=0.1, affine=True, track_running_stats=True)
      (move12): LearnableBias()
      (prelu1): PReLU(num_parameters=16)
      (move13): LearnableBias()
      (move21): LearnableBias()
      (binary_pw_down1): HardBinaryConv()
      (binary_pw_down2): HardBinaryConv()
      (bn2_1): BatchNorm2d(16, eps=1e-05, momentum=0.1, affine=True, track_running_stats=True)
      (bn2_2): BatchNorm2d(16, eps=1e-05, momentum=0.1, affine=True, track_running_stats=True)
      (move22): LearnableBias()
      (prelu2): PReLU(num_parameters=32)
      (move23): LearnableBias()
      (binary_activation): BinaryActivation()
      (pooling): AvgPool2d(kernel_size=2, stride=2, padding=0)
    )
    (2): BasicBlock(
      (move11): LearnableBias()
      (binary_3x3): HardBinaryConv()
      (bn1): BatchNorm2d(32, eps=1e-05, momentum=0.1, affine=True, track_running_stats=True)
      (move12): LearnableBias()
      (prelu1): PReLU(num_parameters=32)
      (move13): LearnableBias()
      (move21): LearnableBias()
      (binary_pw_down1): HardBinaryConv()
      (binary_pw_down2): HardBinaryConv()
      (bn2_1): BatchNorm2d(32, eps=1e-05, momentum=0.1, affine=True, track_running_stats=True)
      (bn2_2): BatchNorm2d(32, eps=1e-05, momentum=0.1, affine=True, track_running_stats=True)
      (move22): LearnableBias()
      (prelu2): PReLU(num_parameters=64)
      (move23): LearnableBias()
      (binary_activation): BinaryActivation()
      (pooling): AvgPool2d(kernel_size=2, stride=2, padding=0)
    )
    (3): BasicBlock(
      (move11): LearnableBias()
      (binary_3x3): HardBinaryConv()
      (bn1): BatchNorm2d(64, eps=1e-05, momentum=0.1, affine=True, track_running_stats=True)
      (move12): LearnableBias()
      (prelu1): PReLU(num_parameters=64)
      (move13): LearnableBias()
      (move21): LearnableBias()
      (binary_pw): HardBinaryConv()
      (bn2): BatchNorm2d(64, eps=1e-05, momentum=0.1, affine=True, track_running_stats=True)
      (move22): LearnableBias()
      (prelu2): PReLU(num_parameters=64)
      (move23): LearnableBias()
      (binary_activation): BinaryActivation()
    )
    (4): BasicBlock(
      (move11): LearnableBias()
      (binary_3x3): HardBinaryConv()
      (bn1): BatchNorm2d(64, eps=1e-05, momentum=0.1, affine=True, track_running_stats=True)
      (move12): LearnableBias()
      (prelu1): PReLU(num_parameters=64)
      (move13): LearnableBias()
      (move21): LearnableBias()
      (binary_pw_down1): HardBinaryConv()
      (binary_pw_down2): HardBinaryConv()
      (bn2_1): BatchNorm2d(64, eps=1e-05, momentum=0.1, affine=True, track_running_stats=True)
      (bn2_2): BatchNorm2d(64, eps=1e-05, momentum=0.1, affine=True, track_running_stats=True)
      (move22): LearnableBias()
      (prelu2): PReLU(num_parameters=128)
      (move23): LearnableBias()
      (binary_activation): BinaryActivation()
      (pooling): AvgPool2d(kernel_size=2, stride=2, padding=0)
    )
    (5): BasicBlock(
      (move11): LearnableBias()
      (binary_3x3): HardBinaryConv()
      (bn1): BatchNorm2d(128, eps=1e-05, momentum=0.1, affine=True, track_running_stats=True)
      (move12): LearnableBias()
      (prelu1): PReLU(num_parameters=128)
      (move13): LearnableBias()
      (move21): LearnableBias()
      (binary_pw): HardBinaryConv()
      (bn2): BatchNorm2d(128, eps=1e-05, momentum=0.1, affine=True, track_running_stats=True)
      (move22): LearnableBias()
      (prelu2): PReLU(num_parameters=128)
      (move23): LearnableBias()
      (binary_activation): BinaryActivation()
    )
    (6): BasicBlock(
      (move11): LearnableBias()
      (binary_3x3): HardBinaryConv()
      (bn1): BatchNorm2d(128, eps=1e-05, momentum=0.1, affine=True, track_running_stats=True)
      (move12): LearnableBias()
      (prelu1): PReLU(num_parameters=128)
      (move13): LearnableBias()
      (move21): LearnableBias()
      (binary_pw): HardBinaryConv()
      (bn2): BatchNorm2d(128, eps=1e-05, momentum=0.1, affine=True, track_running_stats=True)
      (move22): LearnableBias()
      (prelu2): PReLU(num_parameters=128)
      (move23): LearnableBias()
      (binary_activation): BinaryActivation()
    )
    (7): BasicBlock(
      (move11): LearnableBias()
      (binary_3x3): HardBinaryConv()
      (bn1): BatchNorm2d(128, eps=1e-05, momentum=0.1, affine=True, track_running_stats=True)
      (move12): LearnableBias()
      (prelu1): PReLU(num_parameters=128)
      (move13): LearnableBias()
      (move21): LearnableBias()
      (binary_pw): HardBinaryConv()
      (bn2): BatchNorm2d(128, eps=1e-05, momentum=0.1, affine=True, track_running_stats=True)
      (move22): LearnableBias()
      (prelu2): PReLU(num_parameters=128)
      (move23): LearnableBias()
      (binary_activation): BinaryActivation()
    )
    (8): BasicBlock(
      (move11): LearnableBias()
      (binary_3x3): HardBinaryConv()
      (bn1): BatchNorm2d(128, eps=1e-05, momentum=0.1, affine=True, track_running_stats=True)
      (move12): LearnableBias()
      (prelu1): PReLU(num_parameters=128)
      (move13): LearnableBias()
      (move21): LearnableBias()
      (binary_pw): HardBinaryConv()
      (bn2): BatchNorm2d(128, eps=1e-05, momentum=0.1, affine=True, track_running_stats=True)
      (move22): LearnableBias()
      (prelu2): PReLU(num_parameters=128)
      (move23): LearnableBias()
      (binary_activation): BinaryActivation()
    )
    (9): BasicBlock(
      (move11): LearnableBias()
      (binary_3x3): HardBinaryConv()
      (bn1): BatchNorm2d(128, eps=1e-05, momentum=0.1, affine=True, track_running_stats=True)
      (move12): LearnableBias()
      (prelu1): PReLU(num_parameters=128)
      (move13): LearnableBias()
      (move21): LearnableBias()
      (binary_pw): HardBinaryConv()
      (bn2): BatchNorm2d(128, eps=1e-05, momentum=0.1, affine=True, track_running_stats=True)
      (move22): LearnableBias()
      (prelu2): PReLU(num_parameters=128)
      (move23): LearnableBias()
      (binary_activation): BinaryActivation()
    )
    (10): BasicBlock(
      (move11): LearnableBias()
      (binary_3x3): HardBinaryConv()
      (bn1): BatchNorm2d(128, eps=1e-05, momentum=0.1, affine=True, track_running_stats=True)
      (move12): LearnableBias()
      (prelu1): PReLU(num_parameters=128)
      (move13): LearnableBias()
      (move21): LearnableBias()
      (binary_pw_down1): HardBinaryConv()
      (binary_pw_down2): HardBinaryConv()
      (bn2_1): BatchNorm2d(128, eps=1e-05, momentum=0.1, affine=True, track_running_stats=True)
      (bn2_2): BatchNorm2d(128, eps=1e-05, momentum=0.1, affine=True, track_running_stats=True)
      (move22): LearnableBias()
      (prelu2): PReLU(num_parameters=256)
      (move23): LearnableBias()
      (binary_activation): BinaryActivation()
      (pooling): AvgPool2d(kernel_size=2, stride=2, padding=0)
    )
    (11): BasicBlock(
      (move11): LearnableBias()
      (binary_3x3): HardBinaryConv()
      (bn1): BatchNorm2d(256, eps=1e-05, momentum=0.1, affine=True, track_running_stats=True)
      (move12): LearnableBias()
      (prelu1): PReLU(num_parameters=256)
      (move13): LearnableBias()
      (move21): LearnableBias()
      (binary_pw): HardBinaryConv()
      (bn2): BatchNorm2d(256, eps=1e-05, momentum=0.1, affine=True, track_running_stats=True)
      (move22): LearnableBias()
      (prelu2): PReLU(num_parameters=256)
      (move23): LearnableBias()
      (binary_activation): BinaryActivation()
    )
  )
  (pool1): AdaptiveAvgPool2d(output_size=1)
  (fc): Linear(in_features=256, out_features=10, bias=True)
)
2020-12-21 20:30:52,287 loading checkpoint ./models\checkpoint.pth.tar ..........
2020-12-21 20:30:52,383 loaded checkpoint ./models\checkpoint.pth.tar epoch = 19
2020-12-22 11:51:36,426 args = Namespace(batch_size=128, data='/datasets/imagenet', epochs=45, label_smooth=0.1, learning_rate=0.005, momentum=0.9, save='./models_2', teacher='resnet34', weight_decay=0.0, workers=4)
2020-12-22 11:51:37,869 student:
2020-12-22 11:51:37,870 reactnet(
  (feature): ModuleList(
    (0): firstconv3x3(
      (conv1): Conv2d(3, 16, kernel_size=(3, 3), stride=(1, 1), padding=(1, 1), bias=False)
      (bn1): BatchNorm2d(16, eps=1e-05, momentum=0.1, affine=True, track_running_stats=True)
    )
    (1): BasicBlock(
      (move11): LearnableBias()
      (binary_3x3): HardBinaryConv()
      (bn1): BatchNorm2d(16, eps=1e-05, momentum=0.1, affine=True, track_running_stats=True)
      (move12): LearnableBias()
      (prelu1): PReLU(num_parameters=16)
      (move13): LearnableBias()
      (move21): LearnableBias()
      (binary_pw_down1): HardBinaryConv()
      (binary_pw_down2): HardBinaryConv()
      (bn2_1): BatchNorm2d(16, eps=1e-05, momentum=0.1, affine=True, track_running_stats=True)
      (bn2_2): BatchNorm2d(16, eps=1e-05, momentum=0.1, affine=True, track_running_stats=True)
      (move22): LearnableBias()
      (prelu2): PReLU(num_parameters=32)
      (move23): LearnableBias()
      (binary_activation): BinaryActivation()
      (pooling): AvgPool2d(kernel_size=2, stride=2, padding=0)
    )
    (2): BasicBlock(
      (move11): LearnableBias()
      (binary_3x3): HardBinaryConv()
      (bn1): BatchNorm2d(32, eps=1e-05, momentum=0.1, affine=True, track_running_stats=True)
      (move12): LearnableBias()
      (prelu1): PReLU(num_parameters=32)
      (move13): LearnableBias()
      (move21): LearnableBias()
      (binary_pw_down1): HardBinaryConv()
      (binary_pw_down2): HardBinaryConv()
      (bn2_1): BatchNorm2d(32, eps=1e-05, momentum=0.1, affine=True, track_running_stats=True)
      (bn2_2): BatchNorm2d(32, eps=1e-05, momentum=0.1, affine=True, track_running_stats=True)
      (move22): LearnableBias()
      (prelu2): PReLU(num_parameters=64)
      (move23): LearnableBias()
      (binary_activation): BinaryActivation()
      (pooling): AvgPool2d(kernel_size=2, stride=2, padding=0)
    )
    (3): BasicBlock(
      (move11): LearnableBias()
      (binary_3x3): HardBinaryConv()
      (bn1): BatchNorm2d(64, eps=1e-05, momentum=0.1, affine=True, track_running_stats=True)
      (move12): LearnableBias()
      (prelu1): PReLU(num_parameters=64)
      (move13): LearnableBias()
      (move21): LearnableBias()
      (binary_pw): HardBinaryConv()
      (bn2): BatchNorm2d(64, eps=1e-05, momentum=0.1, affine=True, track_running_stats=True)
      (move22): LearnableBias()
      (prelu2): PReLU(num_parameters=64)
      (move23): LearnableBias()
      (binary_activation): BinaryActivation()
    )
    (4): BasicBlock(
      (move11): LearnableBias()
      (binary_3x3): HardBinaryConv()
      (bn1): BatchNorm2d(64, eps=1e-05, momentum=0.1, affine=True, track_running_stats=True)
      (move12): LearnableBias()
      (prelu1): PReLU(num_parameters=64)
      (move13): LearnableBias()
      (move21): LearnableBias()
      (binary_pw_down1): HardBinaryConv()
      (binary_pw_down2): HardBinaryConv()
      (bn2_1): BatchNorm2d(64, eps=1e-05, momentum=0.1, affine=True, track_running_stats=True)
      (bn2_2): BatchNorm2d(64, eps=1e-05, momentum=0.1, affine=True, track_running_stats=True)
      (move22): LearnableBias()
      (prelu2): PReLU(num_parameters=128)
      (move23): LearnableBias()
      (binary_activation): BinaryActivation()
      (pooling): AvgPool2d(kernel_size=2, stride=2, padding=0)
    )
    (5): BasicBlock(
      (move11): LearnableBias()
      (binary_3x3): HardBinaryConv()
      (bn1): BatchNorm2d(128, eps=1e-05, momentum=0.1, affine=True, track_running_stats=True)
      (move12): LearnableBias()
      (prelu1): PReLU(num_parameters=128)
      (move13): LearnableBias()
      (move21): LearnableBias()
      (binary_pw): HardBinaryConv()
      (bn2): BatchNorm2d(128, eps=1e-05, momentum=0.1, affine=True, track_running_stats=True)
      (move22): LearnableBias()
      (prelu2): PReLU(num_parameters=128)
      (move23): LearnableBias()
      (binary_activation): BinaryActivation()
    )
    (6): BasicBlock(
      (move11): LearnableBias()
      (binary_3x3): HardBinaryConv()
      (bn1): BatchNorm2d(128, eps=1e-05, momentum=0.1, affine=True, track_running_stats=True)
      (move12): LearnableBias()
      (prelu1): PReLU(num_parameters=128)
      (move13): LearnableBias()
      (move21): LearnableBias()
      (binary_pw): HardBinaryConv()
      (bn2): BatchNorm2d(128, eps=1e-05, momentum=0.1, affine=True, track_running_stats=True)
      (move22): LearnableBias()
      (prelu2): PReLU(num_parameters=128)
      (move23): LearnableBias()
      (binary_activation): BinaryActivation()
    )
    (7): BasicBlock(
      (move11): LearnableBias()
      (binary_3x3): HardBinaryConv()
      (bn1): BatchNorm2d(128, eps=1e-05, momentum=0.1, affine=True, track_running_stats=True)
      (move12): LearnableBias()
      (prelu1): PReLU(num_parameters=128)
      (move13): LearnableBias()
      (move21): LearnableBias()
      (binary_pw): HardBinaryConv()
      (bn2): BatchNorm2d(128, eps=1e-05, momentum=0.1, affine=True, track_running_stats=True)
      (move22): LearnableBias()
      (prelu2): PReLU(num_parameters=128)
      (move23): LearnableBias()
      (binary_activation): BinaryActivation()
    )
    (8): BasicBlock(
      (move11): LearnableBias()
      (binary_3x3): HardBinaryConv()
      (bn1): BatchNorm2d(128, eps=1e-05, momentum=0.1, affine=True, track_running_stats=True)
      (move12): LearnableBias()
      (prelu1): PReLU(num_parameters=128)
      (move13): LearnableBias()
      (move21): LearnableBias()
      (binary_pw): HardBinaryConv()
      (bn2): BatchNorm2d(128, eps=1e-05, momentum=0.1, affine=True, track_running_stats=True)
      (move22): LearnableBias()
      (prelu2): PReLU(num_parameters=128)
      (move23): LearnableBias()
      (binary_activation): BinaryActivation()
    )
    (9): BasicBlock(
      (move11): LearnableBias()
      (binary_3x3): HardBinaryConv()
      (bn1): BatchNorm2d(128, eps=1e-05, momentum=0.1, affine=True, track_running_stats=True)
      (move12): LearnableBias()
      (prelu1): PReLU(num_parameters=128)
      (move13): LearnableBias()
      (move21): LearnableBias()
      (binary_pw): HardBinaryConv()
      (bn2): BatchNorm2d(128, eps=1e-05, momentum=0.1, affine=True, track_running_stats=True)
      (move22): LearnableBias()
      (prelu2): PReLU(num_parameters=128)
      (move23): LearnableBias()
      (binary_activation): BinaryActivation()
    )
    (10): BasicBlock(
      (move11): LearnableBias()
      (binary_3x3): HardBinaryConv()
      (bn1): BatchNorm2d(128, eps=1e-05, momentum=0.1, affine=True, track_running_stats=True)
      (move12): LearnableBias()
      (prelu1): PReLU(num_parameters=128)
      (move13): LearnableBias()
      (move21): LearnableBias()
      (binary_pw_down1): HardBinaryConv()
      (binary_pw_down2): HardBinaryConv()
      (bn2_1): BatchNorm2d(128, eps=1e-05, momentum=0.1, affine=True, track_running_stats=True)
      (bn2_2): BatchNorm2d(128, eps=1e-05, momentum=0.1, affine=True, track_running_stats=True)
      (move22): LearnableBias()
      (prelu2): PReLU(num_parameters=256)
      (move23): LearnableBias()
      (binary_activation): BinaryActivation()
      (pooling): AvgPool2d(kernel_size=2, stride=2, padding=0)
    )
    (11): BasicBlock(
      (move11): LearnableBias()
      (binary_3x3): HardBinaryConv()
      (bn1): BatchNorm2d(256, eps=1e-05, momentum=0.1, affine=True, track_running_stats=True)
      (move12): LearnableBias()
      (prelu1): PReLU(num_parameters=256)
      (move13): LearnableBias()
      (move21): LearnableBias()
      (binary_pw): HardBinaryConv()
      (bn2): BatchNorm2d(256, eps=1e-05, momentum=0.1, affine=True, track_running_stats=True)
      (move22): LearnableBias()
      (prelu2): PReLU(num_parameters=256)
      (move23): LearnableBias()
      (binary_activation): BinaryActivation()
    )
  )
  (pool1): AdaptiveAvgPool2d(output_size=1)
  (fc): Linear(in_features=256, out_features=10, bias=True)
)
2020-12-22 11:51:59,361 args = Namespace(batch_size=128, data='/datasets/imagenet', epochs=45, label_smooth=0.1, learning_rate=0.005, momentum=0.9, save='./models_2', teacher='resnet34', weight_decay=0.0, workers=4)
2020-12-22 11:52:00,925 student:
2020-12-22 11:52:00,926 reactnet(
  (feature): ModuleList(
    (0): firstconv3x3(
      (conv1): Conv2d(3, 16, kernel_size=(3, 3), stride=(1, 1), padding=(1, 1), bias=False)
      (bn1): BatchNorm2d(16, eps=1e-05, momentum=0.1, affine=True, track_running_stats=True)
    )
    (1): BasicBlock(
      (move11): LearnableBias()
      (binary_3x3): HardBinaryConv()
      (bn1): BatchNorm2d(16, eps=1e-05, momentum=0.1, affine=True, track_running_stats=True)
      (move12): LearnableBias()
      (prelu1): PReLU(num_parameters=16)
      (move13): LearnableBias()
      (move21): LearnableBias()
      (binary_pw_down1): HardBinaryConv()
      (binary_pw_down2): HardBinaryConv()
      (bn2_1): BatchNorm2d(16, eps=1e-05, momentum=0.1, affine=True, track_running_stats=True)
      (bn2_2): BatchNorm2d(16, eps=1e-05, momentum=0.1, affine=True, track_running_stats=True)
      (move22): LearnableBias()
      (prelu2): PReLU(num_parameters=32)
      (move23): LearnableBias()
      (binary_activation): BinaryActivation()
      (pooling): AvgPool2d(kernel_size=2, stride=2, padding=0)
    )
    (2): BasicBlock(
      (move11): LearnableBias()
      (binary_3x3): HardBinaryConv()
      (bn1): BatchNorm2d(32, eps=1e-05, momentum=0.1, affine=True, track_running_stats=True)
      (move12): LearnableBias()
      (prelu1): PReLU(num_parameters=32)
      (move13): LearnableBias()
      (move21): LearnableBias()
      (binary_pw_down1): HardBinaryConv()
      (binary_pw_down2): HardBinaryConv()
      (bn2_1): BatchNorm2d(32, eps=1e-05, momentum=0.1, affine=True, track_running_stats=True)
      (bn2_2): BatchNorm2d(32, eps=1e-05, momentum=0.1, affine=True, track_running_stats=True)
      (move22): LearnableBias()
      (prelu2): PReLU(num_parameters=64)
      (move23): LearnableBias()
      (binary_activation): BinaryActivation()
      (pooling): AvgPool2d(kernel_size=2, stride=2, padding=0)
    )
    (3): BasicBlock(
      (move11): LearnableBias()
      (binary_3x3): HardBinaryConv()
      (bn1): BatchNorm2d(64, eps=1e-05, momentum=0.1, affine=True, track_running_stats=True)
      (move12): LearnableBias()
      (prelu1): PReLU(num_parameters=64)
      (move13): LearnableBias()
      (move21): LearnableBias()
      (binary_pw): HardBinaryConv()
      (bn2): BatchNorm2d(64, eps=1e-05, momentum=0.1, affine=True, track_running_stats=True)
      (move22): LearnableBias()
      (prelu2): PReLU(num_parameters=64)
      (move23): LearnableBias()
      (binary_activation): BinaryActivation()
    )
    (4): BasicBlock(
      (move11): LearnableBias()
      (binary_3x3): HardBinaryConv()
      (bn1): BatchNorm2d(64, eps=1e-05, momentum=0.1, affine=True, track_running_stats=True)
      (move12): LearnableBias()
      (prelu1): PReLU(num_parameters=64)
      (move13): LearnableBias()
      (move21): LearnableBias()
      (binary_pw_down1): HardBinaryConv()
      (binary_pw_down2): HardBinaryConv()
      (bn2_1): BatchNorm2d(64, eps=1e-05, momentum=0.1, affine=True, track_running_stats=True)
      (bn2_2): BatchNorm2d(64, eps=1e-05, momentum=0.1, affine=True, track_running_stats=True)
      (move22): LearnableBias()
      (prelu2): PReLU(num_parameters=128)
      (move23): LearnableBias()
      (binary_activation): BinaryActivation()
      (pooling): AvgPool2d(kernel_size=2, stride=2, padding=0)
    )
    (5): BasicBlock(
      (move11): LearnableBias()
      (binary_3x3): HardBinaryConv()
      (bn1): BatchNorm2d(128, eps=1e-05, momentum=0.1, affine=True, track_running_stats=True)
      (move12): LearnableBias()
      (prelu1): PReLU(num_parameters=128)
      (move13): LearnableBias()
      (move21): LearnableBias()
      (binary_pw): HardBinaryConv()
      (bn2): BatchNorm2d(128, eps=1e-05, momentum=0.1, affine=True, track_running_stats=True)
      (move22): LearnableBias()
      (prelu2): PReLU(num_parameters=128)
      (move23): LearnableBias()
      (binary_activation): BinaryActivation()
    )
    (6): BasicBlock(
      (move11): LearnableBias()
      (binary_3x3): HardBinaryConv()
      (bn1): BatchNorm2d(128, eps=1e-05, momentum=0.1, affine=True, track_running_stats=True)
      (move12): LearnableBias()
      (prelu1): PReLU(num_parameters=128)
      (move13): LearnableBias()
      (move21): LearnableBias()
      (binary_pw): HardBinaryConv()
      (bn2): BatchNorm2d(128, eps=1e-05, momentum=0.1, affine=True, track_running_stats=True)
      (move22): LearnableBias()
      (prelu2): PReLU(num_parameters=128)
      (move23): LearnableBias()
      (binary_activation): BinaryActivation()
    )
    (7): BasicBlock(
      (move11): LearnableBias()
      (binary_3x3): HardBinaryConv()
      (bn1): BatchNorm2d(128, eps=1e-05, momentum=0.1, affine=True, track_running_stats=True)
      (move12): LearnableBias()
      (prelu1): PReLU(num_parameters=128)
      (move13): LearnableBias()
      (move21): LearnableBias()
      (binary_pw): HardBinaryConv()
      (bn2): BatchNorm2d(128, eps=1e-05, momentum=0.1, affine=True, track_running_stats=True)
      (move22): LearnableBias()
      (prelu2): PReLU(num_parameters=128)
      (move23): LearnableBias()
      (binary_activation): BinaryActivation()
    )
    (8): BasicBlock(
      (move11): LearnableBias()
      (binary_3x3): HardBinaryConv()
      (bn1): BatchNorm2d(128, eps=1e-05, momentum=0.1, affine=True, track_running_stats=True)
      (move12): LearnableBias()
      (prelu1): PReLU(num_parameters=128)
      (move13): LearnableBias()
      (move21): LearnableBias()
      (binary_pw): HardBinaryConv()
      (bn2): BatchNorm2d(128, eps=1e-05, momentum=0.1, affine=True, track_running_stats=True)
      (move22): LearnableBias()
      (prelu2): PReLU(num_parameters=128)
      (move23): LearnableBias()
      (binary_activation): BinaryActivation()
    )
    (9): BasicBlock(
      (move11): LearnableBias()
      (binary_3x3): HardBinaryConv()
      (bn1): BatchNorm2d(128, eps=1e-05, momentum=0.1, affine=True, track_running_stats=True)
      (move12): LearnableBias()
      (prelu1): PReLU(num_parameters=128)
      (move13): LearnableBias()
      (move21): LearnableBias()
      (binary_pw): HardBinaryConv()
      (bn2): BatchNorm2d(128, eps=1e-05, momentum=0.1, affine=True, track_running_stats=True)
      (move22): LearnableBias()
      (prelu2): PReLU(num_parameters=128)
      (move23): LearnableBias()
      (binary_activation): BinaryActivation()
    )
    (10): BasicBlock(
      (move11): LearnableBias()
      (binary_3x3): HardBinaryConv()
      (bn1): BatchNorm2d(128, eps=1e-05, momentum=0.1, affine=True, track_running_stats=True)
      (move12): LearnableBias()
      (prelu1): PReLU(num_parameters=128)
      (move13): LearnableBias()
      (move21): LearnableBias()
      (binary_pw_down1): HardBinaryConv()
      (binary_pw_down2): HardBinaryConv()
      (bn2_1): BatchNorm2d(128, eps=1e-05, momentum=0.1, affine=True, track_running_stats=True)
      (bn2_2): BatchNorm2d(128, eps=1e-05, momentum=0.1, affine=True, track_running_stats=True)
      (move22): LearnableBias()
      (prelu2): PReLU(num_parameters=256)
      (move23): LearnableBias()
      (binary_activation): BinaryActivation()
      (pooling): AvgPool2d(kernel_size=2, stride=2, padding=0)
    )
    (11): BasicBlock(
      (move11): LearnableBias()
      (binary_3x3): HardBinaryConv()
      (bn1): BatchNorm2d(256, eps=1e-05, momentum=0.1, affine=True, track_running_stats=True)
      (move12): LearnableBias()
      (prelu1): PReLU(num_parameters=256)
      (move13): LearnableBias()
      (move21): LearnableBias()
      (binary_pw): HardBinaryConv()
      (bn2): BatchNorm2d(256, eps=1e-05, momentum=0.1, affine=True, track_running_stats=True)
      (move22): LearnableBias()
      (prelu2): PReLU(num_parameters=256)
      (move23): LearnableBias()
      (binary_activation): BinaryActivation()
    )
  )
  (pool1): AdaptiveAvgPool2d(output_size=1)
  (fc): Linear(in_features=256, out_features=10, bias=True)
)
2020-12-22 11:52:46,006 args = Namespace(batch_size=128, data='/datasets/imagenet', epochs=45, label_smooth=0.1, learning_rate=0.005, momentum=0.9, save='./models_2', teacher='resnet34', weight_decay=0.0, workers=4)
2020-12-22 11:52:47,602 student:
2020-12-22 11:52:47,603 reactnet(
  (feature): ModuleList(
    (0): firstconv3x3(
      (conv1): Conv2d(3, 32, kernel_size=(3, 3), stride=(1, 1), padding=(1, 1), bias=False)
      (bn1): BatchNorm2d(32, eps=1e-05, momentum=0.1, affine=True, track_running_stats=True)
    )
    (1): BasicBlock(
      (move11): LearnableBias()
      (binary_3x3): HardBinaryConv()
      (bn1): BatchNorm2d(32, eps=1e-05, momentum=0.1, affine=True, track_running_stats=True)
      (move12): LearnableBias()
      (prelu1): PReLU(num_parameters=32)
      (move13): LearnableBias()
      (move21): LearnableBias()
      (binary_pw_down1): HardBinaryConv()
      (binary_pw_down2): HardBinaryConv()
      (bn2_1): BatchNorm2d(32, eps=1e-05, momentum=0.1, affine=True, track_running_stats=True)
      (bn2_2): BatchNorm2d(32, eps=1e-05, momentum=0.1, affine=True, track_running_stats=True)
      (move22): LearnableBias()
      (prelu2): PReLU(num_parameters=64)
      (move23): LearnableBias()
      (binary_activation): BinaryActivation()
      (pooling): AvgPool2d(kernel_size=2, stride=2, padding=0)
    )
    (2): BasicBlock(
      (move11): LearnableBias()
      (binary_3x3): HardBinaryConv()
      (bn1): BatchNorm2d(64, eps=1e-05, momentum=0.1, affine=True, track_running_stats=True)
      (move12): LearnableBias()
      (prelu1): PReLU(num_parameters=64)
      (move13): LearnableBias()
      (move21): LearnableBias()
      (binary_pw_down1): HardBinaryConv()
      (binary_pw_down2): HardBinaryConv()
      (bn2_1): BatchNorm2d(64, eps=1e-05, momentum=0.1, affine=True, track_running_stats=True)
      (bn2_2): BatchNorm2d(64, eps=1e-05, momentum=0.1, affine=True, track_running_stats=True)
      (move22): LearnableBias()
      (prelu2): PReLU(num_parameters=128)
      (move23): LearnableBias()
      (binary_activation): BinaryActivation()
      (pooling): AvgPool2d(kernel_size=2, stride=2, padding=0)
    )
    (3): BasicBlock(
      (move11): LearnableBias()
      (binary_3x3): HardBinaryConv()
      (bn1): BatchNorm2d(128, eps=1e-05, momentum=0.1, affine=True, track_running_stats=True)
      (move12): LearnableBias()
      (prelu1): PReLU(num_parameters=128)
      (move13): LearnableBias()
      (move21): LearnableBias()
      (binary_pw): HardBinaryConv()
      (bn2): BatchNorm2d(128, eps=1e-05, momentum=0.1, affine=True, track_running_stats=True)
      (move22): LearnableBias()
      (prelu2): PReLU(num_parameters=128)
      (move23): LearnableBias()
      (binary_activation): BinaryActivation()
    )
    (4): BasicBlock(
      (move11): LearnableBias()
      (binary_3x3): HardBinaryConv()
      (bn1): BatchNorm2d(128, eps=1e-05, momentum=0.1, affine=True, track_running_stats=True)
      (move12): LearnableBias()
      (prelu1): PReLU(num_parameters=128)
      (move13): LearnableBias()
      (move21): LearnableBias()
      (binary_pw_down1): HardBinaryConv()
      (binary_pw_down2): HardBinaryConv()
      (bn2_1): BatchNorm2d(128, eps=1e-05, momentum=0.1, affine=True, track_running_stats=True)
      (bn2_2): BatchNorm2d(128, eps=1e-05, momentum=0.1, affine=True, track_running_stats=True)
      (move22): LearnableBias()
      (prelu2): PReLU(num_parameters=256)
      (move23): LearnableBias()
      (binary_activation): BinaryActivation()
      (pooling): AvgPool2d(kernel_size=2, stride=2, padding=0)
    )
    (5): BasicBlock(
      (move11): LearnableBias()
      (binary_3x3): HardBinaryConv()
      (bn1): BatchNorm2d(256, eps=1e-05, momentum=0.1, affine=True, track_running_stats=True)
      (move12): LearnableBias()
      (prelu1): PReLU(num_parameters=256)
      (move13): LearnableBias()
      (move21): LearnableBias()
      (binary_pw): HardBinaryConv()
      (bn2): BatchNorm2d(256, eps=1e-05, momentum=0.1, affine=True, track_running_stats=True)
      (move22): LearnableBias()
      (prelu2): PReLU(num_parameters=256)
      (move23): LearnableBias()
      (binary_activation): BinaryActivation()
    )
    (6): BasicBlock(
      (move11): LearnableBias()
      (binary_3x3): HardBinaryConv()
      (bn1): BatchNorm2d(256, eps=1e-05, momentum=0.1, affine=True, track_running_stats=True)
      (move12): LearnableBias()
      (prelu1): PReLU(num_parameters=256)
      (move13): LearnableBias()
      (move21): LearnableBias()
      (binary_pw): HardBinaryConv()
      (bn2): BatchNorm2d(256, eps=1e-05, momentum=0.1, affine=True, track_running_stats=True)
      (move22): LearnableBias()
      (prelu2): PReLU(num_parameters=256)
      (move23): LearnableBias()
      (binary_activation): BinaryActivation()
    )
    (7): BasicBlock(
      (move11): LearnableBias()
      (binary_3x3): HardBinaryConv()
      (bn1): BatchNorm2d(256, eps=1e-05, momentum=0.1, affine=True, track_running_stats=True)
      (move12): LearnableBias()
      (prelu1): PReLU(num_parameters=256)
      (move13): LearnableBias()
      (move21): LearnableBias()
      (binary_pw): HardBinaryConv()
      (bn2): BatchNorm2d(256, eps=1e-05, momentum=0.1, affine=True, track_running_stats=True)
      (move22): LearnableBias()
      (prelu2): PReLU(num_parameters=256)
      (move23): LearnableBias()
      (binary_activation): BinaryActivation()
    )
    (8): BasicBlock(
      (move11): LearnableBias()
      (binary_3x3): HardBinaryConv()
      (bn1): BatchNorm2d(256, eps=1e-05, momentum=0.1, affine=True, track_running_stats=True)
      (move12): LearnableBias()
      (prelu1): PReLU(num_parameters=256)
      (move13): LearnableBias()
      (move21): LearnableBias()
      (binary_pw): HardBinaryConv()
      (bn2): BatchNorm2d(256, eps=1e-05, momentum=0.1, affine=True, track_running_stats=True)
      (move22): LearnableBias()
      (prelu2): PReLU(num_parameters=256)
      (move23): LearnableBias()
      (binary_activation): BinaryActivation()
    )
    (9): BasicBlock(
      (move11): LearnableBias()
      (binary_3x3): HardBinaryConv()
      (bn1): BatchNorm2d(256, eps=1e-05, momentum=0.1, affine=True, track_running_stats=True)
      (move12): LearnableBias()
      (prelu1): PReLU(num_parameters=256)
      (move13): LearnableBias()
      (move21): LearnableBias()
      (binary_pw): HardBinaryConv()
      (bn2): BatchNorm2d(256, eps=1e-05, momentum=0.1, affine=True, track_running_stats=True)
      (move22): LearnableBias()
      (prelu2): PReLU(num_parameters=256)
      (move23): LearnableBias()
      (binary_activation): BinaryActivation()
    )
    (10): BasicBlock(
      (move11): LearnableBias()
      (binary_3x3): HardBinaryConv()
      (bn1): BatchNorm2d(256, eps=1e-05, momentum=0.1, affine=True, track_running_stats=True)
      (move12): LearnableBias()
      (prelu1): PReLU(num_parameters=256)
      (move13): LearnableBias()
      (move21): LearnableBias()
      (binary_pw_down1): HardBinaryConv()
      (binary_pw_down2): HardBinaryConv()
      (bn2_1): BatchNorm2d(256, eps=1e-05, momentum=0.1, affine=True, track_running_stats=True)
      (bn2_2): BatchNorm2d(256, eps=1e-05, momentum=0.1, affine=True, track_running_stats=True)
      (move22): LearnableBias()
      (prelu2): PReLU(num_parameters=512)
      (move23): LearnableBias()
      (binary_activation): BinaryActivation()
      (pooling): AvgPool2d(kernel_size=2, stride=2, padding=0)
    )
    (11): BasicBlock(
      (move11): LearnableBias()
      (binary_3x3): HardBinaryConv()
      (bn1): BatchNorm2d(512, eps=1e-05, momentum=0.1, affine=True, track_running_stats=True)
      (move12): LearnableBias()
      (prelu1): PReLU(num_parameters=512)
      (move13): LearnableBias()
      (move21): LearnableBias()
      (binary_pw): HardBinaryConv()
      (bn2): BatchNorm2d(512, eps=1e-05, momentum=0.1, affine=True, track_running_stats=True)
      (move22): LearnableBias()
      (prelu2): PReLU(num_parameters=512)
      (move23): LearnableBias()
      (binary_activation): BinaryActivation()
    )
  )
  (pool1): AdaptiveAvgPool2d(output_size=1)
  (fc): Linear(in_features=256, out_features=10, bias=True)
)
2020-12-22 11:53:55,968 args = Namespace(batch_size=128, data='/datasets/imagenet', epochs=45, label_smooth=0.1, learning_rate=0.005, momentum=0.9, save='./models_2', teacher='resnet34', weight_decay=0.0, workers=4)
2020-12-22 11:53:57,495 student:
2020-12-22 11:53:57,496 reactnet(
  (feature): ModuleList(
    (0): firstconv3x3(
      (conv1): Conv2d(3, 32, kernel_size=(3, 3), stride=(1, 1), padding=(1, 1), bias=False)
      (bn1): BatchNorm2d(32, eps=1e-05, momentum=0.1, affine=True, track_running_stats=True)
    )
    (1): BasicBlock(
      (move11): LearnableBias()
      (binary_3x3): HardBinaryConv()
      (bn1): BatchNorm2d(32, eps=1e-05, momentum=0.1, affine=True, track_running_stats=True)
      (move12): LearnableBias()
      (prelu1): PReLU(num_parameters=32)
      (move13): LearnableBias()
      (move21): LearnableBias()
      (binary_pw_down1): HardBinaryConv()
      (binary_pw_down2): HardBinaryConv()
      (bn2_1): BatchNorm2d(32, eps=1e-05, momentum=0.1, affine=True, track_running_stats=True)
      (bn2_2): BatchNorm2d(32, eps=1e-05, momentum=0.1, affine=True, track_running_stats=True)
      (move22): LearnableBias()
      (prelu2): PReLU(num_parameters=64)
      (move23): LearnableBias()
      (binary_activation): BinaryActivation()
      (pooling): AvgPool2d(kernel_size=2, stride=2, padding=0)
    )
    (2): BasicBlock(
      (move11): LearnableBias()
      (binary_3x3): HardBinaryConv()
      (bn1): BatchNorm2d(64, eps=1e-05, momentum=0.1, affine=True, track_running_stats=True)
      (move12): LearnableBias()
      (prelu1): PReLU(num_parameters=64)
      (move13): LearnableBias()
      (move21): LearnableBias()
      (binary_pw_down1): HardBinaryConv()
      (binary_pw_down2): HardBinaryConv()
      (bn2_1): BatchNorm2d(64, eps=1e-05, momentum=0.1, affine=True, track_running_stats=True)
      (bn2_2): BatchNorm2d(64, eps=1e-05, momentum=0.1, affine=True, track_running_stats=True)
      (move22): LearnableBias()
      (prelu2): PReLU(num_parameters=128)
      (move23): LearnableBias()
      (binary_activation): BinaryActivation()
      (pooling): AvgPool2d(kernel_size=2, stride=2, padding=0)
    )
    (3): BasicBlock(
      (move11): LearnableBias()
      (binary_3x3): HardBinaryConv()
      (bn1): BatchNorm2d(128, eps=1e-05, momentum=0.1, affine=True, track_running_stats=True)
      (move12): LearnableBias()
      (prelu1): PReLU(num_parameters=128)
      (move13): LearnableBias()
      (move21): LearnableBias()
      (binary_pw): HardBinaryConv()
      (bn2): BatchNorm2d(128, eps=1e-05, momentum=0.1, affine=True, track_running_stats=True)
      (move22): LearnableBias()
      (prelu2): PReLU(num_parameters=128)
      (move23): LearnableBias()
      (binary_activation): BinaryActivation()
    )
    (4): BasicBlock(
      (move11): LearnableBias()
      (binary_3x3): HardBinaryConv()
      (bn1): BatchNorm2d(128, eps=1e-05, momentum=0.1, affine=True, track_running_stats=True)
      (move12): LearnableBias()
      (prelu1): PReLU(num_parameters=128)
      (move13): LearnableBias()
      (move21): LearnableBias()
      (binary_pw_down1): HardBinaryConv()
      (binary_pw_down2): HardBinaryConv()
      (bn2_1): BatchNorm2d(128, eps=1e-05, momentum=0.1, affine=True, track_running_stats=True)
      (bn2_2): BatchNorm2d(128, eps=1e-05, momentum=0.1, affine=True, track_running_stats=True)
      (move22): LearnableBias()
      (prelu2): PReLU(num_parameters=256)
      (move23): LearnableBias()
      (binary_activation): BinaryActivation()
      (pooling): AvgPool2d(kernel_size=2, stride=2, padding=0)
    )
    (5): BasicBlock(
      (move11): LearnableBias()
      (binary_3x3): HardBinaryConv()
      (bn1): BatchNorm2d(256, eps=1e-05, momentum=0.1, affine=True, track_running_stats=True)
      (move12): LearnableBias()
      (prelu1): PReLU(num_parameters=256)
      (move13): LearnableBias()
      (move21): LearnableBias()
      (binary_pw): HardBinaryConv()
      (bn2): BatchNorm2d(256, eps=1e-05, momentum=0.1, affine=True, track_running_stats=True)
      (move22): LearnableBias()
      (prelu2): PReLU(num_parameters=256)
      (move23): LearnableBias()
      (binary_activation): BinaryActivation()
    )
    (6): BasicBlock(
      (move11): LearnableBias()
      (binary_3x3): HardBinaryConv()
      (bn1): BatchNorm2d(256, eps=1e-05, momentum=0.1, affine=True, track_running_stats=True)
      (move12): LearnableBias()
      (prelu1): PReLU(num_parameters=256)
      (move13): LearnableBias()
      (move21): LearnableBias()
      (binary_pw): HardBinaryConv()
      (bn2): BatchNorm2d(256, eps=1e-05, momentum=0.1, affine=True, track_running_stats=True)
      (move22): LearnableBias()
      (prelu2): PReLU(num_parameters=256)
      (move23): LearnableBias()
      (binary_activation): BinaryActivation()
    )
    (7): BasicBlock(
      (move11): LearnableBias()
      (binary_3x3): HardBinaryConv()
      (bn1): BatchNorm2d(256, eps=1e-05, momentum=0.1, affine=True, track_running_stats=True)
      (move12): LearnableBias()
      (prelu1): PReLU(num_parameters=256)
      (move13): LearnableBias()
      (move21): LearnableBias()
      (binary_pw): HardBinaryConv()
      (bn2): BatchNorm2d(256, eps=1e-05, momentum=0.1, affine=True, track_running_stats=True)
      (move22): LearnableBias()
      (prelu2): PReLU(num_parameters=256)
      (move23): LearnableBias()
      (binary_activation): BinaryActivation()
    )
    (8): BasicBlock(
      (move11): LearnableBias()
      (binary_3x3): HardBinaryConv()
      (bn1): BatchNorm2d(256, eps=1e-05, momentum=0.1, affine=True, track_running_stats=True)
      (move12): LearnableBias()
      (prelu1): PReLU(num_parameters=256)
      (move13): LearnableBias()
      (move21): LearnableBias()
      (binary_pw): HardBinaryConv()
      (bn2): BatchNorm2d(256, eps=1e-05, momentum=0.1, affine=True, track_running_stats=True)
      (move22): LearnableBias()
      (prelu2): PReLU(num_parameters=256)
      (move23): LearnableBias()
      (binary_activation): BinaryActivation()
    )
    (9): BasicBlock(
      (move11): LearnableBias()
      (binary_3x3): HardBinaryConv()
      (bn1): BatchNorm2d(256, eps=1e-05, momentum=0.1, affine=True, track_running_stats=True)
      (move12): LearnableBias()
      (prelu1): PReLU(num_parameters=256)
      (move13): LearnableBias()
      (move21): LearnableBias()
      (binary_pw): HardBinaryConv()
      (bn2): BatchNorm2d(256, eps=1e-05, momentum=0.1, affine=True, track_running_stats=True)
      (move22): LearnableBias()
      (prelu2): PReLU(num_parameters=256)
      (move23): LearnableBias()
      (binary_activation): BinaryActivation()
    )
    (10): BasicBlock(
      (move11): LearnableBias()
      (binary_3x3): HardBinaryConv()
      (bn1): BatchNorm2d(256, eps=1e-05, momentum=0.1, affine=True, track_running_stats=True)
      (move12): LearnableBias()
      (prelu1): PReLU(num_parameters=256)
      (move13): LearnableBias()
      (move21): LearnableBias()
      (binary_pw_down1): HardBinaryConv()
      (binary_pw_down2): HardBinaryConv()
      (bn2_1): BatchNorm2d(256, eps=1e-05, momentum=0.1, affine=True, track_running_stats=True)
      (bn2_2): BatchNorm2d(256, eps=1e-05, momentum=0.1, affine=True, track_running_stats=True)
      (move22): LearnableBias()
      (prelu2): PReLU(num_parameters=512)
      (move23): LearnableBias()
      (binary_activation): BinaryActivation()
      (pooling): AvgPool2d(kernel_size=2, stride=2, padding=0)
    )
    (11): BasicBlock(
      (move11): LearnableBias()
      (binary_3x3): HardBinaryConv()
      (bn1): BatchNorm2d(512, eps=1e-05, momentum=0.1, affine=True, track_running_stats=True)
      (move12): LearnableBias()
      (prelu1): PReLU(num_parameters=512)
      (move13): LearnableBias()
      (move21): LearnableBias()
      (binary_pw): HardBinaryConv()
      (bn2): BatchNorm2d(512, eps=1e-05, momentum=0.1, affine=True, track_running_stats=True)
      (move22): LearnableBias()
      (prelu2): PReLU(num_parameters=512)
      (move23): LearnableBias()
      (binary_activation): BinaryActivation()
    )
  )
  (pool1): AdaptiveAvgPool2d(output_size=1)
  (fc): Linear(in_features=512, out_features=10, bias=True)
)
2020-12-22 12:33:49,649 args = Namespace(batch_size=128, data='/datasets/imagenet', epochs=40, label_smooth=0.1, learning_rate=0.005, momentum=0.9, save='./models_2', teacher='resnet34', weight_decay=0.0, workers=4)
2020-12-22 12:33:51,151 student:
2020-12-22 12:33:51,151 reactnet(
  (feature): ModuleList(
    (0): firstconv3x3(
      (conv1): Conv2d(3, 32, kernel_size=(3, 3), stride=(1, 1), padding=(1, 1), bias=False)
      (bn1): BatchNorm2d(32, eps=1e-05, momentum=0.1, affine=True, track_running_stats=True)
    )
    (1): BasicBlock(
      (move11): LearnableBias()
      (binary_3x3): HardBinaryConv()
      (bn1): BatchNorm2d(32, eps=1e-05, momentum=0.1, affine=True, track_running_stats=True)
      (move12): LearnableBias()
      (prelu1): PReLU(num_parameters=32)
      (move13): LearnableBias()
      (move21): LearnableBias()
      (binary_pw_down1): HardBinaryConv()
      (binary_pw_down2): HardBinaryConv()
      (bn2_1): BatchNorm2d(32, eps=1e-05, momentum=0.1, affine=True, track_running_stats=True)
      (bn2_2): BatchNorm2d(32, eps=1e-05, momentum=0.1, affine=True, track_running_stats=True)
      (move22): LearnableBias()
      (prelu2): PReLU(num_parameters=64)
      (move23): LearnableBias()
      (binary_activation): BinaryActivation()
      (pooling): AvgPool2d(kernel_size=2, stride=2, padding=0)
    )
    (2): BasicBlock(
      (move11): LearnableBias()
      (binary_3x3): HardBinaryConv()
      (bn1): BatchNorm2d(64, eps=1e-05, momentum=0.1, affine=True, track_running_stats=True)
      (move12): LearnableBias()
      (prelu1): PReLU(num_parameters=64)
      (move13): LearnableBias()
      (move21): LearnableBias()
      (binary_pw_down1): HardBinaryConv()
      (binary_pw_down2): HardBinaryConv()
      (bn2_1): BatchNorm2d(64, eps=1e-05, momentum=0.1, affine=True, track_running_stats=True)
      (bn2_2): BatchNorm2d(64, eps=1e-05, momentum=0.1, affine=True, track_running_stats=True)
      (move22): LearnableBias()
      (prelu2): PReLU(num_parameters=128)
      (move23): LearnableBias()
      (binary_activation): BinaryActivation()
      (pooling): AvgPool2d(kernel_size=2, stride=2, padding=0)
    )
    (3): BasicBlock(
      (move11): LearnableBias()
      (binary_3x3): HardBinaryConv()
      (bn1): BatchNorm2d(128, eps=1e-05, momentum=0.1, affine=True, track_running_stats=True)
      (move12): LearnableBias()
      (prelu1): PReLU(num_parameters=128)
      (move13): LearnableBias()
      (move21): LearnableBias()
      (binary_pw): HardBinaryConv()
      (bn2): BatchNorm2d(128, eps=1e-05, momentum=0.1, affine=True, track_running_stats=True)
      (move22): LearnableBias()
      (prelu2): PReLU(num_parameters=128)
      (move23): LearnableBias()
      (binary_activation): BinaryActivation()
    )
    (4): BasicBlock(
      (move11): LearnableBias()
      (binary_3x3): HardBinaryConv()
      (bn1): BatchNorm2d(128, eps=1e-05, momentum=0.1, affine=True, track_running_stats=True)
      (move12): LearnableBias()
      (prelu1): PReLU(num_parameters=128)
      (move13): LearnableBias()
      (move21): LearnableBias()
      (binary_pw_down1): HardBinaryConv()
      (binary_pw_down2): HardBinaryConv()
      (bn2_1): BatchNorm2d(128, eps=1e-05, momentum=0.1, affine=True, track_running_stats=True)
      (bn2_2): BatchNorm2d(128, eps=1e-05, momentum=0.1, affine=True, track_running_stats=True)
      (move22): LearnableBias()
      (prelu2): PReLU(num_parameters=256)
      (move23): LearnableBias()
      (binary_activation): BinaryActivation()
      (pooling): AvgPool2d(kernel_size=2, stride=2, padding=0)
    )
    (5): BasicBlock(
      (move11): LearnableBias()
      (binary_3x3): HardBinaryConv()
      (bn1): BatchNorm2d(256, eps=1e-05, momentum=0.1, affine=True, track_running_stats=True)
      (move12): LearnableBias()
      (prelu1): PReLU(num_parameters=256)
      (move13): LearnableBias()
      (move21): LearnableBias()
      (binary_pw): HardBinaryConv()
      (bn2): BatchNorm2d(256, eps=1e-05, momentum=0.1, affine=True, track_running_stats=True)
      (move22): LearnableBias()
      (prelu2): PReLU(num_parameters=256)
      (move23): LearnableBias()
      (binary_activation): BinaryActivation()
    )
    (6): BasicBlock(
      (move11): LearnableBias()
      (binary_3x3): HardBinaryConv()
      (bn1): BatchNorm2d(256, eps=1e-05, momentum=0.1, affine=True, track_running_stats=True)
      (move12): LearnableBias()
      (prelu1): PReLU(num_parameters=256)
      (move13): LearnableBias()
      (move21): LearnableBias()
      (binary_pw): HardBinaryConv()
      (bn2): BatchNorm2d(256, eps=1e-05, momentum=0.1, affine=True, track_running_stats=True)
      (move22): LearnableBias()
      (prelu2): PReLU(num_parameters=256)
      (move23): LearnableBias()
      (binary_activation): BinaryActivation()
    )
    (7): BasicBlock(
      (move11): LearnableBias()
      (binary_3x3): HardBinaryConv()
      (bn1): BatchNorm2d(256, eps=1e-05, momentum=0.1, affine=True, track_running_stats=True)
      (move12): LearnableBias()
      (prelu1): PReLU(num_parameters=256)
      (move13): LearnableBias()
      (move21): LearnableBias()
      (binary_pw): HardBinaryConv()
      (bn2): BatchNorm2d(256, eps=1e-05, momentum=0.1, affine=True, track_running_stats=True)
      (move22): LearnableBias()
      (prelu2): PReLU(num_parameters=256)
      (move23): LearnableBias()
      (binary_activation): BinaryActivation()
    )
    (8): BasicBlock(
      (move11): LearnableBias()
      (binary_3x3): HardBinaryConv()
      (bn1): BatchNorm2d(256, eps=1e-05, momentum=0.1, affine=True, track_running_stats=True)
      (move12): LearnableBias()
      (prelu1): PReLU(num_parameters=256)
      (move13): LearnableBias()
      (move21): LearnableBias()
      (binary_pw): HardBinaryConv()
      (bn2): BatchNorm2d(256, eps=1e-05, momentum=0.1, affine=True, track_running_stats=True)
      (move22): LearnableBias()
      (prelu2): PReLU(num_parameters=256)
      (move23): LearnableBias()
      (binary_activation): BinaryActivation()
    )
    (9): BasicBlock(
      (move11): LearnableBias()
      (binary_3x3): HardBinaryConv()
      (bn1): BatchNorm2d(256, eps=1e-05, momentum=0.1, affine=True, track_running_stats=True)
      (move12): LearnableBias()
      (prelu1): PReLU(num_parameters=256)
      (move13): LearnableBias()
      (move21): LearnableBias()
      (binary_pw): HardBinaryConv()
      (bn2): BatchNorm2d(256, eps=1e-05, momentum=0.1, affine=True, track_running_stats=True)
      (move22): LearnableBias()
      (prelu2): PReLU(num_parameters=256)
      (move23): LearnableBias()
      (binary_activation): BinaryActivation()
    )
    (10): BasicBlock(
      (move11): LearnableBias()
      (binary_3x3): HardBinaryConv()
      (bn1): BatchNorm2d(256, eps=1e-05, momentum=0.1, affine=True, track_running_stats=True)
      (move12): LearnableBias()
      (prelu1): PReLU(num_parameters=256)
      (move13): LearnableBias()
      (move21): LearnableBias()
      (binary_pw_down1): HardBinaryConv()
      (binary_pw_down2): HardBinaryConv()
      (bn2_1): BatchNorm2d(256, eps=1e-05, momentum=0.1, affine=True, track_running_stats=True)
      (bn2_2): BatchNorm2d(256, eps=1e-05, momentum=0.1, affine=True, track_running_stats=True)
      (move22): LearnableBias()
      (prelu2): PReLU(num_parameters=512)
      (move23): LearnableBias()
      (binary_activation): BinaryActivation()
      (pooling): AvgPool2d(kernel_size=2, stride=2, padding=0)
    )
    (11): BasicBlock(
      (move11): LearnableBias()
      (binary_3x3): HardBinaryConv()
      (bn1): BatchNorm2d(512, eps=1e-05, momentum=0.1, affine=True, track_running_stats=True)
      (move12): LearnableBias()
      (prelu1): PReLU(num_parameters=512)
      (move13): LearnableBias()
      (move21): LearnableBias()
      (binary_pw): HardBinaryConv()
      (bn2): BatchNorm2d(512, eps=1e-05, momentum=0.1, affine=True, track_running_stats=True)
      (move22): LearnableBias()
      (prelu2): PReLU(num_parameters=512)
      (move23): LearnableBias()
      (binary_activation): BinaryActivation()
    )
  )
  (pool1): AdaptiveAvgPool2d(output_size=1)
  (fc): Linear(in_features=512, out_features=10, bias=True)
)
2020-12-22 12:33:51,371 loading checkpoint ./models_2\checkpoint.pth.tar ..........
2020-12-22 12:33:51,517 loaded checkpoint ./models_2\checkpoint.pth.tar epoch = 9
2020-12-22 13:21:17,158 args = Namespace(batch_size=128, data='/datasets/imagenet', epochs=35, label_smooth=0.1, learning_rate=0.005, momentum=0.9, save='./models_2', teacher='resnet34', weight_decay=0.0, workers=4)
2020-12-22 13:21:18,669 student:
2020-12-22 13:21:18,670 reactnet(
  (feature): ModuleList(
    (0): firstconv3x3(
      (conv1): Conv2d(3, 32, kernel_size=(3, 3), stride=(1, 1), padding=(1, 1), bias=False)
      (bn1): BatchNorm2d(32, eps=1e-05, momentum=0.1, affine=True, track_running_stats=True)
    )
    (1): BasicBlock(
      (move11): LearnableBias()
      (binary_3x3): HardBinaryConv()
      (bn1): BatchNorm2d(32, eps=1e-05, momentum=0.1, affine=True, track_running_stats=True)
      (move12): LearnableBias()
      (prelu1): PReLU(num_parameters=32)
      (move13): LearnableBias()
      (move21): LearnableBias()
      (binary_pw_down1): HardBinaryConv()
      (binary_pw_down2): HardBinaryConv()
      (bn2_1): BatchNorm2d(32, eps=1e-05, momentum=0.1, affine=True, track_running_stats=True)
      (bn2_2): BatchNorm2d(32, eps=1e-05, momentum=0.1, affine=True, track_running_stats=True)
      (move22): LearnableBias()
      (prelu2): PReLU(num_parameters=64)
      (move23): LearnableBias()
      (binary_activation): BinaryActivation()
      (pooling): AvgPool2d(kernel_size=2, stride=2, padding=0)
    )
    (2): BasicBlock(
      (move11): LearnableBias()
      (binary_3x3): HardBinaryConv()
      (bn1): BatchNorm2d(64, eps=1e-05, momentum=0.1, affine=True, track_running_stats=True)
      (move12): LearnableBias()
      (prelu1): PReLU(num_parameters=64)
      (move13): LearnableBias()
      (move21): LearnableBias()
      (binary_pw_down1): HardBinaryConv()
      (binary_pw_down2): HardBinaryConv()
      (bn2_1): BatchNorm2d(64, eps=1e-05, momentum=0.1, affine=True, track_running_stats=True)
      (bn2_2): BatchNorm2d(64, eps=1e-05, momentum=0.1, affine=True, track_running_stats=True)
      (move22): LearnableBias()
      (prelu2): PReLU(num_parameters=128)
      (move23): LearnableBias()
      (binary_activation): BinaryActivation()
      (pooling): AvgPool2d(kernel_size=2, stride=2, padding=0)
    )
    (3): BasicBlock(
      (move11): LearnableBias()
      (binary_3x3): HardBinaryConv()
      (bn1): BatchNorm2d(128, eps=1e-05, momentum=0.1, affine=True, track_running_stats=True)
      (move12): LearnableBias()
      (prelu1): PReLU(num_parameters=128)
      (move13): LearnableBias()
      (move21): LearnableBias()
      (binary_pw): HardBinaryConv()
      (bn2): BatchNorm2d(128, eps=1e-05, momentum=0.1, affine=True, track_running_stats=True)
      (move22): LearnableBias()
      (prelu2): PReLU(num_parameters=128)
      (move23): LearnableBias()
      (binary_activation): BinaryActivation()
    )
    (4): BasicBlock(
      (move11): LearnableBias()
      (binary_3x3): HardBinaryConv()
      (bn1): BatchNorm2d(128, eps=1e-05, momentum=0.1, affine=True, track_running_stats=True)
      (move12): LearnableBias()
      (prelu1): PReLU(num_parameters=128)
      (move13): LearnableBias()
      (move21): LearnableBias()
      (binary_pw_down1): HardBinaryConv()
      (binary_pw_down2): HardBinaryConv()
      (bn2_1): BatchNorm2d(128, eps=1e-05, momentum=0.1, affine=True, track_running_stats=True)
      (bn2_2): BatchNorm2d(128, eps=1e-05, momentum=0.1, affine=True, track_running_stats=True)
      (move22): LearnableBias()
      (prelu2): PReLU(num_parameters=256)
      (move23): LearnableBias()
      (binary_activation): BinaryActivation()
      (pooling): AvgPool2d(kernel_size=2, stride=2, padding=0)
    )
    (5): BasicBlock(
      (move11): LearnableBias()
      (binary_3x3): HardBinaryConv()
      (bn1): BatchNorm2d(256, eps=1e-05, momentum=0.1, affine=True, track_running_stats=True)
      (move12): LearnableBias()
      (prelu1): PReLU(num_parameters=256)
      (move13): LearnableBias()
      (move21): LearnableBias()
      (binary_pw): HardBinaryConv()
      (bn2): BatchNorm2d(256, eps=1e-05, momentum=0.1, affine=True, track_running_stats=True)
      (move22): LearnableBias()
      (prelu2): PReLU(num_parameters=256)
      (move23): LearnableBias()
      (binary_activation): BinaryActivation()
    )
    (6): BasicBlock(
      (move11): LearnableBias()
      (binary_3x3): HardBinaryConv()
      (bn1): BatchNorm2d(256, eps=1e-05, momentum=0.1, affine=True, track_running_stats=True)
      (move12): LearnableBias()
      (prelu1): PReLU(num_parameters=256)
      (move13): LearnableBias()
      (move21): LearnableBias()
      (binary_pw): HardBinaryConv()
      (bn2): BatchNorm2d(256, eps=1e-05, momentum=0.1, affine=True, track_running_stats=True)
      (move22): LearnableBias()
      (prelu2): PReLU(num_parameters=256)
      (move23): LearnableBias()
      (binary_activation): BinaryActivation()
    )
    (7): BasicBlock(
      (move11): LearnableBias()
      (binary_3x3): HardBinaryConv()
      (bn1): BatchNorm2d(256, eps=1e-05, momentum=0.1, affine=True, track_running_stats=True)
      (move12): LearnableBias()
      (prelu1): PReLU(num_parameters=256)
      (move13): LearnableBias()
      (move21): LearnableBias()
      (binary_pw): HardBinaryConv()
      (bn2): BatchNorm2d(256, eps=1e-05, momentum=0.1, affine=True, track_running_stats=True)
      (move22): LearnableBias()
      (prelu2): PReLU(num_parameters=256)
      (move23): LearnableBias()
      (binary_activation): BinaryActivation()
    )
    (8): BasicBlock(
      (move11): LearnableBias()
      (binary_3x3): HardBinaryConv()
      (bn1): BatchNorm2d(256, eps=1e-05, momentum=0.1, affine=True, track_running_stats=True)
      (move12): LearnableBias()
      (prelu1): PReLU(num_parameters=256)
      (move13): LearnableBias()
      (move21): LearnableBias()
      (binary_pw): HardBinaryConv()
      (bn2): BatchNorm2d(256, eps=1e-05, momentum=0.1, affine=True, track_running_stats=True)
      (move22): LearnableBias()
      (prelu2): PReLU(num_parameters=256)
      (move23): LearnableBias()
      (binary_activation): BinaryActivation()
    )
    (9): BasicBlock(
      (move11): LearnableBias()
      (binary_3x3): HardBinaryConv()
      (bn1): BatchNorm2d(256, eps=1e-05, momentum=0.1, affine=True, track_running_stats=True)
      (move12): LearnableBias()
      (prelu1): PReLU(num_parameters=256)
      (move13): LearnableBias()
      (move21): LearnableBias()
      (binary_pw): HardBinaryConv()
      (bn2): BatchNorm2d(256, eps=1e-05, momentum=0.1, affine=True, track_running_stats=True)
      (move22): LearnableBias()
      (prelu2): PReLU(num_parameters=256)
      (move23): LearnableBias()
      (binary_activation): BinaryActivation()
    )
    (10): BasicBlock(
      (move11): LearnableBias()
      (binary_3x3): HardBinaryConv()
      (bn1): BatchNorm2d(256, eps=1e-05, momentum=0.1, affine=True, track_running_stats=True)
      (move12): LearnableBias()
      (prelu1): PReLU(num_parameters=256)
      (move13): LearnableBias()
      (move21): LearnableBias()
      (binary_pw_down1): HardBinaryConv()
      (binary_pw_down2): HardBinaryConv()
      (bn2_1): BatchNorm2d(256, eps=1e-05, momentum=0.1, affine=True, track_running_stats=True)
      (bn2_2): BatchNorm2d(256, eps=1e-05, momentum=0.1, affine=True, track_running_stats=True)
      (move22): LearnableBias()
      (prelu2): PReLU(num_parameters=512)
      (move23): LearnableBias()
      (binary_activation): BinaryActivation()
      (pooling): AvgPool2d(kernel_size=2, stride=2, padding=0)
    )
    (11): BasicBlock(
      (move11): LearnableBias()
      (binary_3x3): HardBinaryConv()
      (bn1): BatchNorm2d(512, eps=1e-05, momentum=0.1, affine=True, track_running_stats=True)
      (move12): LearnableBias()
      (prelu1): PReLU(num_parameters=512)
      (move13): LearnableBias()
      (move21): LearnableBias()
      (binary_pw): HardBinaryConv()
      (bn2): BatchNorm2d(512, eps=1e-05, momentum=0.1, affine=True, track_running_stats=True)
      (move22): LearnableBias()
      (prelu2): PReLU(num_parameters=512)
      (move23): LearnableBias()
      (binary_activation): BinaryActivation()
    )
  )
  (pool1): AdaptiveAvgPool2d(output_size=1)
  (fc): Linear(in_features=512, out_features=10, bias=True)
)
2020-12-22 13:21:18,890 loading checkpoint ./models_2\checkpoint.pth.tar ..........
2020-12-22 13:21:19,030 loaded checkpoint ./models_2\checkpoint.pth.tar epoch = 21
